p27model_2.pth (torch, 588587 bytes, 10 tensors)

weight f4 [32, 3, 5, 5]
0	0xbb20dc0f	-0.0024545228
1	0x3e1caa8d	0.15299435
2	0x3cecbf0f	0.028899698
3	0x3de9683e	0.11396836
4	0x3dedb8aa	0.116074875
5	0x3cc23eb2	0.023711536
6	0x3d4089ea	0.047006525
7	0xbce51c3e	-0.027967568
8	0x3d4db038	0.050216883
9	0x3dba4bf2	0.09096517
10	0x3c7329cb	0.014841507
11	0xbd804c5a	-0.06264563
12	0xbdcd3bf5	-0.100212015
13	0xbdc44dcd	-0.09585152
14	0x3d50fcd7	0.051022377
15	0x3d653fce	0.055969052
16	0x3d75ea32	0.0600378
17	0x3cc9168d	0.024546886
18	0x3dd175bd	0.10227535
19	0x3c9dfbc3	0.019285088
20	0xbddbbe25	-0.107296266
21	0x3cd4a8d7	0.025959415
22	0x3cd99340	0.026559472
23	0x3d7d6578	0.061864346
24	0x3d5e1911	0.054223124
25	0xbc7502bc	-0.014954265
26	0xbdb52b07	-0.088460974
27	0x3c48df19	0.012260222
28	0x3d51edf6	0.051252328
29	0xbd54477f	-0.051825996
30	0x3d8a4704	0.067518264
31	0x3d97a3c5	0.074042834
32	0x3d357bc7	0.044307496
33	0xbda83f19	-0.0821516
34	0x3c500e60	0.01269874
35	0xbd4f899a	-0.050668336
36	0xbd4109a9	-0.047128353
37	0xbe14bd34	-0.145253
38	0xbdde1d0d	-0.10845385
39	0xbcf3cbb9	-0.029760228
40	0xb889cd28	-6.5708824e-05
41	0xbd8d99ce	-0.069141015
42	0xbde5d293	-0.112218045
43	0xbd20547e	-0.039143078
44	0xbd867d2f	-0.065668456
45	0xbdb06ef0	-0.0861491
46	0xbda47442	-0.08029987
47	0xbe0fc392	-0.14039448
48	0x3ca88a98	0.0205739
49	0x3d37ed9e	0.044904344
50	0xbcf67b0e	-0.030087974
51	0x3dff54cd	0.12467346
52	0xbd8dd115	-0.06924645
53	0x3b9ffde5	0.0048825615
54	0x3d4ab704	0.049490944
55	0xbd998eb8	-0.074979246
56	0x3cad6535	0.021166423
57	0x3e12734a	0.14301792
58	0x3c97b4a5	0.018518755
59	0x3d9880c8	0.07446438
60	0x3de832d2	0.11337818
61	0xbbe353f7	-0.0069374996
62	0xbdee81c6	-0.11645846
63	0xbdb05182	-0.086092964
64	0xbcc1272a	-0.023578245
65	0x3d1bd1ae	0.038041763
66	0x3db8b01f	0.090179674
67	0x3d755791	0.059897963
68	0x3de9431b	0.113897525
69	0x3d03a780	0.032142162
70	0x3c48e30f	0.012261166
71	0xbdcea036	-0.100891516
72	0x3db743b0	0.08948457
73	0x3d83fff5	0.06445304
74	0x3de1c8aa	0.11024602
75	0x3cc0cb9a	0.023534585
76	0xbc408c93	-0.0117522655
77	0xbc936b17	-0.0179954
78	0xbd57b72b	-0.052664917
79	0x3d6ff4af	0.058582958
80	0x3df29375	0.118445314
81	0x3c73e22e	0.014885468
82	0xbd958c46	-0.07302146
83	0xbd90017e	-0.070315346
84	0x3d5da73a	0.054114558
85	0x3c8197b5	0.01581941
86	0x3dd0297f	0.10164165
87	0xbddaf946	-0.106920764
88	0x3ddf75a7	0.10911112
89	0x3da997cf	0.08280908
90	0xbc9779a5	-0.018490622
91	0x3e11d88d	0.14242764
92	0x3cd57755	0.026057879
93	0xbb584377	-0.0032999197
94	0x3dc6fe73	0.09716501
95	0x3d0d8112	0.03454692
96	0x3dc4f7d5	0.09617583
97	0x3dcf1836	0.1011204
98	0xbcbef3ca	-0.023309607
99	0xbd6343fe	-0.055484764
100	0x3dcc4764	0.09974554
101	0xbde546c7	-0.1119514
102	0xbca6aeae	-0.020346966
103	0x3ce923e8	0.028459504
104	0xbb9227fd	-0.0044603334
105	0x3dae6f5f	0.08517336
106	0x3bac6b28	0.0052617975
107	0xbda2ba6f	-0.07945716
108	0xbd804fba	-0.06265207
109	0xbde0cc1a	-0.10976429
110	0x3d667518	0.056264013
111	0x3da79401	0.081825264
112	0xbd6ee200	-0.058321
113	0xbdfd80a8	-0.12378055
114	0x3d387145	0.045029897
115	0xbd07cad7	-0.033152428
116	0xbd228e91	-0.039686743
117	0x3c9eaf38	0.01937066
118	0x3de54681	0.11195088
119	0x3e035193	0.12824087
120	0xbd796221	-0.0608846
121	0xbd3c6396	-0.04599341
122	0x3dbee55e	0.09321092
123	0x3d3ea492	0.046543665
124	0x3dc8d685	0.09806541
125	0x3d8b258a	0.067942694
126	0xbe07acb6	-0.13249478
127	0xbd75a929	-0.059975777
128	0xbdb23ba9	-0.087027855
129	0xbdab25a8	-0.08356792
130	0x3ddd32ed	0.10800729
131	0xbdcb1792	-0.09916605
132	0xbc8abf37	-0.016936881
133	0xbdf68f99	-0.12039108
134	0x3cf5a3fb	0.029985419
135	0x3d755a74	0.059900716
136	0x3d4b437e	0.049624912
137	0xbe155ea2	-0.14586881
138	0xbb789220	-0.0037928894
139	0x3d8e7bc1	0.06957198
140	0xbdb50392	-0.088385716
141	0x3d9bf0e6	0.07614307
142	0xbd3ddb4b	-0.046351712
143	0xbdd39b5d	-0.103323676
144	0x3d8720d8	0.06598061
145	0xbd03a254	-0.03213723
146	0x3d537e16	0.051633917
147	0x3d63874a	0.055548944
148	0xbde19dd5	-0.11016432
149	0xbdc3eeae	-0.09567009
150	0xbe00b235	-0.1256798
151	0xbde11431	-0.10990179
152	0xbd0158dc	-0.031578884
153	0x3ccb5ce4	0.024824567
154	0x3cc03aa1	0.023465456
155	0x3dc1374e	0.09434377
156	0xbd1385b6	-0.03601619
157	0xbdca666e	-0.09882818
158	0x3d3d4501	0.046208385
159	0xbdb54bc6	-0.08852343
160	0x3d308fed	0.04310601
161	0xbd8edc9a	-0.0697567
162	0x3ddadad3	0.10686269
163	0x3d3d7819	0.046257112
164	0xbde7c33b	-0.11316534
165	0xbd9309f5	-0.071796335
166	0x3dd0b03f	0.10189866
167	0x3e0238e3	0.12717013
168	0xbd8488f6	-0.06471436
169	0x3dacae44	0.08431676
170	0xbc85275d	-0.016254121
171	0x3d3113d8	0.043231815
172	0x3de45512	0.111490384
173	0x3ca09e7c	0.019606821
174	0xbd965a7f	-0.073414795
175	0xbb14ce64	-0.0022706026
176	0xbd4ff4a2	-0.05077041
177	0xbc944b52	-0.018102322
178	0x3cbc47ae	0.022983398
179	0xbd35c93d	-0.04438137
180	0x3da559de	0.080737814
181	0xbda057f8	-0.07829279
182	0xbd244159	-0.040101383
183	0x3d2769cc	0.04087238
184	0xbd8aeb59	-0.0678317
185	0x3dbc7c20	0.092033625
186	0x3d329c40	0.043606043
187	0xbd7425d0	-0.059606373
188	0xbc450d42	-0.012027087
189	0x3d164448	0.03668621
190	0xbdc2b8fe	-0.09507941
191	0xbdb6d926	-0.089281365
192	0xbceab9dc	-0.028653078
193	0x3df5a632	0.1199459
194	0xbd1ee750	-0.038794816
195	0x3dba9aa8	0.091115296
196	0x3cf3e302	0.029771332
197	0xbc89ba89	-0.01681258
198	0xbd84cb86	-0.064841315
199	0x3cf774bf	0.030207036
200	0xbdfe2f1e	-0.12411331
201	0xbb5233f0	-0.0032074414
202	0x3d930469	0.071785755
203	0x3d28ca39	0.04120848
204	0xbd914ee4	-0.07095125
205	0xbdda0002	-0.10644533
206	0x3d9c95e3	0.07645776
207	0x3d915aff	0.07097434
208	0xbbb3b7a0	-0.0054845363
209	0xbdc08887	-0.094010405
210	0x39953e9c	0.00028466142
211	0x3d1840ab	0.037171047
212	0xbd0f7cbf	-0.035031077
213	0xbc5d42a1	-0.013504655
214	0xbdb228d1	-0.08699191
215	0x3d94f288	0.07272822
216	0x3deae998	0.11470336
217	0x3d4b6c3e	0.049663775
218	0xbdbbb589	-0.091654845
219	0x3d17d5c8	0.037069112
220	0x3dedb757	0.11607235
221	0x3d28e515	0.041234095
222	0x3b7b6c80	0.0038364232
223	0x3dce314d	0.10067997
224	0x3c959037	0.018257244
225	0x3db999ed	0.09062562
226	0x3e0537d4	0.13009578
227	0xbdc3757e	-0.09543894
228	0x3dd82fa0	0.10555959
229	0xbd50b7ef	-0.050956663
230	0x3d326358	0.043551773
231	0x3db52817	0.08845537
232	0x3e0a57e9	0.13510098
233	0xbcee05bf	-0.029055474
234	0x3b3dc5cd	0.002895701
235	0xbc1f2eb6	-0.009715727
236	0x3dc8940a	0.09793861
237	0xbd67723c	-0.056505427
238	0xbdc4b9cc	-0.096057504
239	0xbdcac68d	-0.09901152
240	0x3dc60d6a	0.09670527
241	0x3dabb138	0.08383411
242	0x3dd1b03e	0.10238694
243	0xbc7cc057	-0.015426717
244	0xbd502861	-0.05081976
245	0x3da2e064	0.07952955
246	0x3df9d990	0.121997
247	0xbd4ea1b7	-0.050447192
248	0xbe059a9a	-0.13047257
249	0x3ba54e60	0.0050447434
250	0x3daa38b4	0.083115965
251	0x3dbfa76f	0.09358107
252	0xbd3a8353	-0.045535397
253	0x3d5904ab	0.052982967
254	0xbc88a69c	-0.016681008
255	0xbdca7b27	-0.09886771

bias f4 [32]
0	0xbd9eb824	-0.07749966
1	0x3d9f01b9	0.077640004
2	0xbc1443b4	-0.009049345
3	0x3d9cd9da	0.076587394
4	0x3db85777	0.090010576
5	0xbd019923	-0.031640183
6	0xbc9a5296	-0.018838208
7	0x3df62fb5	0.12020818
8	0xbe5f5165	-0.21808393
9	0xbd053b7e	-0.03252744
10	0xbc54059b	-0.01294079
11	0x3c16638e	0.009179009
12	0x3c8c99c1	0.01716316
13	0xbe45c249	-0.19312395
14	0x3ccac2ea	0.024751145
15	0x3d4e51f6	0.050371133
16	0xbd960d50	-0.07326758
17	0xbd556a40	-0.05210328
18	0xbe22ead1	-0.15909888
19	0x3bb73741	0.0055913036
20	0x3d1f82be	0.038943045
21	0xbe3d9352	-0.1851323
22	0xbbe1ceb0	-0.006891094
23	0xbd91ea27	-0.07124739
24	0xbdb31cf4	-0.08745757
25	0xbe1558f0	-0.14584708
26	0x3a80f645	0.0009839019
27	0xbd2f2c04	-0.042766586
28	0xbdf3d865	-0.11906508
29	0x3d8186d9	0.06324548
30	0xbe1d3901	-0.15353777
31	0xbe059a64	-0.13047177

weight f4 [32, 32, 5, 5]
0	0x3ba2166e	0.0049465215
1	0x3d04f081	0.032455925
2	0x3c193bc3	0.009352627
3	0xbcdd56e2	-0.027018968
4	0x3d208570	0.039189756
5	0x3ccd8649	0.025088446
6	0x3ca1bd8e	0.019743707
7	0x3c5d448d	0.013505113
8	0xbcc62c8d	-0.024191165
9	0x3cf822bc	0.03029
10	0x3c505b70	0.012717113
11	0x3cd5ca7e	0.026097532
12	0xbc1ca8dc	-0.009561744
13	0xbc1af001	-0.009456635
14	0x3c608744	0.013704125
15	0x3c085285	0.008320455
16	0xbc91d5ed	-0.017802203
17	0xbc0caa91	-0.008585588
18	0x3cd6bd5d	0.026213342
19	0x3d0340a0	0.032044053
20	0x3aa44ab0	0.0012534466
21	0xbc9dc5ab	-0.019259294
22	0xbcdd64ec	-0.027025662
23	0xbc55ed6a	-0.013057092
24	0x3c6304db	0.013856138
25	0x3d44325e	0.047899596
26	0xbc577648	-0.013150759
27	0x3b971a56	0.004611294
28	0x3c18ee78	0.009334199
29	0x3c591e34	0.01325183
30	0x3c7dc33a	0.01548844
31	0x3c83ea0b	0.016102811
32	0x3d294c6b	0.041332643
33	0x3be4a5fc	0.0069777947
34	0x3d3d3b92	0.04619939
35	0x3d270d83	0.04078437
36	0x3d3c3172	0.045945592
37	0x3bfdfa10	0.007750757
38	0x3c65f703	0.014035943
39	0xbbcc9604	-0.006243469
40	0xba99e6b4	-0.0011741729
41	0x3ce38df7	0.027777655
42	0xbb1e471f	-0.0024151278
43	0xbc61fd84	-0.013793353
44	0xba755ef0	-0.0009360155
45	0x3d11668b	0.035498183
46	0xbc1150d8	-0.008869372
47	0x3c2aa7e9	0.010416009
48	0x3c85bba3	0.016324824
49	0x3cd13c8c	0.025541566
50	0xbcc9f8b4	-0.024654724
51	0xbca8f4d3	-0.020624554
52	0x3b8500fd	0.0040589557
53	0x3cf22308	0.02955772
54	0xbc900ce3	-0.01758427
55	0xbc79f994	-0.015257258
56	0xbbabb43b	-0.005239991
57	0x3b24bc43	0.0025136627
58	0x3b07bdb2	0.0020712432
59	0x3c50d156	0.012745222
60	0xbb2431ad	-0.0025054023
61	0x3d13cd20	0.036084294
62	0x3bc6432c	0.006050488
63	0xbb35fdbf	-0.0027769653
64	0x3b998ccb	0.0046859733
65	0x3c4aef67	0.0123861795
66	0x3d178158	0.036988586
67	0x3c91e8e6	0.01781125
68	0x3ce15cb2	0.02751002
69	0xbc29b5be	-0.010358272
70	0x3d19d27f	0.03755426
71	0xbc832bca	-0.016012091
72	0x3cf3cf6c	0.029761992
73	0x3d2e421f	0.042543527
74	0xbc0ae328	-0.00847701
75	0x3cfbc9c7	0.030735863
76	0x3d22a264	0.03970565
77	0xbbffc836	-0.0078058494
78	0xbb254677	-0.0025219002
79	0x3cc7baad	0.024381006
80	0x3ced7ed6	0.028991144
81	0x3c9fd6d1	0.019511612
82	0x3d31fa56	0.04345163
83	0xbc9a85d3	-0.01886264
84	0x3cb2e09b	0.021835616
85	0x3d207243	0.03917147
86	0x3c628e62	0.013827892
87	0x3b13163a	0.0022443668
88	0x3d282292	0.041048594
89	0x3d504569	0.050847445
90	0x3d49003c	0.04907249
91	0x3ca00766	0.019534778
92	0x3c7b7cb8	0.0153495595
93	0x3b4020d4	0.0029316442
94	0x3d2a7e20	0.04162419
95	0x3cd69efb	0.026198855
96	0x3c20af9a	0.009807492
97	0x3d13eebe	0.036116354
98	0x3d23c76f	0.039985117
99	0xbca0d484	-0.019632585
100	0x3bf2c4f3	0.007408732
101	0x3c849bca	0.016187567
102	0x3c8f9020	0.017524779
103	0x3cf717f3	0.030162787
104	0x3cdb3830	0.02676019
105	0xbc7d905e	-0.015476314
106	0x3cc0375e	0.023463901
107	0xbca4576d	-0.02006122
108	0x3d04b2cd	0.03239708
109	0xbcc2de01	-0.0237875
110	0x3aaa7fb0	0.0013008025
111	0xbb679cee	-0.003534134
112	0x3d177f14	0.036986426
113	0x3bbd0819	0.0057687876
114	0xbc888279	-0.016663777
115	0x3c9dcaa3	0.019261664
116	0x3ca00082	0.019531492
117	0x3ccaa78a	0.024738092
118	0x3be3c2b9	0.006950703
119	0x3cb5d4b0	0.022196144
120	0xbccbf72a	-0.02489813
121	0xbc5a8fc3	-0.0133399395
122	0xbc642b98	-0.013926409
123	0x3c14172a	0.009038726
124	0x3cdb558a	0.026774187
125	0x3d42006f	0.047363695
126	0xbc084317	-0.008316777
127	0xbbb4013a	-0.0054933103
128	0xbbbcd4ae	-0.005762658
129	0xbb675b9e	-0.003530241
130	0x3d1c4c77	0.03815886
131	0xbc8cf982	-0.017208818
132	0x3d0a1a41	0.033716444
133	0x3a8941ba	0.0010471859
134	0x3a808ed1	0.0009808188
135	0xbbcecacc	-0.0063107964
136	0x3b6e34e4	0.0036347443
137	0x3cff1ce8	0.031141713
138	0xbcaaf250	-0.020867497
139	0x3c4bc115	0.012436171
140	0xbcc895e5	-0.024485538
141	0xbaff000d	-0.0019454971
142	0xbc8d35ce	-0.01723757
143	0x3c907ff3	0.017639136
144	0x3d0e9df5	0.03481861
145	0x3cd7240a	0.026262302
146	0x3b43d8dc	0.0029883897
147	0x3b6e0c34	0.0036323192
148	0x3d2041d4	0.03912528
149	0x3ca0166a	0.019541938
150	0xbc295dcb	-0.010337303
151	0x3d0dbdcf	0.034604844
152	0x3cf981e8	0.030457452
153	0x3c8868e9	0.016651588
154	0xbc9aa352	-0.018876705
155	0x3cdbae1e	0.026816424
156	0xbc8ab42a	-0.016931612
157	0x3d16b8ea	0.03679744
158	0x3d0d9616	0.03456696
159	0x3d19c298	0.037539095
160	0x3ad20009	0.0016021739
161	0xbcc16c93	-0.023611343
162	0xba70a5ee	-0.0009179999
163	0xbcd2da7b	-0.025738945
164	0xbca70e47	-0.02039255
165	0x3d0b838c	0.034061
166	0x3cd74289	0.026276844
167	0x3cb5ab0f	0.022176294
168	0x3c59a76d	0.013284546
169	0x3cf2ddbd	0.029646749
170	0x3ce15268	0.027505115
171	0x3b419001	0.0029535296
172	0x3b67ef32	0.0035390374
173	0x3d164bc2	0.036693342
174	0x3cbded96	0.023184579
175	0xbb90fec3	-0.004424901
176	0xbb51c09c	-0.0032005673
177	0x3c9df45f	0.019281564
178	0x3d1c2d3c	0.038129076
179	0x3d0d312e	0.03447073
180	0x3cdfc36c	0.027314864
181	0xbc276b98	-0.010218523
182	0xbc0dcc5d	-0.008654681
183	0x3c373a49	0.01118333
184	0x3baf2882	0.005345405
185	0x3cd9a48e	0.026567724
186	0x3d1b3775	0.037894685
187	0x3ceb5a32	0.028729532
188	0x3ca42a1d	0.020039612
189	0x3cd7f44c	0.026361607
190	0x3c1fba0f	0.00974895
191	0xbcb0cb3d	-0.021581287
192	0x3c97e13e	0.018540021
193	0x3c44d769	0.012014248
194	0x3d41f722	0.047354825
195	0xbca1486a	-0.01968785
196	0xbcf8681e	-0.030323084
197	0x3ca1f763	0.019771283
198	0x3d130e37	0.03590223
199	0x3c26ee67	0.0101886755
200	0x3c97f096	0.018547338
201	0x3ccd3b78	0.025052771
202	0x3cc63eb2	0.024199817
203	0x3c095803	0.0083828
204	0x3d04d000	0.032424927
205	0xbd0a6b58	-0.033793777
206	0xbc1b3c2c	-0.009474795
207	0xbca3865c	-0.019961528
208	0xbbf8634f	-0.007580198
209	0x3caf3100	0.02138567
210	0xbc56f8b2	-0.013120817
211	0xbcbfb6c6	-0.023402583
212	0x3bcefb13	0.0063165515
213	0xbd3392f8	-0.043841332
214	0x3ce84655	0.02835385
215	0x3c76f11b	0.015072132
216	0xbc61e60e	-0.0137877595
217	0xbd1e65c9	-0.03867129
218	0xbcca342d	-0.024683082
219	0xbc35c590	-0.011094466
220	0xbc9cf95b	-0.01916187
221	0xbbb8a4f7	-0.0056348997
222	0xbd0afb6e	-0.03393119
223	0xbbfa5642	-0.0076396773
224	0x3cc422b7	0.023942335
225	0x3b0a703d	0.0021124028
226	0x3c1bbd74	0.009505618
227	0x3c74cf6c	0.014942031
228	0x3cae87e8	0.02130504
229	0xbce780dd	-0.028259689
230	0x3c9dba62	0.019253913
231	0x3c009fc3	0.00785059
232	0x3d0184c8	0.03162077
233	0x3ce85df5	0.028365115
234	0xbc2f9688	-0.010717042
235	0xbc97589b	-0.018474868
236	0x3c40936b	0.011753897
237	0x3cc44ee0	0.023963392
238	0x3d289a9c	0.041163072
239	0x3c834d97	0.016028209
240	0xbbf76f00	-0.007551074
241	0xbc7ef25a	-0.015560711
242	0x3a5b9736	0.0008376719
243	0x3cf141b2	0.029450271
244	0x3c24bb47	0.010054416
245	0xbcd5dd69	-0.026106553
246	0xbd05242c	-0.0325052
247	0xbc201eab	-0.009772937
248	0xbc80df1b	-0.015731385
249	0xbb8cab16	-0.004292856
250	0x3cc8be9d	0.024504954
251	0x3c681d2f	0.014167114
252	0x3c9cf3ac	0.01915916
253	0xbc0df1b6	-0.008663585
254	0xba50e7a6	-0.00079690886
255	0x3d0827cd	0.033241082

bias f4 [32]
0	0x3cd291f9	0.02570437
1	0xbd2b4a37	-0.041818824
2	0xbd93c0c7	-0.07214504
3	0x3c8e4c74	0.01737044
4	0x3bc8de9e	0.0061300537
5	0x3c89f344	0.01683963
6	0x3cf1cbd8	0.029516146
7	0xbce1705d	-0.0275194
8	0xbd3926d3	-0.04520304
9	0x3d1e9435	0.03871556
10	0x3c9c3339	0.019067394
11	0xbc20366d	-0.009778601
12	0x3b8ee945	0.004361304
13	0xbca35665	-0.019938657
14	0xbc294a98	-0.010332726
15	0xbc1a7a66	-0.009428596
16	0x3b800f75	0.0039080926
17	0xbd810267	-0.06299286
18	0x3d38133e	0.044940226
19	0xbd3ff000	-0.04685974
20	0x3cb53246	0.022118699
21	0xbcbe2880	-0.023212671
22	0xbcd797fb	-0.026317587
23	0x3d2b42f8	0.041811913
24	0x3d0d0f7a	0.034438588
25	0xbc1ed6af	-0.009694739
26	0xbc01e230	-0.007927462
27	0xbd915a19	-0.07097263
28	0x3b92fd9a	0.004485798
29	0xbc92e511	-0.017931493
30	0x3b5be569	0.0033553487
31	0xbcb953ad	-0.022622908

weight f4 [64, 32, 5, 5]
0	0xbc84fef6	-0.016234856
1	0x3c098915	0.008394499
2	0xbc04ba3d	-0.008101043
3	0xbce9743a	-0.028497804
4	0xbcdeae69	-0.027182775
5	0xbcee09ce	-0.02905741
6	0x3c8a2ef9	0.016868101
7	0xbc6a072a	-0.014283935
8	0xbd07ee5b	-0.033186298
9	0x3c735b01	0.01485324
10	0xbca29b34	-0.019849397
11	0xbc8d068a	-0.017215032
12	0x3cde54ce	0.027140047
13	0xbc027044	-0.0079613365
14	0x3c6c76c7	0.014432616
15	0xbb9ad76b	-0.004725387
16	0x3ced30d0	0.02895394
17	0xbd066cf3	-0.032818746
18	0xbd0205de	-0.031743877
19	0x3a99f346	0.0011745475
20	0xbd029e3f	-0.031889196
21	0xbc527ba3	-0.01284686
22	0x3c869bd5	0.016431728
23	0xbd0a08f6	-0.033699952
24	0x3ca212d7	0.019784374
25	0xbcc9c1e4	-0.024628587
26	0xba88e3dc	-0.0010443884
27	0xbcb91875	-0.02259467
28	0x3c48e456	0.012261471
29	0x3a87e6e8	0.0010368498
30	0x3bf5a4b7	0.007496442
31	0xbc68f657	-0.014218888
32	0xbb9d66e6	-0.004803526
33	0xbcd77998	-0.026303098
34	0xbcfbd63f	-0.030741809
35	0x3c8169e3	0.015797561
36	0xbd06d5fb	-0.03291891
37	0x3c31d306	0.010853535
38	0x3bb52372	0.005527907
39	0xbcca4e99	-0.024695681
40	0xbcee2762	-0.029071514
41	0x3d294940	0.041329622
42	0x3d2912f3	0.041277837
43	0xbc339422	-0.010960611
44	0x3cd574eb	0.026056727
45	0x3ca012db	0.019540241
46	0xbd00b9d0	-0.031427205
47	0xbc3d8718	-0.011567853
48	0x3cfe0781	0.031009438
49	0xbd006d15	-0.03135403
50	0xbb04a576	-0.0020240224
51	0xba94903c	-0.0011334489
52	0x3c568952	0.013094263
53	0x3cae4848	0.0212747
54	0xbd24df0c	-0.040251777
55	0xbd17a4c1	-0.037022356
56	0xbc6803e5	-0.014161085
57	0x3cf0c1f3	0.029389357
58	0x3c0a0b23	0.008425507
59	0xbd0a6c4b	-0.033794682
60	0xbd002ed7	-0.03129467
61	0x3b9e568d	0.004832095
62	0x3d01d5b1	0.031697933
63	0x3bd30065	0.006439256
64	0xbcfb996c	-0.030712806
65	0x3c97ea69	0.018544393
66	0xbd0b75b3	-0.034047794
67	0x3c0361b7	0.0080189025
68	0xbc0c24fa	-0.008553738
69	0xbd358432	-0.044315524
70	0x3cdce8ce	0.026966479
71	0x3c1ddd2b	0.00963525
72	0x3d17d136	0.037064753
73	0x3a9da17a	0.0012026273
74	0x3c96a4ad	0.01838907
75	0xbcfdc469	-0.030977445
76	0x3acd316a	0.0015654985
77	0xbcaa1809	-0.020763414
78	0x3c2e1548	0.010625191
79	0xbcf4d290	-0.02988556
80	0x3ca7c14c	0.020477913
81	0x3b06ecbe	0.0020587887
82	0xbcd50eac	-0.026007973
83	0xbd05d126	-0.032670163
84	0x3adaeb0e	0.0016702132
85	0x3c3a6f9f	0.011379152
86	0x3b839e7c	0.0040166955
87	0xbb2f0836	-0.0026707775
88	0x3c1d3b80	0.009596705
89	0xbb430a9a	-0.0029760958
90	0x3c8fc10c	0.017548107
91	0xbcc07569	-0.023493486
92	0xbc72f341	-0.014828504
93	0x3c8b7955	0.017025629
94	0x3cad6501	0.021166326
95	0x3ca67e45	0.020323882
96	0x3c3eeef6	0.011653652
97	0xbbceb034	-0.006307626
98	0xbc80958e	-0.015696313
99	0x3c8ecb34	0.01743088
100	0xbb5b4f66	-0.0033464073
101	0xbc4bd2a6	-0.012440359
102	0x3cb0deb0	0.02159056
103	0xbcde8a79	-0.027165638
104	0x3cbcf1a4	0.023064442
105	0xbd33ad02	-0.043866165
106	0x3c6601b5	0.014038493
107	0x3d023f3d	0.03179859
108	0xbcfbb546	-0.030726086
109	0x3a1d0dfe	0.00059911597
110	0x3c5166d1	0.012780861
111	0x3ce95fad	0.028488005
112	0x3d09d2ba	0.03364823
113	0x3d023a6a	0.03179399
114	0x3cfac2c8	0.030610457
115	0x3c9b46f0	0.018954724
116	0xbd036583	-0.03207923
117	0xbd09c794	-0.0336376
118	0x3c864a7b	0.016392937
119	0xbcb938e6	-0.02261014
120	0xbcc84719	-0.024447965
121	0xbcce196d	-0.025158608
122	0xbcfcc798	-0.030856892
123	0x3ce3447e	0.02774262
124	0x3c9f7803	0.019466406
125	0xbc29e312	-0.010369079
126	0xbbcd38b3	-0.0062628626
127	0xbcf95ede	-0.030440744
128	0xbafbed0f	-0.0019220429
129	0xba1c3cf3	-0.000596001
130	0x3bb1520f	0.0054113935
131	0xbd0fccf1	-0.035107557
132	0x3cb9ff8d	0.022704864
133	0x3caf492f	0.021397201
134	0xbd0b4899	-0.03400478
135	0xb7400140	-1.1444383e-05
136	0x3c769976	0.015051236
137	0xbccb8d20	-0.024847567
138	0x3cd75686	0.026286375
139	0x3bebd996	0.007197569
140	0x3cf2e9b4	0.029652454
141	0x3b008604	0.001961113
142	0x3d226724	0.039649144
143	0x3cc568d9	0.024097847
144	0x3b94ae42	0.0045373747
145	0x3ca9623b	0.020676723
146	0xbc13d997	-0.009024045
147	0xbcf24875	-0.029575566
148	0xbcdf4794	-0.02725581
149	0x3ca8a82b	0.020588001
150	0x3cb5ede0	0.022208154
151	0xbb0ea1bd	-0.0021763884
152	0xbca54780	-0.020175695
153	0x3cee80b9	0.029114114
154	0xbab86346	-0.0014067672
155	0x3bc74981	0.0060817604
156	0x3ca1c5f6	0.019747715
157	0x3d085cea	0.033291735
158	0x3b70d82f	0.003674995
159	0xbc326f96	-0.010890862
160	0x3cb7636a	0.022386272
161	0xbcdf0aca	-0.027226824
162	0xbc9b2eae	-0.018943157
163	0xbc54c7d0	-0.012987092
164	0xbc555ded	-0.013022882
165	0xbd17350b	-0.03691582
166	0xba0cec91	-0.00053758273
167	0xbc9557da	-0.018230367
168	0xbd006357	-0.031344738
169	0x3a4e7a88	0.0007876535
170	0x3c5d9996	0.013525387
171	0xbbc8eeba	-0.006131974
172	0x3c9de2d0	0.019273192
173	0x3d007817	0.031364527
174	0xbd0bd4fa	-0.034138657
175	0xbc2d4df7	-0.01057767
176	0x3c5a89ee	0.013338549
177	0xbc4021ad	-0.011726779
178	0xbd001aca	-0.031275548
179	0xbb565515	-0.0032704521
180	0x3cb96b49	0.022634165
181	0x3c4d111a	0.012516284
182	0x3c935109	0.017982977
183	0x3cc8eccd	0.024526978
184	0xbd0da264	-0.034578696
185	0x3ce0408d	0.02737453
186	0x3c87f0d8	0.016594335
187	0x3cfbde9a	0.030745793
188	0x3cc97288	0.024590746
189	0xbd249717	-0.040183153
190	0xbd1090a7	-0.0352942
191	0xbc310990	-0.0108055025
192	0xbc8953fa	-0.016763676
193	0x3c588a52	0.013216572
194	0xbb66811f	-0.0035172177
195	0xbc0a7f8d	-0.008453262
196	0xba3d44aa	-0.00072200096
197	0x3d184a3f	0.03718018
198	0xbc65ecca	-0.014033506
199	0xbc60afb0	-0.013713762
200	0xbccd5519	-0.025064992
201	0x3c829e5b	0.01594465
202	0xbcfb223a	-0.030655969
203	0xbca643b1	-0.02029595
204	0x3cc9c701	0.024631025
205	0xbcb74354	-0.022370972
206	0x3cd2d445	0.025735984
207	0x3c2df8f9	0.010618442
208	0x3bf897c5	0.0075864517
209	0xbc204d41	-0.009784044
210	0x3c4c7df2	0.0124812
211	0x3c99dbb0	0.018781513
212	0x3cad1e8a	0.021132726
213	0x3c779581	0.015111328
214	0xbbeecb0f	-0.00728739
215	0xbcdf736c	-0.027276717
216	0xbd046187	-0.03231957
217	0x3c9e53b6	0.019327026
218	0x3cfe39ae	0.031033363
219	0xbce83e77	-0.028350098
220	0xbb635914	-0.0034690546
221	0xbb83d80c	-0.0040235575
222	0xbcb0e3f9	-0.02159308
223	0xbc75b05b	-0.01499566
224	0x3bbfdcc4	0.0058551747
225	0xbcb65736	-0.022258382
226	0xbcf3d367	-0.02976389
227	0xbcedadf7	-0.029013617
228	0xbc74f737	-0.014951519
229	0xbca7ca7e	-0.020482298
230	0xbd0f1a15	-0.034936983
231	0xbbe7ea4b	-0.0070774904
232	0xbc175bbd	-0.009238181
233	0x3ca7eb6f	0.020498006
234	0x3c9fcb38	0.019506082
235	0xbd103574	-0.035207227
236	0xbce92dd9	-0.028464245
237	0x3ccdd29d	0.025124842
238	0x3c62af6f	0.013835772
239	0x3b840bc9	0.004029725
240	0xbcf18b04	-0.029485233
241	0x3cbe314d	0.023216868
242	0x3cc3da32	0.023907755
243	0x3cc674a8	0.024225548
244	0xbc2c18ad	-0.01050393
245	0xbd105e36	-0.035246097
246	0xbbcc678d	-0.00623793
247	0x3cc70451	0.02429405
248	0xbbc98a88	-0.0061505474
249	0xbcd52262	-0.026017372
250	0x3c9c44fb	0.019075861
251	0x3cd1b4b4	0.025598861
252	0xbc3c23a1	-0.011483104
253	0xbc349969	-0.011022904
254	0x3c25c70f	0.01011826
255	0xbbe8ec5b	-0.007108254

bias f4 [64]
0	0xbb7a0749	-0.0038151315
1	0xbc27449b	-0.010209228
2	0xbcb9fe05	-0.022704134
3	0xbcd4e8e0	-0.02598995
4	0xbcb7b1d4	-0.022423662
5	0x3cc2a523	0.023760384
6	0x3d0966c8	0.033545285
7	0xbbe53d4a	-0.0069958316
8	0xbb86960a	-0.0041072415
9	0x3c83784d	0.016048575
10	0xbc9a9ddd	-0.018874103
11	0x3ca0bc16	0.019620936
12	0xbcad32f5	-0.021142462
13	0xbd0a2c19	-0.03373346
14	0xbc9efab2	-0.01940665
15	0x3cfdd59f	0.030985652
16	0xbcc3afb5	-0.023887495
17	0xbd17eb21	-0.03708947
18	0x3cc14eb4	0.023597099
19	0x3cb219c0	0.021740794
20	0x3a1d6b5a	0.00060050713
21	0xbb755fbc	-0.0037441095
22	0x3c32b749	0.010907956
23	0xbc12f1c9	-0.008968779
24	0x3d130e40	0.03590226
25	0x3c4766dc	0.01217052
26	0xba6b205c	-0.00089693605
27	0xbc83f39e	-0.016107377
28	0x3b61ac34	0.0034434916
29	0x3cd32e1c	0.025778823
30	0xbc35f560	-0.011105865
31	0xba46a0e9	-0.0007577078
32	0xbd4b87d1	-0.04969007
33	0xbbd55035	-0.0065098056
34	0xbc92bb35	-0.017911533
35	0xbc90ae60	-0.017661273
36	0x396498a6	0.0002180064
37	0x3c0df9d8	0.008665524
38	0xbc8c4d7b	-0.01712679
39	0x3c57db36	0.013174823
40	0xbce65829	-0.02811821
41	0xbd0693e6	-0.03285589
42	0x3c5a6f28	0.013332166
43	0x3ccd2bb2	0.02504525
44	0x3d2b9fe1	0.04190052
45	0xbc6203dd	-0.013794866
46	0x3c9c7821	0.01910025
47	0xbc8f5563	-0.01749677
48	0xbc203fc2	-0.009780826
49	0xbc933ce5	-0.017973373
50	0xbb1dc3f6	-0.00240731
51	0x3ac65a8b	0.0015133185
52	0xbc23ee11	-0.01000549
53	0x3d328ff4	0.043594316
54	0xbc86cfac	-0.016456448
55	0xbbffb484	-0.0078035016
56	0x3c1e41de	0.009659259
57	0x3cff3ff3	0.031158423
58	0xbcabf094	-0.02098874
59	0xbcdffd39	-0.027342426
60	0x3bd2c734	0.0064324383
61	0x3c4e8c93	0.012606758
62	0x3c2bbb1a	0.01048162
63	0xbd23f925	-0.040032525

weight f4 [64, 1024]
0	0xbc9603a0	-0.018312275
1	0xbcc329fb	-0.023823729
2	0x3b426938	0.0029664766
3	0xbcbe7240	-0.023247838
4	0x3c933b24	0.017972536
5	0xbcb75c32	-0.02238283
6	0xbb162427	-0.0022909732
7	0x3c77ae9c	0.015117314
8	0x3c87559a	0.01652031
9	0x3c9a2e90	0.01882103
10	0xbd20f13c	-0.03929256
11	0xbbe9c7a4	-0.0071343947
12	0xbc7a839b	-0.015290166
13	0xbc9b2a79	-0.018941151
14	0xbc83d429	-0.016092377
15	0xbce069d0	-0.027394205
16	0x3bfb689f	0.007672384
17	0x3acb2671	0.0015499127
18	0x3b904903	0.004403235
19	0x3c692712	0.0142305065
20	0x3ce2efe3	0.027702278
21	0x3b991289	0.004671399
22	0x3bb1177a	0.00540441
23	0x3a9959e6	0.0011699765
24	0xbc912ecb	-0.017722508
25	0xbc997abe	-0.018735286
26	0xbb88d1be	-0.004175394
27	0xbca9232b	-0.020646652
28	0xbc8839ad	-0.016629064
29	0x3ce2c5b3	0.027682161
30	0xbd0aeb06	-0.033915542
31	0x3d0c13f5	0.03419872
32	0x3c433168	0.011913635
33	0xbcb81cb9	-0.022474634
34	0x3c804cb2	0.015661571
35	0xbc74e82a	-0.01494793
36	0xbc1c7e11	-0.009551541
37	0xbd007411	-0.03136069
38	0x3cd14d22	0.025549475
39	0xbcc01dd2	-0.02345172
40	0x3bd37eb9	0.0064543155
41	0x3cf276d4	0.029597677
42	0xbae9d008	-0.0017838487
43	0x3c554b39	0.013018423
44	0xbc9275c7	-0.017878426
45	0xbca6f813	-0.020381963
46	0xbcc693fd	-0.024240488
47	0x3cd85377	0.026406987
48	0xbb5031f0	-0.0031768046
49	0x3cc4c8a7	0.02402146
50	0x3cb2d3e3	0.021829551
51	0x3c1577e4	0.009122822
52	0x3bd749da	0.006570083
53	0xbce6ddef	-0.028181998
54	0x3c0f2c02	0.00873852
55	0x3c348f80	0.011020541
56	0x3cb999f2	0.022656415
57	0xbb5d913e	-0.0033808495
58	0x353c7f00	7.0220267e-07
59	0x3c5e06bd	0.013551411
60	0x3b09abf0	0.0021007024
61	0x3c570491	0.013123647
62	0xbcc72944	-0.02431167
63	0x3d16ea79	0.036844704
64	0x3cd6f86a	0.0262415
65	0xbbe23975	-0.006903822
66	0xbb117dfc	-0.0022200337
67	0x3cdf8781	0.027286293
68	0xbc4d37a4	-0.012525473
69	0x3c6c943a	0.014439637
70	0x3caaa695	0.020831386
71	0xbcbedf37	-0.023299797
72	0x3c88e11a	0.0167089
73	0xbb9424f2	-0.004521006
74	0xbd006f46	-0.03135612
75	0xbce9eeda	-0.028556276
76	0x3cf0d7ea	0.02939983
77	0xbcd0c678	-0.025485262
78	0x3cc6c48c	0.024263643
79	0xbca58c70	-0.020208567
80	0xbba4de80	-0.005031407
81	0xbc34be22	-0.011031659
82	0xbb8d10f0	-0.0043049976
83	0xbcda5ef8	-0.026656613
84	0x3cdf0051	0.02722183
85	0xbb90a56f	-0.0044142525
86	0xbcfc1fdd	-0.030776912
87	0x3c8e6a39	0.017384635
88	0x3a9a0535	0.0011750819
89	0xbcb75376	-0.022378664
90	0x39c8f4ce	0.00038329366
91	0x3d3e2673	0.046423387
92	0x3d27fe4c	0.041014
93	0xbd16e45b	-0.03683887
94	0x3cf06934	0.02934704
95	0x3c77a4fd	0.01511502
96	0xbc0593f3	-0.00815295
97	0xbcf5dfaa	-0.030013878
98	0xbcb864c7	-0.022508992
99	0xbd0f0b95	-0.034923155
100	0xbc9d1386	-0.019174349
101	0x3c60f026	0.013729131
102	0x3cb6dc33	0.022321796
103	0xbae38172	-0.0017357303
104	0x3c3ab47d	0.011395571
105	0x3bb011d4	0.005373219
106	0xbbcfb533	-0.0063387393
107	0xbc09f0c1	-0.008419217
108	0x3cef06f1	0.029178115
109	0xbc38321c	-0.011242416
110	0x39ae2eea	0.0003322282
111	0x3b7cd6fd	0.0038580291
112	0x3c7c2798	0.015390299
113	0xbc837fbf	-0.016052125
114	0xbb64fd0e	-0.0034940871
115	0x3cece42f	0.0289174
116	0xb8a7d989	-8.0036996e-05
117	0xbca0e447	-0.019640101
118	0xbab297cd	-0.0013625562
119	0xbd03df97	-0.032195654
120	0xbb8d5625	-0.0043132477
121	0xbcf4e9a6	-0.029896569
122	0x3b97151d	0.004610671
123	0xbc4678a1	-0.012113721
124	0xbc0d2e1c	-0.00861695
125	0x3c951353	0.018197691
126	0xbcbf887e	-0.023380514
127	0xbcebbceb	-0.028776607
128	0xbc836215	-0.01603798
129	0x3b33aec4	0.00274174
130	0xbbed59d1	-0.007243373
131	0x3cf2fb29	0.029660778
132	0x3c4e4b76	0.0125912335
133	0x3c76f301	0.015072585
134	0xbc908252	-0.017640267
135	0xbc9e5266	-0.0193264
136	0xbc430523	-0.01190308
137	0xbae10780	-0.0017168373
138	0xbc896970	-0.01677391
139	0x3cc9e8aa	0.024647076
140	0xbcc5fce6	-0.024168443
141	0xbabbc892	-0.0014326742
142	0xbb1f45ce	-0.0024303081
143	0x3c0a66d0	0.008447364
144	0x3c6f9ae1	0.014624328
145	0x3c44a0bd	0.012001214
146	0xbcb58a7a	-0.022160757
147	0x3c72897f	0.014803289
148	0xbca6ff03	-0.020385271
149	0x3a25d123	0.0006325414
150	0x3c56ebd8	0.013117753
151	0x3d026f8b	0.031844657
152	0x3c291ae9	0.010321357
153	0x3d0a93e8	0.03383246
154	0x3ce800b5	0.02832065
155	0x3c01382a	0.007886926
156	0xb9ec2510	-0.0004504104
157	0xbc91c12d	-0.017792309
158	0x3beda5f0	0.0072524473
159	0x3bc9fdc8	0.0061642863
160	0xbcb8f86c	-0.022579394
161	0x3c3a8b0a	0.011385689
162	0xbadc1617	-0.0016791251
163	0xbc8701c2	-0.01648033
164	0xbc3bdb31	-0.0114658335
165	0x3d066a55	0.03281625
166	0xbcec01f5	-0.028809527
167	0x3cbe2f9b	0.02321606
168	0xbbfffae9	-0.0078118932
169	0x3cfd9d5d	0.030958826
170	0xbbdc1a23	-0.006716983
171	0x3ca928a3	0.02064926
172	0xbcc1e5e8	-0.023669198
173	0x3b8e65d9	0.0043456373
174	0x3cfd409f	0.030914603
175	0x3d0548da	0.03254018
176	0x3d09f7f7	0.033683743
177	0x3cffe677	0.031237824
178	0xbc27f77d	-0.010251877
179	0xbcf6f820	-0.030147612
180	0xbc74fabd	-0.014952359
181	0x3d0e48df	0.034737464
182	0xbba545e1	-0.0050437306
183	0x3b87cfc5	0.004144641
184	0x3cb1d482	0.021707777
185	0x3cfee38e	0.031114366
186	0xbca6c75d	-0.020358736
187	0x3bf60e0b	0.0075089983
188	0x3c817d80	0.015806913
189	0x3c6b9ba8	0.014380373
190	0xbc9a64f4	-0.018846966
191	0xbcb32fe7	-0.021873428
192	0x3c3e2cd8	0.011607371
193	0xbc32e68d	-0.010919225
194	0x3c6de8cd	0.014520836
195	0x3c5d6eda	0.013515199
196	0x3c0c7c5e	0.008574573
197	0xba931c3b	-0.0011223623
198	0xbc282078	-0.010261647
199	0xbc72400f	-0.014785781
200	0xbca67e55	-0.020323912
201	0x3c9ba426	0.01899917
202	0xbca89197	-0.020577235
203	0x3d030ab2	0.03199262
204	0x3cd45341	0.025918605
205	0xbb98a196	-0.0046579344
206	0xbc6978bc	-0.014249977
207	0x3c7cbe8f	0.015426292
208	0xbcdc138d	-0.026864791
209	0xbc5c52b9	-0.013447457
210	0x3a83fc57	0.001006971
211	0x3cd9f206	0.026604664
212	0xbcb0afa7	-0.021568133
213	0x3ce737f6	0.028224926
214	0x3c33b001	0.010967256
215	0xbd045b73	-0.032313775
216	0xbc77f0ed	-0.015133125
217	0xbd4f039d	-0.050540555
218	0x3c3f0128	0.0116579905
219	0x3abbe5a2	0.0014335404
220	0x3c87e34e	0.01658788
221	0xbb12dcad	-0.0022409365
222	0xbd02d8c7	-0.031945016
223	0x3c95fadd	0.018308097
224	0x3ce59f4d	0.028030062
225	0xbab9ce83	-0.0014175925
226	0x3c4fd5a5	0.012685214
227	0xbcf0321f	-0.029320775
228	0x3af88b7a	0.0018962466
229	0xbca67541	-0.020319583
230	0xbc81c2e7	-0.015840007
231	0xbc87525d	-0.016518766
232	0xbc8f185e	-0.017467674
233	0x3ca14d8c	0.019690298
234	0x3cf0b82b	0.029384693
235	0x3c61112a	0.013737002
236	0xbc47da8c	-0.012198102
237	0xbd047496	-0.032337748
238	0x3c413f97	0.011794946
239	0xbb035fbf	-0.0020046083
240	0xbbd065c2	-0.0063597867
241	0xbc2fa7e9	-0.010721185
242	0xbcda24c5	-0.026628861
243	0xbc368ca5	-0.011141931
244	0xbbf811a1	-0.007570461
245	0x3ce2f116	0.02770285
246	0x3ce3620c	0.027756713
247	0xbc983118	-0.018578097
248	0xbd05424e	-0.032533936
249	0xbc596a14	-0.01326992
250	0x3b4c1873	0.0031142503
251	0x3ccc94da	0.024973322
252	0x3c1f6c71	0.009730444
253	0x3c9a47ad	0.018833006
254	0xbc91ea90	-0.017812043
255	0xbc79c4da	-0.015244687

bias f4 [64]
0	0x3bf8c2ab	0.0075915656
1	0x3c7924ab	0.015206496
2	0xbd1fc5dc	-0.039007053
3	0x3aec5200	0.0018029809
4	0x3c8da8e1	0.017292442
5	0x3cc51d7a	0.024061907
6	0xbd055f93	-0.03256185
7	0x3cb8e82f	0.022571651
8	0x3d00872d	0.031378914
9	0x3cb12299	0.021622943
10	0x3c6adca3	0.01433483
11	0x3b8169fa	0.003949401
12	0x3cab557f	0.020914791
13	0x3b94708c	0.004530018
14	0xbb338522	-0.0027392586
15	0xbc584655	-0.013200362
16	0xbc870907	-0.016483797
17	0x3ba3e8a7	0.0050020996
18	0xbc8c4e18	-0.017127082
19	0xbcd6b0cb	-0.026207348
20	0xbcd37b9c	-0.025815777
21	0x3b64f9f6	0.0034939027
22	0xbae9c9b3	-0.00178366
23	0xbcc82872	-0.024433348
24	0x3cba5b3c	0.022748582
25	0x3bbf15d3	0.005831459
26	0xbd23b4da	-0.039967395
27	0xba906062	-0.0011015052
28	0xbcc7ff69	-0.024413781
29	0x3ca82637	0.020526035
30	0xbc5557e3	-0.013021442
31	0xbb645438	-0.0034840237
32	0xbd0c70c5	-0.034287233
33	0x3cc81d31	0.024427982
34	0x3c796b59	0.015223348
35	0x3cfe62a3	0.031052893
36	0xbc84fdd3	-0.016234314
37	0x3cafc050	0.021454006
38	0x3d198ece	0.037489705
39	0xbd047cd8	-0.032345623
40	0x3cd2ea64	0.025746532
41	0xbbc6dbc5	-0.006068679
42	0xbbefce51	-0.007318296
43	0x3c909e0b	0.017653486
44	0xbce2fce3	-0.027708476
45	0x3bde4918	0.006783616
46	0x3c718d4e	0.014743162
47	0xbcd983e5	-0.02655215
48	0x3c3b006f	0.011413678
49	0xbc9fdf6d	-0.019515717
50	0x3c970617	0.018435521
51	0xbcc8116a	-0.024422366
52	0x3c32004e	0.01086433
53	0x3cfe1f35	0.03102074
54	0x3c963421	0.018335404
55	0x3b0914e9	0.0020917004
56	0xbc53f4bf	-0.01293677
57	0xbb1a877e	-0.0023579295
58	0x3c850b29	0.016240673
59	0xbc5f019e	-0.013611225
60	0x3c07a660	0.008279413
61	0xbd3275f7	-0.04356953
62	0x3cccd424	0.0250035
63	0x3d494da4	0.04914631

weight f4 [10, 64]
0	0x3dfc8609	0.12330253
1	0xb9304f95	-0.00016814315
2	0x3df275a9	0.11838848
3	0x3b2bd5d1	0.0026219974
4	0xbe0d7e41	-0.13817693
5	0xbe217805	-0.1576844
6	0xbd77f72e	-0.060538463
7	0xbd2f282e	-0.042762928
8	0xbc6b81ea	-0.014374236
9	0x3d54112e	0.051774196
10	0xbccab559	-0.024744676
11	0x3d12bb91	0.03582341
12	0xbd3c0153	-0.0458997
13	0xbda39511	-0.079874165
14	0x3cc1d72a	0.023662169
15	0xbd1f588f	-0.038902815
16	0x3e019430	0.12654185
17	0xbe040832	-0.12893751
18	0x3e157de6	0.14598808
19	0x3dae1047	0.084991984
20	0x3e1258bb	0.1429166
21	0x3cceedcd	0.025259877
22	0xbc50966f	-0.012731179
23	0x3d8c1316	0.06839578
24	0xbdeea192	-0.11651911
25	0x3d86feda	0.06591578
26	0x3e16a5dc	0.14711708
27	0xbaa5a664	-0.0012638089
28	0xbd835213	-0.06412139
29	0xbe081738	-0.13290107
30	0x3dc92ff2	0.09823598
31	0x3d714e54	0.05891259
32	0x3d7f2aa8	0.06229654
33	0x3d830092	0.06396593
34	0xbdc8f8a6	-0.09813051
35	0xbe065622	-0.13118795
36	0x3da8397a	0.08214088
37	0xbdab4e47	-0.083645396
38	0xbda443e8	-0.080207646
39	0x3e0edf97	0.1395248
40	0xba062ab4	-0.00051180576
41	0x3dcb1720	0.0991652
42	0x3d8d525e	0.06900476
43	0x3d18d424	0.037311688
44	0x3d9e5218	0.07730502
45	0xbdea8613	-0.11451354
46	0x3ddc033a	0.10742803
47	0xbd90d99d	-0.070727564
48	0x3d9a8504	0.07544902
49	0x3d202b9e	0.039104097
50	0xbdf8a54a	-0.121409014
51	0x3d9dae03	0.07699206
52	0x3ba03312	0.0048889006
53	0xbd914a58	-0.07094258
54	0xbd22a9bf	-0.039712664
55	0xbddc6ec4	-0.10763314
56	0x3dae6405	0.08515171
57	0x3d73f366	0.059558295
58	0x3debf898	0.11522025
59	0x3d8236a8	0.06358081
60	0x3dd434d8	0.10361642
61	0x3dbf76f6	0.09348862
62	0xbdf30b33	-0.118673705
63	0xbbc9a122	-0.0061532417
64	0x3c6a0879	0.014284247
65	0xbe1077eb	-0.14108245
66	0x3e2611bd	0.16217704
67	0xbe107fb3	-0.14111213
68	0xbdccdd0b	-0.10003098
69	0x3e340366	0.17579421
70	0xbcf69b94	-0.030103482
71	0x3b102802	0.0021996503
72	0x3de5deb7	0.1122412
73	0x3d85c316	0.0653135
74	0x3d851111	0.06497396
75	0x3e09a924	0.13443428
76	0xbdebfbbc	-0.11522624
77	0xbe31c1b4	-0.17359048
78	0xbe0b7579	-0.13619031
79	0x3dca859a	0.09888764
80	0xbbc43eff	-0.005988955
81	0xbe12f485	-0.1435109
82	0xbd5cd7bf	-0.05391669
83	0xbe335f63	-0.17516856
84	0x3e26ca90	0.16288209
85	0xbd03b03f	-0.032150503
86	0xbd1dbed3	-0.038512062
87	0x3d388284	0.045046344
88	0x3d167051	0.036728207
89	0x3d8d57c3	0.06901505
90	0xbdf28966	-0.11842613
91	0x3dd8f907	0.10594373
92	0x3cf8a99c	0.030354314
93	0x3dd0c4f5	0.101938166
94	0xbd4927d5	-0.049110252
95	0x3e035eca	0.12829128
96	0x3e2014dd	0.15632959
97	0x3da2adcb	0.07943305
98	0xbe2f27db	-0.17105047
99	0xbd4a4b3e	-0.049388163
100	0xbe187b31	-0.14890744
101	0xbdc2a798	-0.09504622
102	0x3d888ff4	0.06668082
103	0x3e0571b5	0.13031657
104	0xbce1ef51	-0.027579935
105	0x3cabd909	0.020977514
106	0xbddefdf7	-0.10888284
107	0x3d96e3a0	0.07367635
108	0xbdca6166	-0.098818585
109	0xbbd820c3	-0.0065957024
110	0x3da885db	0.08228656
111	0xbdafad47	-0.08577972
112	0x3e065c16	0.13121065
113	0x3dd7f68b	0.10545071
114	0xbb13bb54	-0.0022542076
115	0xbe334344	-0.17506129
116	0xbe45456d	-0.19264765
117	0xbda92135	-0.08258287
118	0x3b9d2a8f	0.004796333
119	0x3b19134b	0.0023357447
120	0x3c956876	0.018238287
121	0xbdcd2e7f	-0.10018634
122	0xbdd181f3	-0.10229864
123	0xbe39811d	-0.18115659
124	0xbdcd6723	-0.100294374
125	0xbd1623e4	-0.03665532
126	0x3d266849	0.040626798
127	0x3d12219e	0.03567659
128	0x3da7e4d4	0.081979424
129	0xbdaaf64b	-0.08347758
130	0xbe1b0f6f	-0.15142606
131	0x3b6176be	0.0034403051
132	0xbe08fa0f	-0.1337664
133	0x3dc65064	0.09683302
134	0xbd524a11	-0.051340166
135	0xbdfac528	-0.12244636
136	0xbd959ab5	-0.07304899
137	0x3d98a619	0.074535556
138	0xbe327d3c	-0.17430586
139	0xbdda5463	-0.10660627
140	0x3e01867e	0.12648961
141	0xbcf2a488	-0.02961947
142	0x3e0ff63a	0.14058772
143	0xbd2bf5f6	-0.041982614
144	0xbde6bbea	-0.112663105
145	0x3d1ae01e	0.03781139
146	0x3e05614c	0.13025397
147	0xbbc762a6	-0.006084758
148	0xbd1e84a4	-0.038700715
149	0x3d83f089	0.06442363
150	0x3dc65ca5	0.09685639
151	0xbcdb99dd	-0.026806766
152	0x3dd6ca12	0.104877606
153	0x3ce74155	0.028229395
154	0xbdaddd9e	-0.08489536
155	0xbe08432c	-0.13306874
156	0xbe1d892b	-0.15384357
157	0xbdcf2d98	-0.10116118
158	0x3d8573f3	0.06516256
159	0x3de0beeb	0.10973915
160	0xbda503f8	-0.080573976
161	0x3c353209	0.011059293
162	0x3da54e6e	0.080716
163	0xbd8edf95	-0.06976239
164	0x3dd3d964	0.10344198
165	0xbdd58f16	-0.10427682
166	0x3ddf2384	0.10895446
167	0x3e0aa797	0.13540493
168	0x3dcceb2f	0.10005795
169	0xbd061220	-0.03273213
170	0xbc1c64bc	-0.009545501
171	0x3ded7c69	0.11595995
172	0xbe14a3be	-0.14515588
173	0x3d8f0079	0.06982512
174	0xbd67825f	-0.056520816
175	0x3dcdf079	0.10055632
176	0x3dee767e	0.11643694
177	0xbe0ab6ec	-0.13546342
178	0x3d4a6916	0.049416624
179	0x3dd8ec8a	0.10591991
180	0x3e07b8dc	0.13254112
181	0x3da3d872	0.08000268
182	0xbdac5b55	-0.08415858
183	0xbdafdcf4	-0.08587065
184	0x3df47ee7	0.11938267
185	0x3e3b50f4	0.182926
186	0xbc8c84e5	-0.017153213
187	0x3dd31a5a	0.103077605
188	0xbd6322a7	-0.05545297
189	0xbd8608bb	-0.06544634
190	0xbde69a33	-0.1125988
191	0x3e070a39	0.13187493
192	0xbd050866	-0.032478712
193	0x3de75a17	0.1129648
194	0xbe2b66f6	-0.16738495
195	0xbda3b736	-0.07993929
196	0xbc883135	-0.016625026
197	0x3db36cff	0.08761024
198	0x3db75d48	0.08953339
199	0x3c9e1837	0.019298656
200	0xbdd5c8e8	-0.104387105
201	0x3db74576	0.089487955
202	0x3d66180e	0.056175284
203	0xbdfd5d01	-0.12371255
204	0x3d580a91	0.052744452
205	0x3d9108ce	0.070817575
206	0x3abf0880	0.0014574677
207	0xbdcc334f	-0.09970724
208	0xbe05522f	-0.13019632
209	0x3d7dae69	0.06193391
210	0xbd8c15dd	-0.068401076
211	0xbd2a6f55	-0.04161008
212	0xbddb937c	-0.1072149
213	0xbdebd338	-0.11514896
214	0xbd967e83	-0.07348349
215	0xbdbca18a	-0.09210499
216	0x3db47d01	0.08812905
217	0xbd9a391d	-0.07530425
218	0xbdb92e22	-0.09042002
219	0xbc847023	-0.016166752
220	0x3de12c57	0.10994785
221	0xbc5e0de2	-0.013553115
222	0x3b67f349	0.0035392812
223	0x3dd95dcf	0.10613596
224	0x3da58d6b	0.08083614
225	0x3e0c5197	0.13702999
226	0x3dcf9926	0.101366326
227	0x3cf05125	0.029335568
228	0xbdaca9fa	-0.08430858
229	0x3e1c2e8d	0.15252133
230	0xbe127a53	-0.14304475
231	0x3b7fb68a	0.0039018714
232	0xbc1cac29	-0.009562531
233	0x3dbf9bac	0.09355864
234	0xbddbcc57	-0.10732334
235	0x3d9fa2e6	0.07794742
236	0x3d985667	0.07438355
237	0xbc18b5a8	-0.009320654
238	0xbdc393d8	-0.09549683
239	0x3d00abe0	0.031413913
240	0xbd72f433	-0.059314918
241	0xbd58640b	-0.052829783
242	0x3d804570	0.06263244
243	0xbdad2c0d	-0.08455668
244	0x3dd39c6d	0.1033257
245	0x3dd36082	0.10321142
246	0x3d4e2de0	0.05033672
247	0xbde0588c	-0.10954389
248	0xbe142e06	-0.14470682
249	0x3d9c9dce	0.07647286
250	0x3d3e28bc	0.046425566
251	0x3dedbd82	0.11608411
252	0x3dde0c06	0.10842137
253	0xbe3ff84c	-0.18747061
254	0x3d5f594e	0.054528527
255	0x3d931d30	0.071833014

bias f4 [10]
0	0xbdab9ef5	-0.08379928
1	0x3c5fd769	0.013662198
2	0xbd1e7468	-0.038685232
3	0x3d9bdc8d	0.07610426
4	0x3ccb05fc	0.024783127
5	0x3c48c183	0.012253168
6	0x3d596ed8	0.053084224
7	0x3d9835df	0.0743215
8	0x3c0b9b28	0.008520879
9	0x3d7f316c	0.06230299
