p27model_7.pth (torch, 588587 bytes, 10 tensors)

weight f4 [32, 3, 5, 5]
00000000: c95d 663c f40f 313e 28d2 643d 31dc 0b3e
00000010: faf1 0d3e 4159 313d eddb 7a3d 5410 91bc
00000020: e569 7c3d f8b1 d93d 34df aa3c 39ff 87bd
00000030: 459b d3bd 4095 b6bd d1ae 863d 5733 6f3d
00000040: 3f23 4e3d 7990 b03c 349a ee3d 9196 403d
00000050: 4414 e0bd 1a4f a03c 8648 e43c f301 9e3d
00000060: 2a23 a03d 9ac8 e8bc 900f cdbd 4a7f 053c
00000070: 68c9 323d 00e5 67bd 9d45 6c3d c426 6b3d
00000080: c736 bf3c e737 d3bd ecf1 d8ba 5fc0 95bd
00000090: 74e7 a7bd daf6 39be 57d5 0bbe e65f 3fbd
000000a0: 8a8b ddbc 49b1 e4bd 06e7 19be e664 74bd
000000b0: 7759 8ebd b380 eebd 8329 f0bd 6928 2fbe
000000c0: 4e19 9a3b 41ef 243d 47a9 33bd d538 ec3d
000000d0: 8cc0 8dbd 56a4 3e3b ab5f 4e3d 627c a0bd
000000e0: ef0b 803c 1828 0c3e a1d1 573c 0c7d 963d
000000f0: cd17 df3d 2f6a 94bc 0b3f 00be e028 b3bd
00000100: 6d1a 92bc f4b4 193d 3eb7 a23d ca05 643d
00000110: 3cde 003e bc59 693d bc60 063c aae5 dabd
00000120: de6f ba3d dfcd a23d 1be9 083e a186 0e3d
00000130: 4e34 09bd 54c9 20bd 5e11 81bd ac6b 653d
00000140: 697d 1d3e d741 8c3c 9d23 e1bd eb24 c7bd
00000150: 341b 5e3d 8aff c03c 7187 e03d 3262 19be
00000160: 8ecd ad3d c383 c63d 8d75 1abd 7583 1e3e
00000170: b0f3 b23c b60d 03bc 15b8 f63d 8d9d 5b3c
00000180: 0aed d23d b7d8 ea3d 71e9 14bd a49e 80bd
00000190: afd7 fd3d 385d 01be 73f8 16bd f5d3 d23c
000001a0: dcb4 6d3a 1e43 033e cb0d 353c 4b5a e9bd
000001b0: 6af6 acbd 5f97 d4bd 0b07 833d c11b b23d
000001c0: 18c8 d4bd a91e 17be 95fd 7a3d 63a6 67bd
000001d0: 35d5 0cbd ee33 053c 6dee d43d 841b 1a3e
000001e0: a45e b2bd 8f43 44bd 5749 c73d 8306 e33c
000001f0: c55c b23d b0dd b63d 073b 18be 1a7e 9bbd
00000200: 390b b5bd 225f a5bd 0aa8 163e 8cae c5bd
00000210: 4a47 4ebd 7228 0fbe 1cdb 073d cc51 833d
00000220: 00ae 483d 1857 47be b846 f4bc 9df0 a03d
00000230: 1f4b e1bd 6ceb 9f3d c9ec 7dbd 8a80 ecbd
00000240: d8e7 a33d 1ca9 50bd 7761 523d ef6d 713d
00000250: ec08 03be 4feb dcbd 815d 27be 001c 19be
00000260: d76b 55bd 1d84 943c a22a 0f3c 1671 a73d
00000270: 8532 7bbd cc73 ffbd 71f6 de3c b273 fcbd
00000280: 95f9 293d 0288 95bd b287 c33d 8e86 d53c
00000290: c307 15be b74a 8fbd d125 f83d 4b12 143e
000002a0: 4d6c 7ebd 6a0b a23d fa32 97bb fd81 863d
000002b0: 144f 043e 4a5a df3c 0c7c 91bd cfdc a1bc
000002c0: 1ba3 8bbd 7538 87bc 2c56 0f3d 6acf 2ebd
000002d0: 9b45 b43d 44d7 a7bd f067 38bd d9d1 243d
000002e0: 4f04 afbd fdda d93d 3413 693d 1699 64bd
000002f0: ee8f 93bc 52f3 9a3c ce87 acbd 6bea 7bbd
00000300: 60c3 6fbb 902d 053e e332 10bd a77c d33d
00000310: 52f9 523d 7072 2839 27c6 6cbd c22d 063d
00000320: 14f2 0fbe 3622 93bc d1c6 9a3d cc4d 563d
00000330: 2cb3 90bd 9996 c8bd 0418 9a3d b0d4 8b3d
00000340: 4c1a babb 1cfe e1bd 8736 753c b614 4d3d
00000350: 8e81 03bd 8789 abbc 3833 d7bd fed1 ac3d
00000360: f1c7 0f3e 6c10 933d 8f14 acbd 25be 1e3d
00000370: f97a 033e e1ea 783d c160 993c c1d0 d93d
00000380: cb6c 9f3c 9426 9c3d 4ffc 1b3e 5fb4 bebd
00000390: 20d6 af3d 9d89 90bd 1b3e be3c 627c 0f3e
000003a0: 2f6b 243e 0287 9dbd 107e b3bc 875e dbbc
000003b0: 3a3a 263e 6d47 dcbc d547 27be fc50 ffbd
000003c0: 9873 bc3d 48bf 083e 3d40 ef3d e834 a6bd
000003d0: fe0b 86bd f781 9e3d 0810 153e 3779 84bd
000003e0: 0785 4abe 24b2 adbc 184f 9d3d fda5 f73d
000003f0: a1d8 28bd 0b7d 103d 4a12 04bd 300b e1bd
0.014060446 0.17291242 0.055864483 0.13658215 0.13861838 0.04329801 0.061244894 -0.017707981
0.061624426 0.10629648 0.020858385 -0.06640477 -0.1033235 -0.08915186 0.06576312 0.05839857
0.050326582 0.021553265 0.11650506 0.04701859 -0.10941365 0.019568969 0.027866613 0.077152155
0.07819207 -0.028415967 -0.10012734 0.008148024 0.043649107 -0.056614876 0.057683576 0.057410017
0.02334155 -0.10313397 -0.001655159 -0.073120825 -0.08198443 -0.18160573 -0.13655601 -0.046722315
-0.027044076 -0.11166627 -0.15029535 -0.059666537 -0.06950658 -0.11645641 -0.11726668 -0.17105259
0.0047027236 0.040267233 -0.043862607 0.11534277 -0.06921491 0.002908965 0.050384205 -0.07836224
0.01563069 0.1368717 0.013172538 0.073480695 0.108932115 -0.018117039 -0.12524049 -0.08748031
-0.017834866 0.037526086 0.07945107 0.055669583 0.12584776 0.056970343 0.008201774 -0.10688336
0.09103368 0.07949423 0.13370173 0.03479636 -0.033497147 -0.0392545 -0.06302141 0.056010887
0.15379871 0.017121239 -0.10993121 -0.097238384 0.05422516 0.02355935 0.109633334 -0.14978865
0.08486472 0.096931 -0.03770976 0.15479834 0.021844715 -0.007998874 0.120468296 0.013404262
0.10299118 0.11467116 -0.03635544 -0.06280258 0.12394654 -0.12633216 -0.036858033 0.025735835
0.00090677827 0.12818572 0.011050652 -0.11394175 -0.08445437 -0.10380434 0.06397828 0.086967
-0.10389727 -0.1475779 0.06127699 -0.056555163 -0.034383018 0.008130057 0.103970386 0.15049559
-0.087094575 -0.04791599 0.09730785 0.027713066 0.08709101 0.08929002 -0.14866267 -0.07592411
-0.08840031 -0.08074786 0.1471254 -0.09652433 -0.050360955 -0.13980272 0.033167943 0.06412086
0.048994064 -0.19466817 -0.029818878 0.07858393 -0.11000656 0.07808575 -0.061993394 -0.115479544
0.08003205 -0.050942525 0.05136248 0.05894273 -0.12796372 -0.10787069 -0.16344263 -0.14952087
-0.052104797 0.018129403 0.008738192 0.08175866 -0.061327476 -0.124732584 0.027217122 -0.12326755
0.041497786 -0.07301332 0.09547366 0.026065137 -0.14553742 -0.069966726 0.12116588 0.14460103
-0.062115002 0.07912333 -0.004614231 0.06567762 0.12920791 0.027264733 -0.07103738 -0.01975861
-0.06818219 -0.016506413 0.03499429 -0.042678274 0.08802339 -0.081953555 -0.045020998 0.04023919
-0.08545744 0.10637472 0.05690308 -0.055810057 -0.018012967 0.018914852 -0.0842434 -0.061502855
-0.0036584958 0.13005662 -0.03520478 0.1032651 0.0515073 0.0001606436 -0.05780616 0.03275848
-0.14057189 -0.017960649 0.075574525 0.052320287 -0.07065424 -0.09794349 0.07524112 0.06827676
-0.0056794044 -0.11034796 0.014966614 0.05006858 -0.032105975 -0.020939602 -0.10507816 0.0843849
0.14041115 0.071808666 -0.08402359 0.038755555 0.12839879 0.060770873 0.018722894 0.1063552
0.019461056 0.07624546 0.15232967 -0.09311747 0.08585763 -0.07057498 0.023222974 0.14012292
0.16056512 -0.07691766 -0.021910697 -0.026778473 0.16233149 -0.026889527 -0.16335995 -0.124666184
0.09201735 0.13354218 0.11682174 -0.0811556 -0.06545256 0.077396326 0.14556897 -0.064684324
-0.19777308 -0.021203108 0.076811016 0.120922066 -0.04122222 0.0352755 -0.032244004 -0.10988462

bias f4 [32]
00000000: ff59 0bbe 1147 f63d 81a3 f43b 7ccc f73d
00000010: 711e 353e cc1a a9bd 37f2 eb3c 2f0b 113e
00000020: a8e8 a0be 0c02 af3a 8522 d13c 5956 17bd
00000030: a72b f93b c2b6 87be 6848 6cbd c49b a23d
00000040: 046a 3fbe d0a0 a9bd 87cf 5abe c5d5 123d
00000050: c333 b33d 1d74 8dbe 1ba8 fbba a3fe 5bbe
00000060: 4414 95bd dc69 5abe 439f a13c 3d50 b83c
00000070: 6a9f e6bd 474d 3e3e e61d 0ebe d9b8 8fbd
-0.1360855 0.120252736 0.0074657802 0.12099549 0.17687394 -0.08257064 0.02880202 0.14164422
-0.31427503 0.001335205 0.025529156 -0.036947582 0.0076040807 -0.2650662 -0.05768624 0.07939866
-0.18692786 -0.08282626 -0.21368228 0.035848398 0.08750107 -0.2762765 -0.001919988 -0.21483855
-0.07279256 -0.21329445 0.019729262 0.022499198 -0.112608746 0.18584166 -0.13878593 -0.07017679

weight f4 [32, 32, 5, 5]
00000000: 744a fa3a 6766 043d f3c8 2d3c 29ab e0bc
00000010: 41e8 043d d090 c13c d8b2 cf3c 10c7 9a3c
00000020: 0981 a1bc 7d51 f93c 85e6 453c 254a fb3c
00000030: 707c 8dbb 49f6 59b9 e7b5 903c 227a 063c
00000040: 9ed3 70bc c41d 20bb c55d 173d 32f6 1c3d
00000050: fa74 983a ff16 8dbc fc3b cabc e228 adbb
00000060: 59ba ac3c 2cec 283d 69b7 a1bc 4738 a63a
00000070: 19d8 173c 0006 6f3c 81b7 5d3c 6fdf a33c
00000080: 8900 2b3d 4405 f03b effe 4e3d e9ec 223d
00000090: e743 5a3d ea39 2f3c 4bf6 743c d008 a5bb
000000a0: 6e15 fbbb 9bf6 dc3c 27e2 8bbb 4e05 8ebc
000000b0: afb1 33bc ed03 ec3c e9bf c9bb a554 5b3c
000000c0: d72b 903c 59ea a73c f9d5 bbbc 36bf b8bc
000000d0: 764e b6b9 b977 e13c ba69 63bc 5cc8 0dbc
000000e0: 3b77 96bb 738e 6bba 9303 a73a 1b29 883c
000000f0: d697 c33b b871 163d ab83 813b 4a2a 1fbc
00000100: 5830 fd3a 1ba6 ad3c 7f23 2a3d 985b a53c
00000110: cd8d aa3c e3d7 88bc 16b1 1d3d 5c8d 55bc
00000120: 4b76 103d 66ef 2d3d 4b9f 33bc 10fb 013d
00000130: 0a73 383d c4fd bebb af5e 85bb 6c79 ee3c
00000140: 49e7 293d 2f00 023d 1d5a 443d 71d0 8abc
00000150: 06b2 fa3c cc1c 6a3d 2163 d83c ccd6 663c
00000160: b5bc 2f3d 91ba 683d d37e 753d e818 df3c
00000170: 7e13 f33c 368d c0ba 460f 1a3d 840d 0d3d
00000180: 35f4 933c 2896 533d 1972 143d f217 e1bc
00000190: e95b 803b e491 1f3c 95c0 913c ecea 003d
000001a0: 3162 e23c e807 a0bc d925 a53c e6a9 81bc
000001b0: 706d 173d 6c73 a7bc a649 c1ba f252 06bb
000001c0: f11c 363d 0ece 4f3c a188 35bc 9f66 4c3c
000001d0: 7b5f 763c 5ee9 e33c 4c21 1e3c 4639 b43c
000001e0: cc34 ffbc 0d06 76bc 174b e7bb 36ec 6b3c
000001f0: bb9b f03c 1010 5a3d b36d cabb 8b0e e6ba
00000200: c4f1 97bb 76cf 35bb 7003 3c3d b747 6cbc
00000210: b471 283d 7cd0 bd3b e17d a73b 3782 953a
00000220: b7cc 0b3c 591a 333d 3f1f 5abc b7f4 a23c
00000230: 7ed2 b6bc 84e8 57ba 0404 36bc 59ac ac3c
00000240: 54fb 1f3d cedb d23c ec68 eb3a f79e 013c
00000250: c2ef 293d 8aa6 bb3c a8e9 fdbb ddd6 183d
00000260: f648 043d 281d a73c b924 49bc 278d e83c
00000270: d35d 30bc d86d 243d 77c4 0c3d 794b 233d
00000280: a9a1 9439 ec77 8cbc d312 5b3b 5ffc f4bc
00000290: 93cf d6bc c33f 173d 2a12 1f3d f09e 0a3d
000002a0: 2b95 9e3c 03fe bf3c e964 b93c e59b 513c
000002b0: 0b87 883c cea3 473d 2f52 c23c 127e 36bc
000002c0: 8eb4 adbb 36bd d03c 08fe 243d eb39 fe3c
000002d0: 16fe ad3c 86a5 f9bb 5a76 033b 5402 9a3c
000002e0: 2867 8a3b 8f0f 963c 51bf 243d 6686 193d
000002f0: a012 063d b43d da3c 95bd 87bb 87c2 d0bc
00000300: 7c31 bb3c 1f56 ad3c 7d4f 493d 12d9 09bd
00000310: e7e1 19bd eb75 b33c 3ccd 243d 3b9a 643c
00000320: 17ec ad3c e21c b83c ffc6 923c 2b63 d03b
00000330: 0358 113d a0ed f9bc a7c4 84bc f67b fcbc
00000340: 6a14 06bc 5b0e ed3c 30b5 503a c4f7 a2bc
00000350: 2600 253b e237 2fbd 6c1f 1a3d 0382 0f3d
00000360: 5597 54bb 4cf7 18bd 44ca a8bc 27a4 8eba
00000370: 687e e4bb 5d46 28ba 99b3 07bd 11e6 b0bb
00000380: 9fc0 e33c e65e febb cb0f b73b ea7e 8b3c
00000390: 5c24 a23c 482d 0ebd 2f05 4b3c 5eaf e33b
000003a0: 7ef7 023d 4d1c de3c ce77 72bc 0159 98bc
000003b0: f4e1 823c 02eb ef3c 802a 583d 6ca7 d83c
000003c0: cc0a 4cbc 1825 81bc 5f3c 9e3b 1f2c 133d
000003d0: 595e 863c 07b3 c4bc 4046 f4bc fd0f c7bb
000003e0: 8e42 53bc e2b2 04ba d8e4 913c 028d 753c
000003f0: ee5b 933c edbb 97bc a7d7 60bc 2159 d93c
0.0019095675 0.03232422 0.010606992 -0.027425366 0.032448057 0.023628622 0.025353834 0.018893749
-0.01971485 0.030434364 0.012078886 0.030675003 -0.0043178126 -0.00020786481 0.017664863 0.00820783
-0.014698891 -0.0024431804 0.03695466 0.038320728 0.0011631541 -0.01722288 -0.024686806 -0.0052844146
0.021084951 0.041240856 -0.019740777 0.0012681567 0.00926783 0.014588833 0.01353252 0.020004002
0.041748557 0.0073248465 0.050536092 0.039776716 0.053287413 0.01069496 0.014951299 -0.005036451
-0.0076624667 0.02697306 -0.004268903 -0.017336514 -0.010967656 0.028810466 -0.0061569107 0.01338688
0.01759903 0.020497488 -0.022929179 -0.022552114 -0.00034772203 0.027522909 -0.013880188 -0.008653726
-0.00459185 -0.0008985765 0.0012742154 0.016621163 0.005969028 0.036729544 0.0039524636 -0.009714672
0.0019316776 0.02119737 0.041537758 0.020185277 0.020819569 -0.016704505 0.03849896 -0.013034191
0.035269063 0.042464636 -0.010963271 0.031733572 0.045031585 -0.005828591 -0.004070125 0.029110633
0.041480336 0.031738456 0.0479375 -0.016945096 0.030602466 0.05715637 0.026414456 0.0140892975
0.042904574 0.05681855 0.059935402 0.027233556 0.02967238 -0.0014690522 0.037612222 0.034436718
0.018060783 0.051656872 0.036241625 -0.027477238 0.0039172065 0.009739373 0.017792026 0.03147404
0.027634712 -0.01953502 0.020159649 -0.015828084 0.036969602 -0.02044078 -0.001474668 -0.0020496217
0.044461194 0.012683405 -0.011079938 0.012475639 0.015037413 0.02782124 0.009651493 0.021999966
-0.031153105 -0.015016091 -0.007058512 0.014399579 0.029371133 0.053237975 -0.006177628 -0.0017551942
-0.004636975 -0.0027742065 0.045901716 -0.014421395 0.04112406 0.0057926755 0.0051114415 0.0011406605
0.008532695 0.0437263 -0.013313114 0.01989208 -0.022317167 -0.00082362466 -0.011109356 0.021078276
0.039058045 0.025739577 0.0017960346 0.007911435 0.041488416 0.02290656 -0.0077488013 0.037314285
0.032296143 0.020399645 -0.012276822 0.02838762 -0.010764557 0.040143818 0.03436705 0.0398669
0.00028349206 -0.017147027 0.0033427968 -0.029905496 -0.026222026 0.036926042 0.038835682 0.03384298
0.019358238 0.023436552 0.022631126 0.012793516 0.016665956 0.0487402 0.023720829 -0.011138456
-0.005301065 0.025480848 0.040281326 0.031033477 0.021239322 -0.007618609 0.0020059557 0.018799938
0.004223723 0.018317966 0.040221516 0.037481688 0.032732606 0.02664075 -0.004142473 -0.025483383
0.022850744 0.02115923 0.04914807 -0.03365428 -0.037568953 0.021906814 0.04023479 0.013952787
0.02123074 0.02247471 0.017917154 0.006359478 0.035484325 -0.030508816 -0.016207052 -0.030820828
-0.008183578 0.02893751 0.00079615694 -0.019893534 0.002517709 -0.042777903 0.037627622 0.0350361
-0.0032438834 -0.037345216 -0.02060426 -0.0010882661 -0.0069730766 -0.00064191764 -0.033130262 -0.00539852
0.02780181 -0.0077627776 0.0055865995 0.01702829 0.019792728 -0.034711152 0.012391373 0.0069483956
0.03197431 0.027113104 -0.0147990715 -0.018597128 0.015976883 0.029286865 0.052774906 0.02644702
-0.012453746 -0.015764758 0.004828974 0.03593075 0.01640241 -0.024011148 -0.029818654 -0.006074904
-0.012894286 -0.0005062056 0.017809317 0.014987232 0.017988171 -0.018522227 -0.0137232905 0.026531758

bias f4 [32]
00000000: 5722 483c 488e 3abd 9693 cabd 8337 06bc
00000010: 841d 75b9 dc52 533d 89a5 1bbb c46c a2bd
00000020: 35d7 9dbd 81b0 a13d cefa d43c 16df 9fbc
00000030: 988c e03c 2053 f0bc 7c9b e3bb 6e24 db3b
00000040: 2ed4 70bc a4f7 b9bd 4acd 893d 1ad1 88bd
00000050: a40d a83b 7d0c 73bd 92d2 a43c 9211 a23d
00000060: 87f3 df3c 40ba 1abd 3308 ef3b df3d 02be
00000070: 87ec 09bc d2fd b1bc a24e 5abb d48b 43bd
0.0122152185 -0.045545846 -0.09891431 -0.008191946 -0.00023376016 0.051592693 -0.002374979 -0.07930902
-0.07707063 0.078949936 0.0259985 -0.019515555 0.02741079 -0.029336512 -0.0069460254 0.0066876924
-0.014699025 -0.09080437 0.06728609 -0.06680508 0.005128579 -0.05933808 0.020119939 0.079135075
0.027337803 -0.037775278 0.0072946786 -0.12718914 -0.008418209 -0.021727476 -0.003331103 -0.047740772

weight f4 [64, 32, 5, 5]
00000000: 8493 71ba c879 983c c787 87bb 9553 08bd
00000010: 0d68 e3bc a2ff cebc e779 713c c8ca 85bc
00000020: c2a2 0cbd b29c 943c 189a 8dbc ff57 87bc
00000030: 80ee d83c 9adc 13bb fcbd cc3c 601f e6bb
00000040: d0cc d63c 2ca4 21bd b40e 0ebd c6a5 8d3b
00000050: 24d3 e1bc e2c4 5bbc 1099 513c 1ae8 f7bc
00000060: 0037 e73c 1319 b3bc d6c4 9f3b eb48 cdbc
00000070: 4103 2e3b ac5a a8bb 6ae5 263c b95e 00bc
00000080: 7a2d 08bc 7885 09bd 3278 1dbd 657f e93c
00000090: 713e 93bc 6c7d a33c 0810 143c 2292 e2bc
000000a0: 6890 dfbc 7b57 4e3d 79f2 2b3d 8993 8abc
000000b0: ae89 a73c 8f20 ca3c 167e d8bc 18d6 1ebc
000000c0: 129f 223d 5c60 97bc 8cf0 bc3b 8743 b63b
000000d0: d54b 6b3c 913a bd3c b3cd 1fbd 4edd 62bd
000000e0: 2dcf c1bc e68c dc3c d968 243c 7517 1ebd
000000f0: 3197 95bc a2de 023d c32b 6d3d 7eaf b93c
00000100: ffeb c5bc 288f 8e3c 50a4 11bd ea5d c739
00000110: 0225 9ebc b097 5fbd c70d 083d 51f7 bf3c
00000120: c2b5 473d 1a7d 6eba bba3 473c 07d9 16bd
00000130: 9de9 95bb d36d e6bc 79fd cfba 5a84 2dbd
00000140: 5766 4d3c 1f07 27bb 139e ffbc ca79 28bd
00000150: b605 c2bb 78af 4a3c e9e9 0c3c 2dcf 5cba
00000160: 0cee 1f3c af85 b8ba 2e18 a73c 90f6 babc
00000170: ad98 55bc 3474 8e3c 40d7 a43c 6db7 de3c
00000180: 6856 a33c 94ad 543b 1006 16bc c8fd a43c
00000190: c486 643c bba8 4e3b a2fc df3c e4d2 bbbc
000001a0: 38cd e13c 2ff6 7dbd 4154 babb 28a6 923c
000001b0: fa54 06bd c430 3abb 74b2 d93c 2ec5 533d
000001c0: d8f0 603d e58a 543d 262d 3a3d c6a5 863c
000001d0: 7f77 febc 570f 3dbd c2a8 953a 186c 0bbd
000001e0: 7fbc b0bc 492b 74bc f9b5 92bc 7b05 103d
000001f0: d6f7 b63c 8eb9 64bc 9451 ebbb 4feb 13bd
00000200: 486e 9bbb b6d7 f43a 201b b63b 5637 ffbc
00000210: a962 8c3c dc87 9d3c 96c0 05bd 890c 8dbb
00000220: 038d 673c 6c7c edbc b345 e03c 7141 043c
00000230: cd96 c03c 5081 a239 1f81 103d 047a ae3c
00000240: 0780 153b c8ed 723c 4b07 4cbc 24fe 0cbd
00000250: a2e8 eabc 111a c03c bb64 943c aed1 03bc
00000260: 76cb ccbc eca3 cb3c e402 dfbb 3dcd 4d3b
00000270: bd93 6f3c 328b 043d 7d6f 1c3b 7afa 56bc
00000280: e0ea 873c c4e3 14bd a75a bcbc 5d20 70bc
00000290: c09d 5dbc 607c 3dbd 68c2 64bc 67a3 dbbc
000002a0: bbf3 07bd 5751 91ba 7ea5 493b 0cad a9bc
000002b0: 57c5 1b3c 1af9 ed3c 73dd 18bd 1914 50bc
000002c0: e72f 4e3c 8d2d 79bc a780 08bd 610d 1ebc
000002d0: 58e3 2a3c 8df6 303c 5345 293c 8a52 c33c
000002e0: ebef 1fbd 0cbf 8b3c dd6c a73c d33c c93c
000002f0: 3b9c 9a3c 7d65 34bd 2c79 3abd 1620 92bc
00000300: db4d cebc c831 9b3b 7a97 0abc 11ce 77bc
00000310: f3e0 02bb 5140 133d c855 b5bc 5b60 babc
00000320: 05d9 fcbc fe5c 303c 6067 07bd 367f 86bc
00000330: a35f c43c 7db4 13bd 43a0 8c3c 94a4 4e3c
00000340: 8eb0 9a3c 6f63 9cbb c0d6 223c 9668 bf3c
00000350: 7d2b ed3c ec9f cb3c 6e61 30bb 020e 04bd
00000360: 9faf 1fbd f429 803c 118f ed3c 52ca 07bd
00000370: d88d 3bbc bc70 ddbb 14e7 a2bc e462 88bc
00000380: 21d4 533b 0689 cdbc 1bb3 f7bc 5399 00bd
00000390: ba76 3dbc 760a 23bc a6a5 ebbc aea5 4d3a
000003a0: 5eb3 ddbb 23a0 d53c 1b0f fe3c ef6b 24bd
000003b0: 7761 0ebd 1f5a 913c 3435 a33c 059d 483c
000003c0: 1eeb 1abd 8b27 9f3c af00 803c 63ac c23c
000003d0: 6e01 e4bb 399e 30bd ced4 49bc dbbd 573c
000003e0: b6bf 14bc 6172 b5bc cebf af3c 2f1c e43c
000003f0: 9864 45bc dcf9 6ebc c950 133c 6398 ccbb
-0.0009215402 0.018612757 -0.004136059 -0.033282835 -0.027759576 -0.02526838 0.014738536 -0.016332045
-0.034334905 0.018141124 -0.017285392 -0.016521452 0.026480913 -0.0022561909 0.024992935 -0.007022783
0.02622071 -0.039463207 -0.03468199 0.0043227402 -0.0275665 -0.01341364 0.012792841 -0.030262042
0.028224468 -0.021862542 0.0048757596 -0.025059184 0.0026552232 -0.005137762 0.0101865325 -0.007835084
-0.008311624 -0.03357455 -0.038444705 0.02850313 -0.01797411 0.019957267 0.009037025 -0.027657572
-0.027290538 0.050376397 0.041979287 -0.016916053 0.020451393 0.024673728 -0.02642731 -0.009694599
0.039702483 -0.018478565 0.00576598 0.005562249 0.0143613415 0.023099216 -0.03901453 -0.055386834
-0.02365836 0.026922654 0.010034763 -0.03859659 -0.01826057 0.0319506 0.057903063 0.022666689
-0.024160383 0.017402247 -0.03555709 0.0003802621 -0.019304756 -0.05458802 0.033216264 0.02343336
0.048757322 -0.0009097621 0.0121850325 -0.036828067 -0.004574968 -0.02812854 -0.0015868387 -0.04236255
0.012536607 -0.0025486422 -0.031203305 -0.041131772 -0.005921091 0.012370937 0.00860069 -0.00084232056
0.009761345 -0.0014077927 0.020397272 -0.022822648 -0.013036889 0.017389394 0.02012217 0.027187074
0.019938663 0.0032452093 -0.009156719 0.020140544 0.013948146 0.0031533677 0.027342144 -0.022927709
0.027563676 -0.062002357 -0.0056863134 0.017901495 -0.032795884 -0.0028410414 0.02657435 0.051701717
0.054917186 0.051890273 0.045453213 0.016436469 -0.03106284 -0.046157207 0.0011418092 -0.034038633
-0.021574257 -0.014902898 -0.017909037 0.035161477 0.022334974 -0.013960255 -0.0071813557 -0.03611308
-0.004743371 0.001868001 0.005557433 -0.031154316 0.017136889 0.019229822 -0.032654367 -0.004304473
0.014132741 -0.028989993 0.027376985 0.008072243 0.023509407 0.00030995393 0.03527939 0.021298416
0.0022811906 0.014827199 -0.012452911 -0.034422055 -0.028675381 0.02344993 0.018114438 -0.008045597
-0.024999361 0.024858437 -0.0068057645 0.003140285 0.014622626 0.03235931 0.0023870163 -0.013121242
0.01659149 -0.036350027 -0.022992445 -0.0146561535 -0.01352638 -0.04626119 -0.013962366 -0.026811315
-0.033191424 -0.0011086863 0.0030768807 -0.020712398 0.009507499 0.029049445 -0.037320565 -0.012700104
0.012584663 -0.015208614 -0.033325817 -0.0096467445 0.01043018 0.01080097 0.01033147 0.023843069
-0.039047163 0.017058872 0.020437652 0.024565136 0.018873325 -0.0440421 -0.045525715 -0.017837565
-0.025183609 0.004736159 -0.008458966 -0.015124814 -0.0019970506 0.03595001 -0.02213563 -0.022751024
-0.030865202 0.010764359 -0.03305757 -0.01641808 0.023971384 -0.0360608 0.017166262 0.012612481
0.018883016 -0.0047725956 0.009938896 0.0233653 0.0289514 0.02485653 -0.0026913541 -0.03223992
-0.038985845 0.015645005 0.028998883 -0.033151932 -0.011447392 -0.0067578238 -0.019885577 -0.016648717
0.0032322484 -0.025089752 -0.030236771 -0.03139622 -0.011563951 -0.009951225 -0.02876551 0.00078448176
-0.006765767 0.026077336 0.031013062 -0.040141996 -0.03476092 0.017743168 0.01992283 0.012244468
-0.03782188 0.019428035 0.015625326 0.023763841 -0.0069581782 -0.043119643 -0.012318803 0.013167824
-0.009078911 -0.022149267 0.021453764 0.02784547 -0.012047909 -0.014585938 0.008991429 -0.006243752

bias f4 [64]
00000000: 7946 22bc 0f81 e1bc 220b 50bd 0a3e 56bd
00000010: 5327 07bd 0246 c43a 1085 4d3c 8f98 90bc
00000020: e783 743b 8b0c 853c 6e53 26bd 550c d83b
00000030: 7d3a ecbc 29ab 3abd 31be 5ebd 4875 273d
00000040: f69e 1abd ea52 53bd ea96 2d3d cf5d ea3c
00000050: db85 9dbc 38e1 40bc c019 453b 84a6 a4bc
00000060: c8bc 393d afe3 603c 60ac 0d3c ac99 0abd
00000070: 7bf4 0d3c 3d44 fa3c 350c acbc 3006 a8bc
00000080: 685c a3bd 359f b6bc 746b 21bd cc4e a5bc
00000090: 2e66 8bbc cfe5 15bd 4dbb 5dbd ad1f 333b
000000a0: da8e 71bd 1928 5ebd 9178 803c 88ca d0ba
000000b0: 5807 3a3d 6a2d f1bc 9218 363c 84df 7abc
000000c0: 1486 03bd 0719 e9bc ea68 dabb e701 15bd
000000d0: 2065 e5bc 9006 373d 5079 e9bc baf4 d9bc
000000e0: 7ec9 a9bb b33a 713c 81f3 39bd c2ec 34bd
000000f0: 2e73 57bc 0af4 253c b51d 59bc b8b7 31bd
-0.009904497 -0.02752736 -0.050791867 -0.05230526 -0.032996487 0.0014974477 0.012543932 -0.01765087
0.0037310065 0.016241333 -0.04060691 0.006593267 -0.028836483 -0.045573387 -0.0543806 0.040883332
-0.037749253 -0.051592745 0.04238025 0.028609185 -0.019228866 -0.011772446 0.0030075163 -0.020098932
0.04534605 0.013726159 0.008647054 -0.03383796 0.008664246 0.030550117 -0.021001915 -0.020510763
-0.079766095 -0.022292713 -0.039409116 -0.020179175 -0.017016497 -0.036596116 -0.054133702 0.0027332113
-0.058974124 -0.05423746 0.01568249 -0.00159295 0.04541716 -0.0294406 0.011114256 -0.015312079
-0.03211029 -0.028454317 -0.0066653388 -0.036378767 -0.028002322 0.044683993 -0.02850023 -0.026605953
-0.0051814904 0.014723468 -0.04539824 -0.044171102 -0.01315002 0.010128984 -0.013251712 -0.0433881

weight f4 [64, 1024]
00000000: 3169 aebc 2048 28bd 40e2 67bb 8894 a4bc
00000010: 6947 ad3c 27a6 65bc 7f94 c7bb fa29 963c
00000020: 6047 c43c fd0e c93c 54ae 32bd ae9f a3bb
00000030: dc44 46bc 594b 96bc c777 a2bc 9882 e3bc
00000040: c685 cf3c 5cd4 9b3c 512c 643c 4dd0 c33c
00000050: 7eb7 f83c 846a 46ba d266 9139 eea1 423c
00000060: 583a a2bc 6f2b c2bc c9fe c6b9 5ffb 05bc
00000070: 8b59 45bc 7fc9 d63c 4338 2cbd bd65 543d
00000080: ba32 c63c c11a 59bc 9498 a13c 830c 8ebc
00000090: 4138 89bb f315 ebbc a24e cc3c 08e5 f6bc
000000a0: 83b5 063c 2977 ee3c 43ba 043c 6a48 b13c
000000b0: 56e9 9dbc a887 05bd 5931 c9bc ad45 f43c
000000c0: 09bf f03a d80b b93c 338b f73c 32ac 993c
000000d0: c82c a83c 39d1 0dbd 7f4f 663c 28db a33c
000000e0: 6a70 8d3c f63e 42bc 760c 3cba 74df 1c3c
000000f0: 0a2a df3b e241 723c 5b09 aabc 990e 3a3d
00000100: 96cf 903c 661e 9839 dcff 633b ba3e 083d
00000110: e3f1 53bc 52ff 373c 75bc bd3c 6850 c6bc
00000120: f736 8d3c 070d dcbb e514 edbc b64d 12bd
00000130: 6f0b 173d f9ea bcbc 6ed6 a53c ec28 c0bc
00000140: 4978 e13a 79ec 2fbc 28fc 99bb 7206 c6bc
00000150: f353 e73c 86a1 f4bb f4c6 14bd 9070 f13c
00000160: 2c21 ea3b 761c e7bc 5e77 bcbb e37b 4e3d
00000170: d4d0 3f3d fd50 05bd 7249 b93c 5fbc 713c
00000180: ba4e 08bc cbe5 e5bc e8be efbc 39dd 54bd
00000190: fef5 bcbc 55fc 7f3c 6b29 f23c 7ec5 0dbc
000001a0: b42e 2b3b f062 823c ae0d 283b eedd 67bc
000001b0: c371 883c 88f8 60bc 4692 e73b f0c1 f2bc
000001c0: 7698 b53c 1b88 a9bc f592 b13b bcc1 373d
000001d0: 76d7 0b3c 9fb1 8abc 3ac0 653b cafb c6bc
000001e0: 2cf4 4c3b f9b6 12bd 488a 39bc 4f7c b5bc
000001f0: 0518 033a 674e f13c 075c afbc a385 dfbc
00000200: a5e8 83bc 5728 87bb 3de5 95bc 401e b73c
00000210: 67dd 2d3c e57a ba3c 8dd0 28bc 8bd7 12bc
00000220: 6dba 94bc f92f 06bc eba6 a2bc 2e5f eb3c
00000230: 4919 9bbc fc72 16bc 1c39 02bc e9b9 2d3c
00000240: 56dd 7d3c f7fd e1ba 2618 03bd 0858 763c
00000250: 2fba 8fbc 1812 763b 41f7 573c 910f 283d
00000260: c628 983b c360 073d 9742 e73c f931 2f3c
00000270: d3af 23bc da11 b8bc 2467 973b 3940 8e3b
00000280: 17cd 2abc 59e2 853c ec96 fcb9 b209 77bc
00000290: c009 8cba 4b78 173d c701 d5bc b1bd 033d
000002a0: f669 5f3b 0378 283d 4861 9cbb d1b2 d83c
000002b0: 7c85 e5bc 58f7 88bb 5138 ec3c d380 0e3d
000002c0: 6ce1 093d 14d0 033d a4ed 83bc 3772 1fbd
000002d0: d99d cdbb 1e3a 093d 0508 1fbc 91ff b73b
000002e0: cc74 0e3d a166 193d 5a36 93bc 2132 923c
000002f0: 8fda 9b3c 0701 8f3c cdde bcbc f89e bebc
00000300: 7eb9 bd3b 7596 04bc 2c9c 453c 1b79 803b
00000310: b6bd e13b 34bc 85bb 71f2 efbb 047a 90bc
00000320: e4b0 b7bc d285 a03c f6bf 78bc c09d 0a3d
00000330: d84b fe3c c5a6 f53a 17f3 52bc 1b0b 433c
00000340: e6a7 97bc b8bc a4bc 0767 c63a 6fe8 f53c
00000350: ecf7 48bc eea4 083d 54a8 323a 776e 23bd
00000360: 06a4 ce3b a86a 4dbd a21f 9d3c caaf 863c
00000370: 2eba a93c 247f 30bc 4b52 48bd bbb6 bf3c
00000380: 9773 053d 2dd9 fb3b e3fd 913c 9442 fdbc
00000390: 5fef 9c3b cac6 75bc 2242 89bb d10b 81bc
000003a0: d305 7ebc 8313 5b3c e676 953c 3d38 ec3b
000003b0: 6951 97bb 1af3 22bd 5a5b 303c c7f1 3ebc
000003c0: 6005 083b b303 4ebc 40c6 e7bc d77c a3bb
000003d0: db26 db3a 3791 873c 4866 d23c daf6 06bc
000003e0: bff1 8abc d1c6 aabb 2d24 9839 8404 1f3d
000003f0: d72b 883c 51a4 a53c dab8 87bc c67b 4ebc
-0.021290394 -0.04108441 -0.0035382658 -0.020090356 0.021152215 -0.014016665 -0.0060907 0.018330563
0.023959816 0.02454328 -0.043623284 -0.0049934005 -0.012101378 -0.018346475 -0.019832505 -0.027772233
0.025332343 0.01902216 0.0139265815 0.023903036 0.030360933 -0.00075689727 0.00027733162 0.011879427
-0.019803211 -0.023702351 -0.00037955333 -0.008177607 -0.0120452745 0.026219128 -0.042045843 0.051854838
0.02419411 -0.013251008 0.019726075 -0.01733995 -0.004187614 -0.02869699 0.024939839 -0.030138507
0.008221987 0.029109554 0.008101049 0.021640975 -0.019276302 -0.032600075 -0.024559664 0.02981838
0.001836748 0.022588655 0.030217743 0.018758867 0.020529166 -0.03462336 0.014057039 0.020001963
0.017265517 -0.011855831 -0.00071734877 0.00957476 0.0068104314 0.0147862155 -0.020756414 0.045424078
0.01767711 0.00029014348 0.0034789955 0.033262946 -0.012936088 0.011230307 0.023161152 -0.024208263
0.017238123 -0.00671542 -0.028940627 -0.035718642 0.03687614 -0.023061262 0.02024385 -0.023457013
0.0017201985 -0.010737532 -0.004699249 -0.024172995 0.028238272 -0.007465544 -0.03632255 0.02947262
0.0071450677 -0.028211813 -0.0057515344 0.050411116 0.046830013 -0.03254794 0.02261803 0.014754384
-0.008319551 -0.028063675 -0.029265836 -0.051968787 -0.023066517 0.0156241255 0.029560765 -0.008653043
0.0026120367 0.015916318 0.002564292 -0.014152033 0.016655808 -0.0137311295 0.0070669977 -0.029633492
0.022167426 -0.020694783 0.00541913 0.044862494 0.008535257 -0.0169304 0.0035057203 -0.024289984
0.0031273467 -0.035819028 -0.011324473 -0.022154002 0.00050008326 0.02945633 -0.021406187 -0.027285403
-0.016102144 -0.004124682 -0.018297786 0.022353292 0.010611868 0.022763679 -0.010303629 -0.008962522
-0.018155301 -0.0081901485 -0.019854983 0.028731909 -0.018932955 -0.009182688 -0.007948186 0.0106034065
0.015494665 -0.0017241825 -0.03200545 0.015035637 -0.017544834 0.0037547406 0.0131815085 0.04103047
0.0046435324 0.033051264 0.028229995 0.010693067 -0.00999065 -0.02246945 0.0046204496 0.004341152
-0.010424874 0.016343283 -0.0004817763 -0.015077995 -0.0010684058 0.036979955 -0.026001824 0.032163326
0.0034090257 0.041130077 -0.004772339 0.026452454 -0.028017752 -0.0041798763 0.028835448 0.034790825
0.033662245 0.03218086 -0.016104527 -0.038927283 -0.0062749204 0.03350269 -0.009706502 0.0056151827
0.034779355 0.03745139 -0.017970253 0.017846169 0.019025115 0.017456545 -0.023055458 -0.023269162
0.0057899347 -0.008092512 0.01206116 0.003920687 0.0068890704 -0.0040812735 -0.0073226024 -0.017636307
-0.022423215 0.01959506 -0.015182486 0.03384185 0.031042024 0.0018741718 -0.01287534 0.011904503
-0.018512677 -0.02010952 0.0015136906 0.03001806 -0.01226614 0.033360414 0.0006815244 -0.03990027
0.006306174 -0.050150543 0.019180123 0.016441245 0.02071866 -0.0107725 -0.048906606 0.023402562
0.03258094 0.0076858015 0.017821258 -0.030915536 0.0047892774 -0.015001008 -0.004188792 -0.015752705
-0.015504318 0.013371351 0.018245172 0.0072088526 -0.004617859 -0.03978262 0.010763967 -0.011654324
0.0020755157 -0.012574124 -0.028292775 -0.0049892473 0.0016719954 0.016548736 0.025683537 -0.008237565
-0.016960977 -0.005211689 0.00029018652 0.038822666 0.016622467 0.020219954 -0.016567636 -0.012602752

bias f4 [64]
00000000: d21e 523c 60ef 003d 008a 24bd e758 203b
00000010: 4b45 0b3d c84b c23c bd48 04bd 0fc0 d53c
00000020: 156f 0b3d f16e 663c ede9 d43c e66d bbbb
00000030: 1b6e 813c c3a1 ee3c 89b1 97bb bb1e 4abc
00000040: df04 56bc 9b8e b03c 5bf9 b4bc c2cd 1fbd
00000050: 585b 15bd 8ee8 25bc b2ac a2bb 92b3 84bc
00000060: ce31 093d 819a 5bbc 1f98 10bd 06ef 003c
00000070: f8b9 9cbc aba0 e23c bc7f 04bd d9e9 07bb
00000080: 5851 2ebd 95d9 7f3c 9f96 a73c 7e79 5d3d
00000090: c192 e6bc d52c 9e3c 67ef 463d dbf3 31bd
000000a0: 6db0 b63c 4eab 53bc 22a9 5139 788c 433c
000000b0: 33cd 03bd 4b24 e2ba 9c14 b2bb 9872 03bd
000000c0: 3d98 edba c38a 97bc 4d37 073d 1941 13bd
000000d0: 3a6d 8f3c 1862 113d d9a7 023d 6e6f a5bb
000000e0: 9e73 e4bc aca0 9cba fc58 ca3c 44d7 5abc
000000f0: 26d0 b13c 4239 21bd ce9d 4d3d e581 803d
0.012824731 0.031478286 -0.04017067 0.0024467052 0.03400163 0.023717776 -0.03229593 0.026092557
0.034041483 0.014064536 0.02599045 -0.005719888 0.015799573 0.029129868 -0.004629318 -0.012336428
-0.013062685 0.021552375 -0.022091558 -0.039014585 -0.036464065 -0.010126246 -0.0049644345 -0.016198907
0.033494763 -0.013403536 -0.035301324 0.007869488 -0.019131646 0.027664503 -0.03234838 -0.002073875
-0.042558044 0.01561584 0.020457564 0.054070942 -0.02814615 0.019308487 0.048568156 -0.04344545
0.022300923 -0.01291926 0.000199948 0.011935346 -0.032178115 -0.0017253248 -0.0054345857 -0.032091707
-0.0018127036 -0.018498784 0.033011723 -0.035950754 0.017508138 0.03549394 0.031898353 -0.005048684
-0.027887162 -0.001194974 0.024700634 -0.013356987 0.021705698 -0.039361246 0.050199322 0.062747754

weight f4 [10, 64]
00000000: 042a 173e 90f2 96bc 3724 0a3e daec 9b3b
00000010: 2f9e 3abe cc74 4bbe dab2 dfbd 3d3b 8abd
00000020: 2388 2abc 53d7 7d3d 626f 96bd b1fb 843c
00000030: d2b9 7cbd 7379 bcbd c4e1 733d dd84 053c
00000040: c8e8 1d3e 9713 18be 0564 303e c603 b83d
00000050: cebd 313e 1c43 4c3c fcd8 3abd 5817 723d
00000060: 5ecc e5bd e686 173d 7bb5 343e c79e 933c
00000070: 316f e1bd 0556 58be fb0d a03d 37c5 0e3e
00000080: f773 d43d 9690 d93d 3b3d f4bd f58e 33be
00000090: 9015 b03d 8983 eabd ac57 e6bd a110 323e
000000a0: cdf4 e33c 389f e83d 6ab1 843d 16a5 0e3d
000000b0: f52d b73d 3433 18be 6b05 203e 26a3 87bd
000000c0: 88dc b63d f6ab 5d3d e5b5 e0bd 6799 d03d
000000d0: b73b 9c3c 96e2 d3bd 6372 8ebd d98e fbbd
000000e0: 41ff 943d 04f6 933d 681d 333e d034 b43d
000000f0: 0cfd e83d 0e7b e13d bd0d 02be 8c55 4b3c
00000100: 32fc 6c3b 7d53 3cbe 72af 613e e700 35be
00000110: d0bc cebd 7b34 833e 47f6 57bd 8f8c ccbc
00000120: 0c73 0a3e ca7f ac3d 1ec9 ab3d 136b 4c3e
00000130: 339f 0abe f3e6 65be 5bb9 2bbe 2695 103e
00000140: 1619 a8bc 9217 56be 29d7 a4bd 3ddb 7bbe
00000150: c2b5 593e 00cb a4bd 15dc 54bd 1042 2e3d
00000160: 5891 183d 0430 833d cbec 0abe 79c0 0f3e
00000170: 5a34 893c c788 153e 9209 8dbd dcad 303e
00000180: 0848 643e e047 c43d 13cd 6dbe cf7d c2bc
00000190: eca9 38be d3a0 a9bd ef18 963d a2f8 143e
000001a0: cf79 6cbd 3598 a53c 32e0 f9bd fe36 463d
000001b0: 5d2c 09be 5ccc c2bc 8e87 c23d 07f1 9ebd
000001c0: cf3d 1a3e 2d79 1c3e 302b 88bc 1291 75be
000001d0: fcc1 8dbe bd00 0fbe 487e ee3c bc62 e43c
000001e0: 9524 adbc 97f4 07be a125 10be 0b79 7fbe
000001f0: 189a febd 0866 563c cafa c63d 234b 423d
00000200: 1610 9f3d 34dc c6bd da61 2ebe 88e8 4e3c
00000210: 661b 1ebe 955f cf3d 0f16 48bd 68e2 18be
00000220: 8c56 c5bd 42e0 9c3d b674 52be 65c8 0dbe
00000230: 29b4 013e 3e58 f9bc da87 213e 7e74 2bbd
00000240: ad90 1abe 57eb bd3c cd22 083e 662b ce3b
00000250: 972a 81bd f675 793d da55 d73d 28a5 ecbc
00000260: 481f 0d3e 2c82 d93c 508d a7bd d666 17be
00000270: f137 22be 0d91 e8bd 2e64 6c3d 74f9 023e
00000280: 37f8 c0bd b408 9a3c af62 ed3d e7c8 a8bd
00000290: 5963 0a3e 5913 cebd 94a3 ca3d 2a73 163e
000002a0: 5514 d53d 19b6 2dbd 48bc 8cbc 58bb eb3d
000002b0: 8295 28be b33d ad3d 5a44 a2bd 2140 0d3e
000002c0: 11e5 ef3d f8d1 1bbe 25c4 393d 52b5 f33d
000002d0: b10d 233e 6bc7 c33d 58dc c1bd c791 a2bd
000002e0: 0d45 033e ad0b 4c3e eac8 d4bb 1470 eb3d
000002f0: 40b0 6dbd 77ff a7bd baaa fabd be0e 103e
00000300: a907 e4bc 64b2 093e 11ea 4ebe 7f48 63bd
00000310: 5a41 72bd 6033 af3d 6c5f b23d f254 813c
00000320: f037 f8bd 0648 e53d c1c9 3a3d 5d2d 20be
00000330: b6c5 8a3d 6e32 9b3d 6d80 d73c 5acb 00be
00000340: a230 f2bd 441b 813d 5dce 9bbd 401d d6bc
00000350: 5422 ecbd 7c8e eebd 3c7a 86bd d91f dcbd
00000360: c091 573d 9e7a 7cbd 5b0d d0bd b3cc 80bb
00000370: dbf5 003e fd17 23bd 2ca2 383c ce31 b13d
00000380: de16 b53d a613 173e c902 ce3d a73e a43b
00000390: 529b 96bd 032e 183e ba98 20be 3719 bb3b
000003a0: 2c6f 153b 7337 f93d d32e 0dbe 0675 ac3d
000003b0: b052 a43d 9b2d e3bb b8c8 acbd 8b89 7c3c
000003c0: 2c93 80bd 1f43 99bd c232 7f3d 2d0f 64bd
000003d0: ea1f f03d 9346 f23d 4c0f 6f3d 7e60 02be
000003e0: 526a 15be 9510 ca3d 16cc 563d 6c50 033e
000003f0: 9b48 f23d 825f 75be c990 0c3d 30b4 953d
0.14762121 -0.01842621 0.13490377 0.0047584595 -0.18224405 -0.19868773 -0.10922785 -0.0674958
-0.010408434 0.061972927 -0.07345463 0.016233297 -0.06170065 -0.09202852 0.05954148 0.008149353
0.1542083 -0.14851223 0.17225654 0.08985095 0.17357561 0.012467172 -0.04561709 0.059104294
-0.112206206 0.036993884 0.17647354 0.018020047 -0.11007536 -0.21126564 0.078151666 0.13942419
0.10373681 0.10623281 -0.11925741 -0.17535003 0.08597863 -0.114508696 -0.11247191 0.17389156
0.027826691 0.113584936 0.064791515 0.034825407 0.089443125 -0.14863282 0.15627067 -0.06622915
0.08928782 0.054119073 -0.10972194 0.10185509 0.019071443 -0.10345952 -0.06955411 -0.122831054
0.07275248 0.07224658 0.17491686 0.08799136 0.1137639 0.11009799 -0.12700553 0.012410533
0.0036161062 -0.18391223 0.22039583 -0.17676125 -0.10094607 0.25625977 -0.052725103 -0.024969367
0.1352045 0.08422811 0.083879694 0.1996272 -0.13537292 -0.22451381 -0.16769926 0.14119396
-0.020519774 -0.20907429 -0.08048851 -0.24595352 0.21260741 -0.08046532 -0.0519677 0.04254347
0.037247986 0.06405643 -0.13566892 0.14038266 0.016748596 0.14602958 -0.06886591 0.17253822
0.22293103 0.095840216 -0.23222761 -0.02374163 -0.1803357 -0.08282628 0.073289745 0.14547971
-0.057733353 0.02021418 -0.12200965 0.04839229 -0.1339583 -0.023779087 0.09498511 -0.07760816
0.1506264 0.152806 -0.016622156 -0.23981121 -0.2768706 -0.13965125 0.02911295 0.027879111
-0.021135608 -0.13276897 -0.14076854 -0.24948518 -0.12431735 0.01308585 0.09715803 0.047434937
0.0776674 -0.09709969 -0.17029515 0.012628682 -0.15440139 0.10125653 -0.04884916 -0.14930117
-0.09635648 0.07659961 -0.20552334 -0.13845976 0.12666382 -0.030437585 0.1577448 -0.041859142
-0.15094252 0.023183508 0.13294525 0.0062917946 -0.063069515 0.060903512 0.10514422 -0.028887346
0.13781464 0.026551329 -0.0818125 -0.14785323 -0.15841652 -0.11355791 0.057712726 0.12790471
-0.09422343 0.018802978 0.11591088 -0.08241444 0.1351446 -0.10062284 0.09894481 0.14692369
0.10404269 -0.04240999 -0.017179623 0.11510342 -0.16463283 0.08459034 -0.07923193 0.13793994
0.11713613 -0.15216815 0.045353074 0.118998185 0.15923192 0.0955952 -0.09465855 -0.07937961
0.1281931 0.19926329 -0.0064936774 0.114959866 -0.058029413 -0.08203023 -0.12239595 0.14068124
-0.027835684 0.13446957 -0.20206477 -0.05548906 -0.059144355 0.08554721 0.087096065 0.015787575
-0.12120044 0.11195378 0.045602564 -0.15642305 0.067759916 0.07577978 0.026306355 -0.12577572
-0.11825682 0.06304029 -0.0760772 -0.026136994 -0.11529985 -0.116482705 -0.06566283 -0.10748262
0.052629232 -0.061640374 -0.10158797 -0.003930652 0.12593786 -0.0398178 0.011269134 0.086520776
0.08842252 0.14753589 0.10059125 0.0050123516 -0.07353844 0.14861302 -0.1568326 0.005709793
0.002280186 0.12168779 -0.13787393 0.08420758 0.08023584 -0.006932927 -0.084367216 0.015413652
-0.06278071 -0.074835055 0.062304266 -0.055678535 0.11724837 0.11829867 0.058364198 -0.12732121
-0.14591339 0.09866444 0.052440725 0.12823647 0.11830255 -0.23962215 0.034317765 0.07309759

bias f4 [10]
00000000: 3f55 0abe 585c df3a d867 73bd fec6 be3d
00000010: 572f b13d 1a8b e9bc b935 b13d eb65 863d
00000020: ff23 f23c f1f4 7f3d
-0.13509081 0.001704107 -0.059425205 0.093152985 0.086516075 -0.028508712 0.08652825 0.06562408
0.02955818 0.062489454
