p27model_0.pth (torch, 588587 bytes, 10 tensors)

weight f4 [32, 3, 5, 5]
000000 4b b5 30 bd f5 dc e2 3d 90 50 90 bc 9c 27 8b 3d
       -0.043141644 0.110773005 -0.01761654 0.06794664
000010 b9 9f 91 3d 97 f5 22 bc ef fc 72 3c bc 8e 80 bd
       0.07110543 -0.0099462485 0.014830812 -0.062772244
000020 48 72 7f 3c d1 9a 6e 3d b4 04 5f 3b 69 be 88 bd
       0.015591212 0.058253113 0.0034029903 -0.06676943
000030 ba f9 d2 bd e6 72 c7 bd e6 1f 3f 3d 27 48 16 3d
       -0.10301538 -0.09738712 0.04666128 0.036689904
000040 72 15 29 3d 32 89 8d 3b 10 d6 ab 3d ae b8 4c bb
       0.041280217 0.0043193335 0.083904386 -0.0031238007
000050 2b 3a f5 bd 93 48 35 3c 4d 5c f7 3b be 1f 21 3d
       -0.11973985 0.011064666 0.007548845 0.039336912
000060 cb e2 d5 3c 09 68 f1 bb 4b 55 a5 bd 29 cb 6d 3c
       0.02610912 -0.0073671383 -0.08072909 0.014513769
000070 5c b0 5c 3d 52 36 4a bd cb e6 a5 3d b7 79 b7 3d
       0.053879127 -0.04936821 0.08100661 0.08958762
000080 3b 2c 67 3d 9e c8 8b bd b3 b4 e5 3c 71 db 82 bc
       0.056438666 -0.06825374 0.028040266 -0.015973778
000090 f5 0f 7c bb f7 7e cd bd 8f ef 79 bd 2c 85 68 3c
       -0.003846166 -0.10033982 -0.061019477 0.014191907
0000a0 92 15 db 3c 64 8d 21 bd 55 a8 ab bd c4 4c 1b bc
       0.026743684 -0.03944148 -0.08381716 -0.009478752
0000b0 78 99 29 bd 91 27 66 bd f2 bc 4e bd 96 40 eb bd
       -0.041406125 -0.056190077 -0.05047316 -0.11486928
0000c0 66 e4 28 3d ef d7 6f 3d 61 9c 3c bd 21 3a de 3d
       0.041233443 0.05855554 -0.046047572 0.10850931
0000d0 da 5a b9 bd 23 38 77 bc b1 47 f9 3c 3a 52 b4 bd
       -0.09050532 -0.015089068 0.030429693 -0.08804746
0000e0 aa 6b 12 3c 47 e2 01 3e 30 81 a5 3b 53 0e 84 3d
       0.008936802 0.12683974 0.0050508007 0.06448045
0000f0 67 49 ef 3d d8 59 49 3b 3a ed d7 bd 2c 90 91 bd
       0.11683922 0.0030723717 -0.10543294 -0.07107577
000100 7f a5 19 bc 5a f8 00 3d 8b 13 ae 3d cb 52 5c 3d
       -0.009377836 0.031486847 0.08499821 0.053789895
000110 9e be e2 3d df 02 d2 3c 02 a9 2e 3c 23 68 d4 bd
       0.110715136 0.025636135 0.010660412 -0.10371425
000120 31 34 aa 3d c6 f8 60 3d 45 a6 c3 3d 10 19 b6 3b
       0.08310736 0.05492475 0.09553198 0.005557187
000130 15 26 4c bc 1d a0 32 bc 71 7e 4c bd d7 46 53 3d
       -0.012460251 -0.010902432 -0.04992527 0.05158123
000140 37 83 b5 3d 40 f3 ea 3a 08 79 87 bd bc ec 89 bd
       0.08862918 0.0017925277 -0.06614882 -0.067346066
000150 1c 50 21 3d 54 fc 1e bc c3 48 a4 3d 3d 4e d7 bd
       0.03938304 -0.009703714 0.08021691 -0.1051297
000160 18 f2 d7 3d ce 3e 6d 3d 4e 9f 15 bd ee c5 ee 3d
       0.105442226 0.057921223 -0.036528878 0.11658846
000170 20 6a 46 3c 58 9f 7d bc e4 cd 8d 3d b2 f3 c0 3c
       0.012110263 -0.015479885 0.06924036 0.023553703
000180 56 15 9c 3d a3 83 aa 3d 38 30 03 bd b5 52 91 bd
       0.07621257 0.08325889 -0.032028407 -0.07095853
000190 56 a9 cd 3d c0 a6 bb bd e1 e4 0b 3c e8 fa 53 3d
       0.10042064 -0.091626644 0.008538456 0.051752955
0001a0 b0 e6 03 3c ab 85 92 3d 27 78 29 3c 89 52 5c bd
       0.008050606 0.071544014 0.010343588 -0.05378965
0001b0 98 be 2c bd 90 78 dd bd 30 7e 3e 3d 0a da 9e 3d
       -0.042173952 -0.10814011 0.04650706 0.077564314
0001c0 7b c3 1f bd b9 00 e4 bd 3b f8 0f 3d 3c 1f 1f bd
       -0.039004784 -0.1113295 0.03514884 -0.038848147
0001d0 cb 0f 56 bd d6 74 9b 3c 70 af e5 3d 69 13 e5 3d
       -0.052261155 0.01897661 0.11215103 0.11185343
0001e0 d2 10 81 bd fe a8 66 bd cd cf ae 3d e6 b1 40 3d
       -0.06302036 -0.056313507 0.085357286 0.047044657
0001f0 20 3c bb 3d 56 77 8f 3d 85 be e3 bd 30 23 fc bc
       0.09142327 0.070051834 -0.11120323 -0.030778497
000200 b0 8f 83 bd 80 02 91 bd 0f 92 c5 3d a0 04 bd bd
       -0.064238906 -0.07080555 0.09646999 -0.09229398
000210 8b ed 1e 3c 3e 62 cc bd 46 62 06 3d e9 37 5b 3d
       0.009700189 -0.09979676 0.032808565 0.053520117
000220 4e 39 48 3d d4 1d fd bd e1 15 32 3c 43 e2 80 3d
       0.048882775 -0.12359205 0.010869474 0.06293156
000230 b2 b5 ba bd e7 22 89 3d 86 61 32 bd f2 51 ce bd
       -0.09116687 0.0669611 -0.043550037 -0.100742236
000240 bc ac 58 3d 78 37 05 bd 54 ce 32 3d 86 e2 4c 3d
       0.052899107 -0.032523602 0.0436538 0.050020717
000250 ae f6 dd bd b1 9e cd bd 64 4f e5 bd 43 d2 c7 bd
       -0.10838066 -0.100400336 -0.11196783 -0.09756901
000260 64 69 c7 bc 97 f9 ed 3c da e6 fc 3c 7e 01 cc 3d
       -0.024342246 0.029049678 0.030871797 0.09961222
000270 eb 6f fa bc b9 ab bf bd 9a 25 55 3d 63 2d a0 bd
       -0.030570945 -0.09358925 0.052037813 -0.07821157
000280 2c fb 22 3d 41 55 97 bd a9 ca d4 3d 33 c9 39 3d
       0.039790317 -0.07389308 0.10390217 0.045357894
000290 2c 56 e1 bd a6 b3 a9 bd eb 9e b4 3d 8c 1e e7 3d
       -0.11002764 -0.08286218 0.08819374 0.11285123
0002a0 a0 ab a0 bd ce 1c 98 3d 71 75 00 bd 84 1e ce 3c
       -0.07845235 0.07427369 -0.031362 0.025161035
0002b0 78 3f bf 3d 5c 7f 29 3b 3a 8d b4 bd f0 7b a2 3c
       0.093382776 0.0025863266 -0.08815999 0.019834489
0002c0 8e b1 f8 bc ab cc 1e bb 21 8e 16 3d 22 60 df bc
       -0.030358102 -0.0024230878 0.03675664 -0.02726752
0002d0 ee 87 bc 3d d3 6c 89 bd 49 21 ea bc 7a 5c 5c 3d
       0.09205614 -0.0671021 -0.028580325 0.05379913
0002e0 7f b1 4f bd c9 60 bf 3d 0d fe 34 3d 0b 50 6a bd
       -0.050706383 0.09344632 0.044187594 -0.05720524
0002f0 4f 70 eb bb 67 b4 37 3d a8 44 d2 bd 00 b2 cb bd
       -0.007185019 0.04484978 -0.102670014 -0.0994606
000300 1e 98 1f bd a9 5a e2 3d e2 3b 39 bd 97 a7 a2 3d
       -0.03896343 0.11052448 -0.045223124 0.079421215
000310 03 ee 77 3c 7c 30 00 bd 0a cf 9f bd 8a 83 9a 3c
       0.01513243 -0.03129624 -0.078031614 0.01886155
000320 c8 ea e2 bd bd d2 12 3c 8f 8a a1 3d 57 d6 3f 3d
       -0.11079937 0.008961377 0.07887756 0.04683527
000330 15 3d 7d bd 75 df d3 bd 3a d2 a3 3d b7 42 98 3d
       -0.06182583 -0.103453554 0.07999082 0.074346
000340 2c f0 23 ba 78 03 ae bd 8c c2 c9 bb 14 46 fb 3c
       -0.0006253745 -0.08496755 -0.006157225 0.030673064
000350 09 ed 24 bd 42 ad 85 bc 4b 15 b1 bd 88 46 6e 3d
       -0.040265117 -0.016317967 -0.086466394 0.058172733
000360 70 61 c9 3d f9 2a 05 3d 98 d5 dc bd 41 ce c4 3c
       0.09833038 0.032511685 -0.10782927 0.02402413
000370 e9 b6 c9 3d 4a 99 ae 3c de eb 87 bc 08 68 a7 3d
       0.098493405 0.021313328 -0.016591962 0.08174139
000380 53 50 ac 3a d1 ed ac 3d 6e 36 de 3d 23 44 d2 bd
       0.0013146497 0.084437974 0.108502254 -0.10266902
000390 1d ee ea 3d 02 d7 24 bd a6 57 20 3d c7 54 56 3d
       0.11471198 -0.04024411 0.039146088 0.052326944
0003a0 8c 04 ec 3d c7 6e 03 bc c9 7b 6f 3c 87 c0 40 bc
       0.11524305 -0.008022017 0.014616915 -0.011764652
0003b0 c8 46 7b 3d d7 eb 99 bd f4 12 8b bd 75 f8 b5 bd
       0.0613468 -0.07515686 -0.067907244 -0.0888528
0003c0 67 ed c1 3d 6e 4d 79 3d de e9 c1 3d f5 6e 4f 3c
       0.09469109 0.06086486 0.09468435 0.012660732
0003d0 41 db 2f bd 3d bf ad 3d 1d 62 ee 3d e7 5a 32 bd
       -0.042933706 0.084837414 0.116398074 -0.043543722
0003e0 5a f6 d0 bd 36 c3 93 3c 55 bf 9d 3d 85 5a 94 3d
       -0.10203238 0.01803742 0.07702509 0.07243828
0003f0 8b e4 52 bd 57 62 81 3d 06 3d b2 bb b3 34 db bd
       -0.051487487 0.06317585 -0.0054394035 -0.10703411

bias f4 [32]
000000 da 05 3f bc 2b fd b0 3d 0b 11 c5 3b 27 9b 27 3d
       -0.01165911 0.08642038 0.0060139946 0.04091945
000010 e1 80 ba 3d 71 37 00 3c 18 08 b5 bc a9 d5 08 3e
       0.09106613 0.007825718 -0.022098586 0.13362755
000020 06 85 09 be 34 c6 22 bc f6 e5 2d 3c 7d c4 91 3d
       -0.1342965 -0.009934951 0.010613909 0.07117555
000030 d6 4c 20 3d 3e 20 0e be 8e 1e c8 3d 7b 61 04 3d
       0.039135776 -0.13879487 0.09771453 0.032319527
000040 3f 1e 88 ba 6f 2c 41 3b ce 19 f6 bd 9d 4a c2 bc
       -0.0010384991 0.0029475947 -0.120166406 -0.023717219
000050 ac 97 e8 3c 63 5d 0b be 71 1d 82 bb 7c 47 86 3c
       0.028392635 -0.13609843 -0.003970795 0.016391508
000060 d2 e5 56 bd 47 9e e4 bd 06 8e 45 bb 07 b8 1a bd
       -0.052465267 -0.111630015 -0.0030144467 -0.03777316
000070 74 b3 a3 bd 3d a4 97 3b 4e dd 0a be 8f 37 01 be
       -0.07993212 0.004627733 -0.13560984 -0.1261885

weight f4 [32, 32, 5, 5]
000000 2c 78 87 ba fe 4e cd 3c d9 a4 03 3b d1 3e 07 bd
       -0.0010335497 0.02506208 0.002008727 -0.03301889
000010 0f 0a 06 3d da 7b 85 3c 8f 2c fd 3b f0 3b 0b 3b
       0.032724436 0.016294409 0.007726259 0.0021245442
000020 40 2a 0b bd b9 94 9f 3c 7a c7 8f 3b 9c b9 69 3c
       -0.03397584 0.019480096 0.004387793 0.014265444
000030 05 97 a8 bc 33 e4 a6 bc 60 f9 a4 3a bd af f2 3a
       -0.020579824 -0.020372486 0.0012586527 0.0018515509
000040 5b 0d d6 bc cc 6c 86 bc ac 59 90 3c 80 51 af 3c
       -0.026129415 -0.0164093 0.017620884 0.021401167
000050 a5 2c 1d bb d9 7b c1 bc 57 3e 01 bd b6 89 91 bc
       -0.002398291 -0.023618625 -0.031553593 -0.017765861
000060 47 2b ed 3b 7f 71 25 3d 94 5f 9c bc c2 87 2b bb
       0.007237825 0.04039144 -0.019088544 -0.0026173447
000070 1d bf a9 3a 45 4f 71 3b c0 b0 29 3c d3 3d 36 3c
       0.0012950633 0.003682093 0.010357082 0.0111231385
000080 d5 a8 11 3d 02 3a 50 b9 dc 73 17 3d f9 e7 0b 3d
       0.0355614 -0.00019858035 0.036975726 0.034156773
000090 09 09 20 3d 40 c2 fd 3a 7d cf c7 3b 75 5a 5a bc
       0.039071117 0.0019360259 0.0060977326 -0.013327231
0000a0 12 cf 0d bc 77 37 a9 3c 5d 38 02 bc 3b c8 a9 bc
       -0.008655326 0.02065633 -0.007948008 -0.02072536
0000b0 92 d4 92 bb c6 9f df 3c de 79 85 bc 2b 1e 68 3b
       -0.0044809068 0.027297866 -0.016293462 0.0035418372
0000c0 ab 4e 03 3c d6 22 af 3c bc 9a fb bc fb e1 d6 bc
       0.008014361 0.021378916 -0.030713432 -0.026230803
0000d0 d4 ff fe ba 7f 9c b2 3c 13 58 bc bc dd f6 9c bc
       -0.0019454905 0.021803139 -0.022991216 -0.019160682
0000e0 c2 aa ed bb e2 68 5e 3a b9 f5 c7 ba fc 3c 36 3c
       -0.007253022 0.00084842567 -0.0015255726 0.011122938
0000f0 aa bf ff bb 5f d7 0a 3d 89 a3 88 3b 94 57 a9 bb
       -0.0078048306 0.0338968 0.0041698855 -0.005167911
000100 81 e4 ac 3b e8 da 8a 3b 9b 6e fa 3c f0 37 33 3c
       0.005276263 0.0042375214 0.030570319 0.0109386295
000110 ed a0 b0 3c aa 83 43 bc 61 e9 f0 3c d0 06 cb bc
       0.02156111 -0.011933247 0.029408159 -0.024783522
000120 a7 16 a2 3c 69 10 08 3d 20 f8 55 bc 58 6f e6 3c
       0.019786192 0.033218775 -0.013059646 0.028129265
000130 3e a0 17 3d 9c b5 48 bc 08 98 17 bc 27 3c 9c 3c
       0.037018053 -0.01225033 -0.009252556 0.019071652
000140 1b 86 b6 3c 3c b0 5f 3c 42 f2 15 3d 62 13 e2 bc
       0.022280743 0.013652857 0.03660799 -0.027597133
000150 75 c0 80 3c 6e d8 e4 3c 55 44 9c 3b 6d 22 fa bb
       0.01571677 0.027935233 0.004768888 -0.0076334984
000160 eb 01 f3 3c cb 78 35 3d 7e 6e 1b 3d 43 de 2b 3c
       0.029664 0.04430465 0.03794717 0.010490003
000170 01 16 af 3b bf cf 04 bc e1 f3 1b 3d 37 95 a4 3c
       0.0053431992 -0.008106171 0.038074378 0.020090682
000180 d6 6d b8 3b 5c 30 fa 3c 82 8e 09 3d 84 61 91 bc
       0.005628328 0.030540638 0.03358317 -0.017746694
000190 fc a7 9a 3b 61 ad 4f 3c b0 ad 5d 3c d8 29 d2 3c
       0.0047197323 0.012675614 0.01353018 0.025654718
0001a0 cc 44 ae 3c a9 34 7d bc 12 85 af 3c f4 3d be bc
       0.02127304 -0.01545445 0.021425758 -0.0232229
0001b0 e0 ae e6 3c 96 16 f0 bc a1 32 76 ba 54 cc 19 bc
       0.028159559 -0.029307645 -0.00093916996 -0.0093870945
0001c0 8b 19 f6 3c 62 ad 48 ba 18 2b ca bc b9 28 8a 3c
       0.030041477 -0.00076552306 -0.024678752 0.016865121
0001d0 4e d4 5a 3c b8 47 8d 3c 94 f9 83 b9 8f 07 6f 3c
       0.013356281 0.017246112 -0.00025172217 0.014589204
0001e0 27 4e d9 bc f7 2e 96 bc be 72 a3 bc 48 39 54 3b
       -0.026526524 -0.018332941 -0.019952174 0.0032382775
0001f0 f6 c6 ab 3c e9 9d 1f 3d 0b 4d 89 bc dc 5d 6a bc
       0.020968895 0.038968954 -0.01676037 -0.014304604
000200 d7 b6 5b bc f8 ff 1a bc 18 8e d9 3c 48 d7 e5 bc
       -0.013410292 -0.009460442 0.026557013 -0.028056756
000210 f6 33 b5 3c 5f 5a 1c bc f1 81 08 bc 32 e4 89 bc
       0.022119503 -0.0095430305 -0.008331762 -0.016832445
000220 89 7a cf bb 00 c9 9d 3c 43 2b 02 bd 62 62 09 3b
       -0.006331746 0.019260883 -0.03177954 0.0020963182
000230 21 0b e8 bc cb 71 c5 bb 13 ad bd bc d5 05 3b 3c
       -0.02832562 -0.006025528 -0.023153817 0.011414965
000240 c6 ce eb 3c fd a5 d6 3c e9 01 13 3b e1 97 eb 3a
       0.02878512 0.026202196 0.0022431558 0.0017974341
000250 bc 1b 17 3d 53 26 85 3c a9 a8 65 bc 30 fb fa 3c
       0.036891684 0.016253626 -0.0140172625 0.030637354
000260 1b 7b cd 3c d0 75 10 3c d0 4b da bc bb a2 cb 3c
       0.025083115 0.008817151 -0.026647478 0.02485787
000270 c2 67 9c bc 56 59 09 3d 66 d4 f6 3c 6b fa 07 3d
       -0.019092444 0.033532463 0.030130576 0.0331978
000280 40 be 47 bb 3b d9 f5 bc ae 5a fe bb b9 5c 02 bd
       -0.0030478388 -0.03001081 -0.0077622747 -0.03182671
000290 58 11 c0 bc 4f be d1 3c 58 93 69 3c ea 3a 22 3c
       -0.02344577 0.025603442 0.014256321 0.0099017415
0002a0 27 af ac 3a 4f 27 c3 3c d3 7a b4 3c 58 ba d6 bb
       0.0013174758 0.023822455 0.022031223 -0.0065529756
0002b0 d4 e9 dd bb 92 58 d0 3c 9f 0b 8b 3c bf 4b 11 bc
       -0.0067722593 0.025432859 0.016973315 -0.008868157
0002c0 12 b6 0c bc c5 c1 6a 3c d6 15 08 3d ec 50 ee 3c
       -0.008588331 0.014328425 0.03322395 0.029091321
0002d0 10 6e ac 3c 2a 98 9c bc 72 b5 8e bc 4c 68 31 3b
       0.021048576 -0.019115526 -0.017420504 0.0027070222
0002e0 e2 cf 12 bb b0 80 a8 3c ec ce e0 3c d3 23 9b 3c
       -0.002240174 0.020569175 0.027442418 0.01893798
0002f0 41 5b 0b 3c 67 21 85 3c bc db ff 3b 11 b2 da bc
       0.008505643 0.016251279 0.007808177 -0.026696237
000300 a9 88 5a 3c 43 2e a8 3b 12 85 22 3d cd d9 91 bc
       0.013338246 0.005132468 0.039677687 -0.01780405
000310 32 5f f5 bc 31 94 a3 3c 3c 94 0d 3d cb 5e eb 3b
       -0.02995262 0.019968124 0.034565195 0.007182931
000320 52 2e 1d 3c 84 0c 84 3c b3 2e 84 3c 98 97 0d 3b
       0.009593563 0.01611925 0.01613555 0.002160525
000330 59 0a df 3c ac 58 18 bd dd 3a 38 bc 02 41 a0 bc
       0.027226614 -0.03719394 -0.011244503 -0.019562248
000340 c3 82 09 bc c0 12 9c 3c 04 22 81 bc bc b8 bb bc
       -0.008392992 0.01905191 -0.01576329 -0.022915237
000350 4d 42 19 3c 57 a1 2b bd ee 52 de 3c c8 af 2c 3c
       0.009354186 -0.041901913 0.027139153 0.010539956
000360 f5 3a 78 bc d6 a0 1a bd eb 42 c7 bc ee e6 59 bc
       -0.015150775 -0.03775104 -0.024323901 -0.013299687
000370 06 10 ec bc 08 fe 62 bc e8 81 26 bd 7d 5c 63 bc
       -0.028816234 -0.013854511 -0.040651232 -0.013877031
000380 12 8c 8c 3c a0 10 c6 3a f7 a9 e4 3b 65 13 3a 3c
       0.017156634 0.0015111156 0.006978269 0.011357163
000390 9f 58 8d 3c c0 22 fe bc ed 94 7b 3c fe 97 00 39
       0.017254172 -0.03102243 0.015355331 0.00012263653
0003a0 d2 87 bb 3c 0b 4b 9e 3c 23 cc 92 bc bb 90 cd bc
       0.022891913 0.019322893 -0.017919606 -0.025093427
0003b0 2b 61 12 3b ed 78 64 3c 38 74 f9 3c 63 55 a9 3b
       0.0022335749 0.013944847 0.030450925 0.0051676496
0003c0 a5 a6 52 bc 98 5e b1 bc 4e 5c ad bb f1 d5 b9 3c
       -0.012857114 -0.021651551 -0.0052905446 0.022685023
0003d0 4b cf 46 3b 50 61 e4 bc 7e 60 07 bd f2 4e 2b bc
       0.0030335959 -0.027878433 -0.033051006 -0.010455834
0003e0 23 b9 89 bc 1b b0 8f bb 03 46 bb 3c d3 5a 42 3c
       -0.016811913 -0.004385007 0.022860533 0.0118624745
0003f0 65 e9 79 3c 5e f9 57 bc 3d 2e 42 bb 97 b2 d1 3c
       0.0152533995 -0.013182012 -0.002962961 0.025597854

bias f4 [32]
000000 f7 a9 1d 3d 59 2c cf bc 0b 91 17 bd 5c a7 12 3d
       0.03849217 -0.025289701 -0.037003558 0.035804138
000010 aa 50 ac 3c c1 3b 47 3b 8a 47 07 3d de 45 c0 bb
       0.021034557 0.0030400606 0.03302721 -0.005867704
000020 a9 0e 23 bd e1 e7 95 3c 76 a5 8c 3c 35 4f 73 bc
       -0.039808903 0.018299045 0.017168742 -0.014850427
000030 11 9a c8 3b 28 10 54 bc 2c a6 83 bc d1 c4 b7 3b
       0.006121882 -0.012943305 -0.016070448 0.005608179
000040 03 3a 98 3b 0e 37 5d bd de d2 db 3c 18 31 1f bd
       0.0046455874 -0.054007582 0.026833948 -0.03886518
000050 9f 25 28 3d 78 71 7b bc f2 67 af bc 82 d9 ac 3c
       0.041051503 -0.015346877 -0.02141187 0.02109981
000060 86 7a 31 3d 3b 7f 9c 3b 95 d9 51 bc 04 8f 0d bd
       0.043329738 0.0047759092 -0.012808223 -0.03456022
000070 f0 17 84 3c 51 0d 87 bc ec af 35 3b c1 64 d9 b9
       0.016124696 -0.016485842 0.0027723266 -0.00041464533

weight f4 [64, 32, 5, 5]
000000 6a ea 83 bc 29 7b 1a 3c e5 42 76 bb 61 3a b5 bc
       -0.016102988 0.009428778 -0.0037576493 -0.022122564
000010 0a 17 a9 bc 3a 27 ca bc 6b 3d ab 3c d5 2e 0f bc
       -0.020640869 -0.024676908 0.02090331 -0.008739193
000020 28 99 ec bc 7b 01 86 3c c2 25 b3 bc 14 4d bb bc
       -0.028881624 0.016358128 -0.02186859 -0.022863902
000030 d5 6b b0 3c 0e ea 6e bc e8 8e f6 3b 1d 8b c3 bb
       0.021535793 -0.01458217 0.00752436 -0.0059675113
000040 03 66 c3 3c d1 5d 17 bd ac 55 0a bd 78 68 12 3a
       0.023852354 -0.036954705 -0.03377311 0.0005585025
000050 29 8b 06 bd fe 69 6f bc aa 85 90 3c f4 10 03 bd
       -0.032847557 -0.014612673 0.017641861 -0.03199859
000060 28 7a ab 3c 88 87 8c bc fd d0 bb 3b 2d 45 7e bc
       0.020932272 -0.01715447 0.0057317005 -0.0155194225
000070 6c 24 a2 3c 56 09 d4 3b 3e c4 56 3c 0c 24 19 bc
       0.019792758 0.0064708395 0.013108311 -0.009346973
000080 ff ef b3 3a 84 95 9f bc da 06 d5 bc ac 5c 95 3c
       0.0013728141 -0.019480474 -0.026004244 0.018232666
000090 aa cf 09 bd f9 41 ed 3b d7 33 2d 3b 46 00 ed bc
       -0.03364531 0.0072405306 0.0026428604 -0.028930794
0000a0 8b 8e 00 bd 15 80 0c 3d cd 89 09 3d 28 b3 75 bc
       -0.03138594 0.034301836 0.033578683 -0.014996327
0000b0 e8 0e c0 3c 85 c3 9d 3c 52 26 0a bd 2e 8f 5a bc
       0.023444608 0.01925827 -0.03372795 -0.013339801
0000c0 19 d5 01 3d 1b 25 f8 bc 4a 84 d3 3b a1 c2 da 3b
       0.031697366 -0.03029113 0.006454979 0.0066760336
0000d0 a4 47 99 3c 8f 70 d2 3c 11 d3 05 bd 17 3a de bc
       0.018710919 0.025688438 -0.03267199 -0.027127309
0000e0 08 4f e8 bb dd f4 f4 3c 13 46 57 3b cc a4 00 bd
       -0.0070894994 0.029901916 0.0032848164 -0.031407163
0000f0 11 0f fc bc 22 45 0e 3b 69 26 cb 3c e0 21 dd ba
       -0.030768903 0.0021708687 0.024798589 -0.0016871057
000100 2e 1d e5 bc 76 bb d1 3c 26 43 e1 bc 44 40 6f 3c
       -0.027968016 0.025602084 -0.02749784 0.014602724
000110 a4 b5 8e bb a2 d9 10 bd 3c aa d3 3c 6e 11 ff 3b
       -0.0043551493 -0.0353638 0.02583801 0.00778406
000120 97 27 08 3d ec a2 66 bb f2 a4 a9 3c 2e a5 03 bd
       0.03324088 -0.0035192324 0.020708535 -0.03213995
000130 5f 5b 45 ba 5e 34 a7 bc ac 51 59 3c 54 16 c3 bc
       -0.0007528569 -0.020410713 0.013264101 -0.023814358
000140 6b 95 8a 3c 5f 2b 09 bb 53 4b ef bc 7e 6a 15 bd
       0.016916951 -0.0020930392 -0.029210722 -0.036478512
000150 ea 60 de 3b 32 b5 03 3c 64 31 ee 39 c0 d9 49 bb
       0.0067864554 0.008038806 0.00045431696 -0.0030799955
000160 5b ba 08 3c 6e b5 44 3b ba 15 8a 3c b0 b5 cb bc
       0.008345212 0.0030015367 0.016856063 -0.024866909
000170 b4 08 7b bc 14 f4 5d 3c 35 ac bc 3c 68 4c 81 3c
       -0.015321899 0.013546962 0.023031333 0.015783504
000180 a6 0b ca 3b 2c 89 3d bc c6 d1 c4 bc 51 e7 79 3c
       0.0061659394 -0.011568349 -0.024025809 0.015252904
000190 7c 6f 72 3b 05 bc c3 bb 6c 84 d5 3c 45 58 ce bc
       0.003699272 -0.0059733414 0.02606412 -0.025188575
0001a0 5d 28 d6 3c f2 90 06 bd 6c 8b b1 3c a4 e3 11 3d
       0.026142294 -0.032853074 0.021672927 0.035617486
0001b0 79 d6 fb bc b8 5a e5 b9 8d e9 63 3c 9a 85 d5 3c
       -0.030741917 -0.00043745874 0.013910663 0.026064683
0001c0 69 21 de 3c f5 45 cc 3c 17 e0 e1 3c cf 07 c0 3c
       0.02711554 0.024935702 0.027572675 0.023441223
0001d0 91 ef f4 bc fc f6 ee bc e6 f2 c1 3c ac d0 5e bc
       -0.02989939 -0.029170506 0.023675393 -0.013599556
0001e0 d5 86 b3 bc 6e 39 c4 bc 68 e8 ef bc 3b 15 f8 3c
       -0.021914879 -0.023953166 -0.029285625 0.030283561
0001f0 a3 0e bd 3c 7a 0f 0e bc bd 35 a5 bb 08 c8 dc bc
       0.023078268 -0.008670682 -0.0050418065 -0.026950851
000200 36 05 20 3b 28 13 e3 ba 28 24 f2 3b 23 ae 03 bd
       0.0024417168 -0.0017324435 0.007389564 -0.03214849
000210 ee f8 e2 3c 2b 08 ea 3c 35 7d 0c bd ff 14 1e 3b
       0.02770659 0.028568348 -0.034299094 0.0024121401
000220 72 6b 79 3c df 3d d1 bc f2 14 dc 3c 1f 15 a2 3a
       0.015223371 -0.025542198 0.026865456 0.0012365914
000230 32 ea ee 3c 65 5e 0a bb 36 95 0f 3d cc 77 be 3c
       0.029164407 -0.0021113392 0.035054408 0.023250483
000240 d8 4b 04 37 14 31 b1 3c 07 00 27 bc 40 40 f1 bc
       7.885472e-06 0.021629848 -0.010192878 -0.029449582
000250 bb 48 b8 bc 53 5a ae 3c 2c 97 a1 3c 6a 15 8f bb
       -0.022495618 0.021283304 0.019725405 -0.0043665664
000260 f2 4f a3 bc 02 47 ff 3c 5f 1e b8 3a cd b6 42 3a
       -0.019935582 0.031161789 0.0014047137 0.0007427752
000270 c5 8c 80 3c 37 75 00 3d f9 2b 12 3b 32 dd fd bb
       0.015692124 0.031361785 0.0022304042 -0.007747316
000280 da d9 9b 3c ce f7 ea bc e3 63 91 bc ef 89 3c bc
       0.019024778 -0.028682616 -0.017747825 -0.011507495
000290 76 dc 19 bc 4f 8d 1a bd 83 63 0d ba de 97 8f bc
       -0.009390941 -0.03773242 -0.00053935515 -0.01752847
0002a0 26 d2 07 bd 88 7b 01 3a 2d 15 4e 3c af 29 db bb
       -0.033159398 0.0004939367 0.012578291 -0.0066883187
0002b0 98 0f 97 3c b7 9e e3 3c 85 09 14 bd 15 36 3f bc
       0.018440053 0.027785642 -0.03614189 -0.011670609
0002c0 a7 f3 3d 3c 82 b1 47 bc d0 21 fb bc fa 94 bf 3a
       0.011593736 -0.012188317 -0.030655771 0.0014616542
0002d0 7e eb a9 3c c5 80 23 3c ac 01 7a 3c f4 8b a0 3c
       0.020742174 0.0099794315 0.015259188 0.019597985
0002e0 ae cd 04 bd 34 6e ca 3c ab 1a 55 3c 83 3e e8 3c
       -0.032422714 0.024710752 0.013006846 0.02835012
0002f0 03 c6 aa 3c 49 b7 13 bd e4 2e 08 bd ee 79 10 bc
       0.020846372 -0.036063466 -0.033247843 -0.008818133
000300 b6 20 54 bc 2c de 66 3c bb 72 cb 3a 05 ae 29 bc
       -0.012947252 0.014091056 0.0015521863 -0.010356431
000310 23 25 58 bb 0e 58 0c 3d 59 06 9e bc 33 b2 5f bc
       -0.003298112 0.034263663 -0.019290136 -0.013653326
000320 60 be 96 bc 32 ff b6 3c b1 00 e6 bc 51 d2 a5 bc
       -0.018401325 0.022338483 -0.028076502 -0.020241888
000330 b3 c9 d2 3c b7 19 83 bc 5e ab fe 3c 1c af 2e 3c
       0.025730943 -0.016003473 0.031087574 0.0106618665
000340 e7 94 2f 3b 87 44 26 bc d7 b7 8a 3c 0c 35 b5 3c
       0.0026791634 -0.010148174 0.016933365 0.022120021
000350 81 40 b9 3c f3 19 5f 3c e6 3e 88 bb 48 ed bd bc
       0.022613766 0.013617027 -0.0041578887 -0.023184434
000360 29 2d d9 bc dc e7 ce 3c cb dd 09 3d 9b 5d c1 bc
       -0.026510792 0.025257044 0.033658784 -0.023604205
000370 0c fa 1e ba 70 d1 8b b9 26 dc a0 bc ce c0 7e bc
       -0.00060644816 -0.0002666819 -0.019636225 -0.015548898
000380 65 59 0b 3c 1f 2e 9d bc 4f e3 e4 bc 5b b1 d0 bc
       0.0085052 -0.019187031 -0.02794042 -0.025475195
000390 b1 51 50 bc ef 66 c3 bc f3 17 09 bd 86 54 dc bb
       -0.012714789 -0.023852793 -0.033470105 -0.006723943
0003a0 d6 25 e0 bb a2 cd bf 3c 9f c5 82 3c 8f 1c f8 bc
       -0.006840448 0.023413483 0.015963374 -0.030287055
0003b0 24 5a d5 bc 9f b5 dc 3c 10 ca 7d 3c 3e 8a 70 bb
       -0.026043959 0.026942072 0.01549007 -0.0036703493
0003c0 45 de ed bc b7 1b 95 3c 4b 00 9f 3c 7f eb b8 3c
       -0.02903665 0.018201692 0.01940932 0.02257323
0003d0 55 f1 93 bc 8e 07 0a bd 33 ff 1a bc a9 3c bc 3c
       -0.018059412 -0.03369861 -0.009460258 0.022978144
0003e0 90 45 02 bb cf ba d7 bc 6f e7 a8 3c f0 ad d9 3c
       -0.0019877888 -0.026334194 0.020618169 0.026572198
0003f0 bf 59 0d bc 13 ec 05 bc 5d bb 3b 3c bf 20 7b bb
       -0.008627354 -0.00817396 0.011458245 -0.0038319079

bias f4 [64]
000000 8d ba ac ba 83 d9 23 3b 3c b5 38 bc f6 7a cf bc
       -0.0013178155 0.0025001473 -0.011273678 -0.025327187
000010 d6 5f 9b bc aa 4a d8 3c 3f e2 11 3d fc 18 a4 bb
       -0.018966597 0.02640279 0.035616156 -0.005007861
000020 a9 ee b3 bb 8e d5 8a 3c fc 0f 61 bc 91 59 95 3c
       -0.005491097 0.016947534 -0.013736721 0.018231185
000030 fd ef 97 bc b5 9e 4e bc 2b ca cb bb ce 5e eb 3c
       -0.018547053 -0.012611081 -0.0062191687 0.02873173
000040 a3 c7 94 bc 62 34 e1 bc 9e df df 3c 88 ed 9e 3c
       -0.0181616 -0.027490798 0.027328309 0.019400373
000050 43 fc e5 3b 81 90 5c ba c7 e4 a1 3c ca a0 1c bc
       0.0070185973 -0.0008413867 0.01976241 -0.0095598195
000060 6b 6b 06 3d fe 35 31 3c b5 83 80 bc 42 08 7a bc
       0.032817286 0.010816095 -0.015687803 -0.015260758
000070 a9 bd c8 3b a2 79 bc 3c e2 eb 9e b9 8f 6e e0 3b
       0.006126125 0.023007218 -0.00030311855 0.006849117
000080 81 d2 34 bd e4 4b ff bb ab 76 ef bb a0 d7 b2 bc
       -0.044146065 -0.0077910293 -0.0073078475 -0.021831334
000090 6e 69 f3 3b 7a f4 39 3c f4 9d c7 bb 57 14 8b 3c
       0.0074283397 0.011349792 -0.0060918275 0.016977472
0000a0 36 cf 63 bc 76 e7 ed bc ec dd 50 3c ec fb fa 3c
       -0.013904383 -0.029041033 0.012748223 0.030637704
0000b0 8f ea 2a 3d ad 06 57 bc c9 00 dc 3c 67 97 bf bc
       0.0417276 -0.01312415 0.026855843 -0.023387624
0000c0 57 93 cc 3a d6 83 4c bc 3b 58 87 3b fe 09 eb 3b
       0.0015607876 -0.012482604 0.004130391 0.007172822
0000d0 23 f4 04 bc b9 d2 25 3d ed 11 41 bc 8c 17 d0 bb
       -0.008114847 0.040484164 -0.011784059 -0.0063504633
0000e0 d2 0a 87 3c fb 0c ed 3c a8 e8 54 bc d3 f7 b4 bc
       0.016484652 0.028936854 -0.012994923 -0.022090828
0000f0 87 1c 63 3c f5 32 4b 3c 0f 5f 6b 3c b1 b2 09 bd
       0.013861782 0.012402286 0.014365925 -0.03361768

weight f4 [64, 1024]
000000 55 6f a6 bc 7c cf e9 bc 71 9b de 39 8b 95 d6 bc
       -0.02031676 -0.02854132 0.00042458953 -0.026194355
000010 4a 76 87 3c 6c d9 dc bc 86 7a 8c ba 43 6d a4 3c
       0.016535897 -0.026959144 -0.0010717667 0.020071631
000020 51 6d 5d 3c 99 58 79 3c 12 08 0f bd 78 ed b2 bb
       0.013514833 0.015218877 -0.034919806 -0.0054604374
000030 c2 4d 97 bc af be b3 bc a0 f5 5a bc 93 ef e2 bc
       -0.018469695 -0.021941511 -0.013364226 -0.027702129
000040 ec 7b d5 3b 6a 29 d4 39 f4 f0 29 3b 81 2e 03 3c
       0.006515017 0.00040466647 0.0025930973 0.008006693
000050 8b 7e 07 3d 2b da 45 3c 27 49 5f 3c 70 21 8d 3a
       0.033079665 0.012075941 0.013628281 0.0010767411
000060 a8 43 82 bc 51 97 a7 bc 19 65 51 bb 72 e4 be bc
       -0.015901402 -0.020457895 -0.0031951128 -0.02330229
000070 8b 40 8c bc c9 94 d7 3c 5f 89 0c bd 06 b4 f0 3c
       -0.01712062 0.026316063 -0.034310695 0.029382717
000080 69 a7 4d 3c 30 1a 83 bc fa 05 b9 3c f2 fb 0b bc
       0.012552121 -0.016003698 0.022585858 -0.008543955
000090 2d 7b 58 bc 9b 8f e4 bc 95 2b 72 3c 52 6c e8 bc
       -0.013212961 -0.027900508 0.014780899 -0.028371964
0000a0 d6 f8 c2 3a dd f1 e6 3c ad d4 05 bc 11 5e 5e 3c
       0.0014875184 0.028191501 -0.008168382 0.013572232
0000b0 5e fe 73 bc 70 0d 6e bc d5 34 bc bc bd f6 e5 3c
       -0.014892189 -0.014529571 -0.022974411 0.028071756
0000c0 a0 86 3f 39 5e cc ee 3c 31 5f c4 3c d6 59 f7 3b
       0.00018265331 0.029150184 0.023971172 0.007548551
0000d0 0c f2 e6 3a 87 d5 cf bc 27 c2 0e 3c 45 19 0a 3c
       0.0017619743 -0.025370372 0.008713282 0.008428876
0000e0 59 61 84 3c 20 49 08 bc 19 e3 a5 3b 0d 7b 62 3c
       0.0161597 -0.008318216 0.0050624725 0.013823283
0000f0 c7 e5 a0 bb 9b 23 92 3b 6f 28 bc bc c6 2f fc 3c
       -0.004910204 0.004459811 -0.022968499 0.030784499
000100 25 5b ea 3c 77 6e 45 bb a8 b5 52 3a 94 60 e5 3c
       0.028607914 -0.0030125657 0.0008037933 0.028000154
000110 a3 74 ef bb 90 cf 8c 3c e6 f9 bf 3c 53 cd 93 bc
       -0.0073076054 0.017188817 0.02343459 -0.018042242
000120 dc 45 8b 3c 30 88 5b bb ac 27 e7 bc bb 14 cf bc
       0.017001085 -0.0033497922 -0.02821716 -0.02527844
000130 94 d3 c5 3c cf c3 d6 bc a9 8d e6 3c e1 d6 af bc
       0.02414874 -0.026216416 0.02814372 -0.021464767
000140 16 64 29 bb 78 f5 a2 bb 61 93 63 ba 36 70 e5 bc
       -0.002584701 -0.00497311 -0.0008681324 -0.028007608
000150 55 a1 dc 3c 1c f7 98 3b 4f 2f e5 bc 7f 0f 07 3c
       0.026932398 0.0046681296 -0.02797666 0.008243441
000160 91 12 12 bc 72 b0 27 bc 72 43 dc ba 6e a8 0c 3d
       -0.008915559 -0.010234939 -0.0016804768 0.034340315
000170 89 da 05 3d c0 c8 e7 bc 0c b8 d0 3c a3 49 08 3c
       0.032679114 -0.028293967 0.025478385 0.008318338
000180 d6 37 bb bb a1 57 dd bc 80 92 85 bc d7 c4 04 bd
       -0.0057134433 -0.027019324 -0.016305208 -0.032414284
000190 c3 30 b9 bc 41 7e 7d 3c 79 89 c8 3c 18 a7 66 3b
       -0.02260626 0.015471996 0.024479615 0.003519481
0001a0 a9 f8 4c 3c 1d c7 57 3c 69 f9 83 bb 74 ea ec ba
       0.012510457 0.013170031 -0.0040275347 -0.0018075244
0001b0 bf 5f f7 3c c9 c5 3c bc b5 4c 77 3b a9 69 08 3c
       0.030197022 -0.011521765 0.003773493 0.008325973
0001c0 06 0a 75 3c 4f 40 10 bc 57 7d 27 bb ad 54 df 3c
       0.014956003 -0.008804395 -0.0025556886 0.027262056
0001d0 23 14 b6 3a c9 9c 88 bc f6 57 0e bc ae af e5 bc
       0.0013891499 -0.016676323 -0.008687964 -0.028037872
0001e0 38 8c a2 bb 1d 35 bf bc 3b e4 7b 3c ef 8e a9 bb
       -0.004960563 -0.023340756 0.015374239 -0.0051745097
0001f0 eb 69 25 bc 5e d7 8b 3c f1 97 be bc c5 d2 ee bc
       -0.010096054 0.017070469 -0.02326581 -0.029153237
000200 a6 ff 93 bc 0a 1f 55 39 4a ff 14 bc e1 f8 df 3c
       -0.018066239 0.00020324826 -0.009094069 0.027340354
000210 ea 37 30 3c a0 f5 61 3c 29 af 40 bc 96 f9 b2 bc
       0.010755518 0.013791472 -0.011760511 -0.021847527
000220 45 fc b2 bb a1 70 c9 bb f4 17 88 bc 56 04 d3 3c
       -0.005462202 -0.0061474596 -0.016612984 0.025758903
000230 17 8d 97 bc a5 dd b4 ba 63 f6 97 3a d3 09 62 3c
       -0.018499894 -0.0013798965 0.0011593815 0.013796288
000240 47 aa 46 3c 61 1b 51 3c a2 88 ae bc 49 7b 63 3c
       0.012125558 0.012762875 -0.021305386 0.013884374
000250 9f 3e b6 bc d6 dd 3b 3b 3c 43 3b 3c 36 73 da 3c
       -0.022246657 0.002866616 0.011429604 0.026666265
000260 26 4f d2 3b 63 1a ef 3c ae 21 b3 3c 34 07 64 3b
       0.0064181266 0.029187387 0.021866646 0.0034794332
000270 7f 23 cc 3a 32 a2 8d bc dc 60 19 3c 00 8c 0d 3c
       0.0015574544 -0.017289255 0.009361472 0.008639336
000280 d9 a5 a8 bc 1d 65 4f 3c be 38 b9 3a 41 d3 29 bc
       -0.020586895 0.012658385 0.001413129 -0.010365308
000290 2c a5 40 bc c9 a8 f1 3c 6e 7f d0 bc 22 96 b5 3c
       -0.01175813 0.029499428 -0.025451388 0.022166315
0002a0 0d a8 8f bb 49 68 ea 3c c3 8d 04 bc f8 60 ad 3c
       -0.004384047 0.02861418 -0.008090439 0.021164402
0002b0 be 77 be bc 36 17 97 3b eb 02 01 3d 1e e9 ec 3c
       -0.023250457 0.0046109213 0.031496923 0.028919753
0002c0 d8 b3 07 3d 44 4a e2 3c d0 ba 09 bc 17 17 e2 bc
       0.033130497 0.027623303 -0.008406356 -0.0275989
0002d0 db fa 82 bc 92 c6 ce 3c 87 41 06 bb 23 10 e9 3b
       -0.015988758 0.02524117 -0.0020485835 0.0071125193
0002e0 bb 03 93 3c bd ef d1 3c 40 a5 78 bc 7f 32 b9 3b
       0.017946115 0.025627011 -0.015176117 0.0056517716
0002f0 41 77 2f 3c b8 7b 0b 3b 28 04 98 bc 4a d6 c8 bc
       0.010709585 0.002128346 -0.01855667 -0.024516243
000300 69 d7 36 3c 7c e7 85 bc 18 72 1c 3c 2d 63 44 3c
       0.011159756 -0.016345732 0.009548686 0.011986536
000310 dc 5d 2f 3c 90 a4 8f 3b 09 8d 14 bc b4 2a 54 bc
       0.01070353 0.004383631 -0.0090668285 -0.012949634
000320 6b c0 a1 bc c2 7a 82 3c a6 4f a4 bc 4d b2 02 3d
       -0.019745072 0.015927676 -0.02005751 0.031908322
000330 14 0f b3 3c 6d aa e4 bb 27 4b 4e bc 98 75 79 3c
       0.021857776 -0.006978324 -0.01259116 0.01522579
000340 fa 00 bf bc 3c fb 02 3b 82 54 3b 3c da d3 df 3c
       -0.023315895 0.0019986173 0.011433722 0.027322698
000350 5f 9c 27 bc 76 2b ca 3c 45 e8 59 3c 36 ce a1 bc
       -0.010230153 0.024678927 0.013300006 -0.01975165
000360 c7 f3 86 bc 2e 2e 2a bd 12 ea 35 3c 46 e2 a4 bb
       -0.016473664 -0.041547947 0.01110317 -0.0050318567
000370 94 5b 7d 3c e5 25 81 3b f9 53 d7 bc cd 9c 84 3c
       0.015463728 0.003941285 -0.026285158 0.01618805
000380 35 67 e6 3c 4d 01 9c 3b 32 23 c0 3c a5 a4 da bc
       0.028125385 0.0047608973 0.023454282 -0.026689837
000390 e7 bd 8e bb ab fe c3 bc ec 7b e4 bb 4c 01 c1 bc
       -0.004356134 -0.023925146 -0.0069727805 -0.023560189
0003a0 38 e2 d3 bc 7e 6b 8d 3c e4 16 03 3d 48 6f d8 3b
       -0.025864705 0.01726317 0.032004252 0.0066050626
0003b0 5d aa 2d bc 44 d6 e4 bc 0c 03 3f 3c 50 ec 0b 3b
       -0.0105997 -0.027934201 0.011658441 0.002135057
0003c0 49 0c ad bb 7a 5e 13 bb e1 5b 99 bc f2 69 f8 bb
       -0.0052810055 -0.0022486732 -0.01872057 -0.007580989
0003d0 f6 38 ed bb 4c 74 d3 3c 06 bb a3 3c 9a df b3 bc
       -0.0072394563 0.02581229 0.01998664 -0.021957207
0003e0 55 07 f6 bc db 16 6a bc a7 4c 02 3b fd 83 e6 3c
       -0.030032793 -0.014287676 0.0019882114 0.028139109
0003f0 a7 26 33 3c d9 72 90 3c 1d ea ac bc 65 94 50 bc
       0.010934508 0.017632889 -0.021107728 -0.0127306925

bias f4 [64]
000000 c6 aa 07 3b 42 72 2d 3c 79 9b 05 bd 3e 7e 12 3a
       0.0020701154 0.010586323 -0.032618973 0.00055882696
000010 df 81 8d 3c 23 3f a6 3c b3 24 e6 bc 27 64 ea 3c
       0.017273841 0.020293778 -0.028093671 0.02861221
000020 89 cd 05 3d 06 b4 af 3c 42 dc 9b 3c e4 59 42 3c
       0.032666717 0.021448147 0.019025926 0.011862252
000030 da 35 bd 3c e5 0d b7 bb 53 b8 07 bc 69 27 77 bc
       0.023096967 -0.005586373 -0.008283692 -0.01508508
000040 e0 46 25 bc f5 be 28 ba 1e a7 93 bc f6 24 90 bc
       -0.010087699 -0.0006437146 -0.018024024 -0.01759575
000050 9d 6f a3 bc e2 cc 50 3c 2f a4 b1 ba 6d 22 df bc
       -0.019950682 0.01274416 -0.0013552959 -0.027238095
000060 9b cd 67 3c e6 be 85 3c 89 27 25 bd d7 05 46 bb
       0.014148141 0.016326379 -0.040320907 -0.0030215883
000070 ae 88 96 bc 6d 09 aa 3c 41 ab 4f bb 4d 75 51 bc
       -0.01837572 0.020756448 -0.0031687769 -0.012784314
000080 6d e7 03 bd 12 ad df 3c 28 0d 57 3c 42 3f c8 3c
       -0.032203127 0.027304206 0.013125695 0.024444226
000090 1e 07 1f bc bd 3f c3 3c e4 e2 f5 3c 6d 53 0b bd
       -0.009706287 0.023834104 0.030015416 -0.034015108
0000a0 8b bb d1 3c 85 9e 4b bb 18 d1 e1 bb dd e1 9e 3c
       0.025602123 -0.0031069827 -0.006891381 0.01939481
0000b0 61 ae 73 bc eb fa 3a 3c d6 da bd 3c fb 84 f9 bc
       -0.014873118 0.011412363 0.023175638 -0.030458918
0000c0 ff d2 64 3c f6 42 9a bc 5e ae 0f 3c e5 41 a0 bc
       0.013966321 -0.018830758 0.0087696 -0.019562671
0000d0 8c 37 51 3b af ac de 3c c1 8e 3e 3c e0 c9 00 3c
       0.0031923978 0.027181951 0.011630715 0.007860631
0000e0 54 fa c9 bb 6a 5f 28 bc 4b 87 32 3c 9a 5f 62 bc
       -0.0061638746 -0.010276655 0.010896514 -0.0138167385
0000f0 02 94 0e 3b 77 11 33 bd a9 37 7a 3c b5 ca 0a 3d
       0.00217557 -0.043717828 0.0152720595 0.033884723

weight f4 [10, 64]
000000 62 5d b8 3d b9 64 06 3c 5a 3b c4 3d 3e 12 37 3c
       0.09002186 0.008202725 0.09581633 0.011173783
000010 f4 4e 00 be 0e fa 01 be 32 75 54 bd 3a 47 33 bd
       -0.12530118 -0.12693045 -0.05186958 -0.0437691
000020 c6 18 1f bd 49 8f 90 3d 5f 50 83 bc ca e5 8d 3c
       -0.038841985 0.070585795 -0.016029535 0.017321486
000030 39 a2 9a bc 78 64 92 bd 99 e9 9c 3c b4 ab 40 bd
       -0.018876182 -0.07148069 0.019154357 -0.04703875
000040 c2 46 d3 3d ec 7a de bd d4 5e e4 3d b3 58 9e 3d
       0.1031623 -0.10863289 0.111508995 0.07731762
000050 f5 9d f2 3d 9a 14 e7 3c 7c 69 5b bc 15 b8 4d 3d
       0.11846534 0.028208066 -0.013391849 0.050224382
000060 89 35 de bd 81 a0 39 3d 55 08 09 3e 1a 6b 8a bc
       -0.10850055 0.045319084 0.13382085 -0.016896773
000070 8a c7 73 bd 75 df fd bd 36 89 d4 3d 71 c5 9b 3d
       -0.059516467 -0.12396137 0.103777334 0.07606018
000080 d6 00 82 3d aa 75 a3 3d 01 71 ac bd b0 12 04 be
       0.06347816 0.07981427 -0.08419991 -0.12897754
000090 3d b3 ad 3d 3d 73 7a bd 2b 98 bd bd 69 33 f4 3d
       0.084814526 -0.061145056 -0.09257539 0.11923868
0000a0 f4 30 98 bb bc f2 cb 3d 77 e5 88 3d 72 33 0f 3d
       -0.0046445075 0.09958407 0.06684392 0.03496117
0000b0 e7 d0 ae 3d 45 97 e5 bd 05 e1 c1 3d fe 2d 4f bd
       0.08535939 -0.11210493 0.09466747 -0.05058097
0000c0 87 dc 87 3d 5e 99 8c 3c 99 03 c9 bd 50 e1 9d 3d
       0.06633859 0.017162975 -0.09815139 0.077089906
0000d0 1b af ee 3b 41 6f 86 bd 42 42 30 bd ce 96 c6 bd
       0.007284058 -0.06564189 -0.04303194 -0.096967325
0000e0 c9 15 93 3d 27 e1 7a 3d ad 30 ef 3d 0a 1b a4 3d
       0.071818896 0.06124988 0.11679206 0.0801297
0000f0 1b 1f d3 3d c6 b3 95 3d d3 c4 ef bd 70 30 28 bb
       0.10308667 0.0730968 -0.11707463 -0.0025663637
000100 7a 15 ca 3c d0 8f e8 bd 7b 1b f1 3d c2 90 da bd
       0.024668444 -0.11355555 0.117728196 -0.106721416
000110 d0 e7 a9 bd ae 5c f5 3d cf 5c 21 bb 8b d9 a8 3c
       -0.08296168 0.11980568 -0.0024621969 0.020611545
000120 c8 2e b7 3d 6a a8 19 3d 56 34 7f 3d a2 8d c7 3d
       0.0894447 0.037514128 0.06230577 0.09743811
000130 fe 44 c7 bd 6d 25 fd bd 92 e6 f3 bd ac 7e 6e 3d
       -0.09729956 -0.12360654 -0.11909212 0.058226272
000140 0c 40 2c 3c 10 fb d6 bd 4a 82 53 bd ce 2b 09 be
       0.010513317 -0.10497105 -0.051637925 -0.13395616
000150 4d c7 00 3e 47 45 2c bc f9 a1 c9 bc 4d db 62 3d
       0.12576027 -0.010514564 -0.024613367 0.055384923
000160 1f bf 04 3d f2 e9 6b 3d be e8 d0 bd af 67 b1 3d
       0.03240883 0.057596155 -0.10200642 0.08662354
000170 7b be ea 3c 95 10 a8 3d 84 c4 20 bd ac 15 c0 3d
       0.028655281 0.08206288 -0.039249912 0.093791336
000180 4f d8 c4 3d f2 ec 79 3d 3d f6 ea bd 83 ef 35 bd
       0.0961157 0.061016984 -0.114727475 -0.04441787
000190 ce 2c f7 bd bc e1 db bd 2a 00 71 3d 20 62 db 3d
       -0.12069093 -0.10736415 0.058838047 0.10712075
0001a0 1c ca 99 bc b8 c5 00 3c d2 4d ad bd 93 d4 93 3d
       -0.018773131 0.00785964 -0.08462109 0.0721828
0001b0 67 0e 9f bd 7c ba 77 bb 50 30 66 3d af 80 9f bd
       -0.07766419 -0.0037800362 0.05619842 -0.07788216
0001c0 8e ae d3 3d b4 99 93 3d 60 38 15 bb ef f8 09 be
       0.10336028 0.07207051 -0.0022769198 -0.13473867
0001d0 23 89 09 be a4 dc 1f bd 08 86 b1 ba 74 f0 4a bc
       -0.1343122 -0.03902878 -0.0013543973 -0.01238643
0001e0 84 0f dc 3c b8 98 84 bd 31 44 b7 bd eb df 0d be
       0.026862867 -0.06474441 -0.08948553 -0.13854949
0001f0 5b 72 92 bd 7d 0b 87 bd 54 33 b5 3c 1b 84 17 3d
       -0.07150718 -0.06593988 0.022119202 0.03699122
000200 cf 5b 8b 3d 84 eb 8b bd 52 74 fd bd a5 bb d6 bb
       0.068046205 -0.068320304 -0.12375702 -0.0065531307
000210 21 86 b7 bd 8e ce b5 3d 2f 75 ea bc a1 d1 ce bd
       -0.0896113 0.08877288 -0.02862033 -0.10098577
000220 03 c0 51 bd 60 ab 6e 3d 4b ac 05 be 80 c7 a0 bd
       -0.051208507 0.058268905 -0.13054006 -0.078505516
000230 0c 36 f2 3d 57 5e c0 bc 9e 01 d3 3d b5 ce 05 bd
       0.11826715 -0.023482485 0.10303043 -0.032667834
000240 5d b2 b3 bd 02 14 3e 3d 74 5f df 3d 88 a8 93 bc
       -0.087742545 0.0464058 0.10906878 -0.018024698
000250 2f d9 05 bd 78 6a 8b 3d 84 4f 8e 3d 57 0a d0 bc
       -0.032677826 0.06807417 0.0694876 -0.025395555
000260 e1 0c be 3d 00 d2 a6 3c 2d aa c1 bd f9 be f4 bd
       0.092798 0.020363808 -0.094562866 -0.11950488
000270 67 6f 01 be 6a ef bd bd 44 f2 75 3d 97 90 cc 3d
       -0.12640153 -0.0927418 0.060045496 0.09988516
000280 0e 81 74 bd 4d 1b 8a 3a 2d 3f a9 3d e1 f7 88 bd
       -0.05969339 0.0010536701 0.08264003 -0.06687904
000290 f5 76 d4 3d 28 73 c2 bd cb 09 c9 3d af 85 fa 3d
       0.10374252 -0.094946206 0.09816321 0.12232529
0002a0 45 83 a0 3d 1d ab 32 bd 68 de d8 39 25 94 b2 3d
       0.07837538 -0.043620218 0.00041364436 0.087196626
0002b0 43 af d4 bd ff 45 92 3d c5 d6 6e bd 8c 95 ad 3d
       -0.10384991 0.07142257 -0.05831029 0.084757894
0002c0 29 86 c7 3d f0 28 ec bd d9 ab 54 3d f4 26 bb 3d
       0.09742386 -0.11531246 0.0519217 0.09138289
0002d0 e5 5a fc 3d 89 e0 66 3d a0 0f 9c bd 07 15 92 bd
       0.12322024 0.056366477 -0.07620168 -0.07132917
0002e0 bb aa e7 3d 86 fa 08 3e 32 a5 d2 bc fa bd b7 3d
       0.11311861 0.13376817 -0.025713537 0.08971782
0002f0 71 de 50 bd da 25 33 bd 2d 57 cd bd b3 af cc 3d
       -0.050993387 -0.04373727 -0.10026393 0.099944495
000300 74 ba 99 3b 47 fe f1 3d e8 33 10 be 94 41 8f bd
       0.0046914164 0.11816078 -0.140823 -0.0699493
000310 15 d4 b8 bc 64 9d 3f 3d 99 2e 9a 3d f3 7a 2d 3a
       -0.022562066 0.04678096 0.07528419 0.0006617747
000320 f6 0e b8 bd 31 74 92 3d 78 4a b7 3c 16 72 d3 bd
       -0.089872286 0.07151068 0.022374377 -0.103244945
000330 f0 b6 15 3d 34 e3 9e 3d ca 56 9a 3c 6a f7 d5 bd
       0.036551416 0.07758179 0.018840212 -0.10447581
000340 92 d0 b9 bd be 44 62 3d a4 be b9 bc c7 05 b2 bc
       -0.09072985 0.05524134 -0.022673912 -0.02173127
000350 c1 2e c2 bd 0e e9 f7 bd b9 67 6e bd 3b 3e 57 bd
       -0.09481574 -0.121049985 -0.058204386 -0.052549582
000360 fc 47 94 3d b5 04 8b bd 1c 89 2b bd d4 9d f0 bb
       0.072402924 -0.06788007 -0.041878805 -0.0073430333
000370 17 41 9c 3d 05 c5 c8 bc 70 4a 90 bb 47 a3 cd 3d
       0.076296024 -0.024508009 -0.004403405 0.10040908
000380 c5 8a 90 3d b0 73 de 3d 3c c2 b6 3d c2 d4 e3 3c
       0.07057718 0.108619094 0.08923766 0.027811412
000390 38 13 ad bd 52 e2 d8 3d 63 e2 f0 bd f0 e0 fd 3c
       -0.08450931 0.10590042 -0.1176193 0.030991048
0003a0 91 6e b7 bc ae ac b3 3d 5e fc a5 bd d4 ba 84 3d
       -0.02239159 0.087731704 -0.08104776 0.06480947
0003b0 a7 f9 3b 3d 88 8c 23 bd 94 77 bb bd a0 8e aa 3c
       0.045892384 -0.039928943 -0.09153667 0.020819962
0003c0 7a eb 81 bd bc 4f 1c bd 3f f8 1e 3d 85 5f 82 bd
       -0.06343742 -0.038161978 0.038810965 -0.06365875
0003d0 53 e4 f6 3d 73 cd a7 3d 09 01 74 3d 6d 15 f0 bd
       0.12055268 0.08193483 0.0595713 -0.11722837
0003e0 f2 10 f4 bd f4 a7 cc 3d b6 1d 75 3d 1f 0a d8 3d
       -0.119172946 0.09992972 0.059842788 0.105488054
0003f0 07 fb 02 3e 51 57 03 be e5 d7 72 3d af e7 cb 3d
       0.12791072 -0.12826277 0.059287924 0.099562995

bias f4 [10]
000000 a6 32 80 bd 74 02 17 3c 3f 7e 83 bd 30 5f 6b 3d
       -0.062596604 0.009216893 -0.06420564 0.057463825
000010 1f e0 cb ba d5 3e 58 3d 07 f6 2b 3d e3 ba c5 3d
       -0.0015554464 0.052794296 0.041982677 0.096547864
000020 61 c0 4a 3b 9a f6 8e 3d
       0.003093742 0.06980629
