p27model_3.pth (torch, 588587 bytes, 10 tensors)

weight f4 [32, 3, 5, 5]
0.003024444 0.15922266 0.039737932 0.12323054 0.12405445 0.02926107 0.05146345 -0.021174073
0.05614 0.096108325 0.016355649 -0.06397757 -0.09981266 -0.09531061 0.052944005 0.05841014
0.06049919 0.028211001 0.107158355 0.0268672 -0.106854066 0.02611275 0.030571694 0.068083465
0.06285521 -0.01781724 -0.09083775 0.014794761 0.05231967 -0.051724818 0.06480763 0.07010778
0.042798992 -0.085033566 0.009303465 -0.05744238 -0.05725198 -0.15393804 -0.11747968 -0.03708188
-0.006367924 -0.07816999 -0.118260644 -0.043821063 -0.06724238 -0.09344044 -0.08835329 -0.14461555
0.018857762 0.045829944 -0.03322987 0.12251075 -0.06676153 0.006071761 0.049739968 -0.07665122
0.0192301 0.14377512 0.017939916 0.072851 0.10995295 -0.012387634 -0.12005867 -0.09030166
-0.027069952 0.03642584 0.086980045 0.059637584 0.11463805 0.03512244 0.009002823 -0.10398026
0.08994299 0.06702261 0.114769675 0.026765931 -0.015699668 -0.023693116 -0.056411453 0.05807772
0.12799107 0.016935738 -0.079401076 -0.074965775 0.056677185 0.020690871 0.104836725 -0.11295364
0.10632904 0.08877008 -0.016337875 0.14900826 0.029330008 0.00039139483 0.106961794 0.03573865
0.102196656 0.1074372 -0.020898998 -0.05092368 0.10188384 -0.11810622 -0.028814014 0.022155628
-0.007213915 0.09272982 0.004401103 -0.08912593 -0.0703675 -0.10986436 0.05788172 0.081141554
-0.068397254 -0.1303035 0.047766026 -0.03474326 -0.03730418 0.018374294 0.111773774 0.13470475
-0.06286713 -0.043623753 0.09573164 0.04546801 0.099503644 0.068641245 -0.14012687 -0.06964155
-0.09391269 -0.08726528 0.11403538 -0.101725794 -0.027906818 -0.12872191 0.028712664 0.059579417
0.0464559 -0.15835325 -0.01205554 0.070050605 -0.091469474 0.07619373 -0.04994005 -0.105606966
0.069870956 -0.03496611 0.052262276 0.05600079 -0.11277993 -0.09612294 -0.13517581 -0.11930497
-0.039024837 0.019913007 0.018662725 0.09002872 -0.04120686 -0.1052596 0.040209588 -0.09543212
0.04243286 -0.06998143 0.10493845 0.04284631 -0.11803532 -0.06937661 0.10667348 0.13164161
-0.061481316 0.085390575 -0.012622057 0.049082287 0.11663414 0.023362767 -0.07115055 -0.00825007
-0.05634574 -0.021810852 0.020995239 -0.046924703 0.07983786 -0.07975048 -0.04299338 0.037745845
-0.07231538 0.09417514 0.04629949 -0.058932114 -0.013193462 0.033948645 -0.09086705 -0.082792945
-0.022716776 0.124440126 -0.036440965 0.0949838 0.035676815 -0.011691448 -0.06119797 0.03228353
-0.12911183 -0.0077501927 0.06934769 0.040039886 -0.07278273 -0.10652346 0.07577226 0.069096416
-0.007807741 -0.09758869 0.0029484206 0.040082317 -0.033979475 -0.0143664805 -0.08925716 0.077262506
0.12093433 0.055496506 -0.08730535 0.039428554 0.119740434 0.0464231 0.008543355 0.10394131
0.02007604 0.09052802 0.1373062 -0.091832235 0.10381324 -0.0531094 0.043788392 0.10233155
0.14342579 -0.036536176 -0.0008309353 -0.007943152 0.11465786 -0.047378045 -0.10690833 -0.10175433
0.10085404 0.09754714 0.10899342 -0.02456369 -0.049893618 0.08129731 0.1284142 -0.05072993
-0.14111823 0.0024429585 0.08057309 0.0979037 -0.045293212 0.04783358 -0.0218795 -0.100953795
00000000: c035 463b 440b 233e 3ec4 223d 4b60 fc3d
00000010: 4210 fe3d e9b4 ef3c 57cb 523d 4075 adbc
00000020: 0ef3 653d 71d4 c43d 48fc 853c ac06 83bd
00000030: 946a ccbd 3632 c3bd d0db 583d 793f 6f3d
00000040: 00ce 773d c21a e73c d775 db3d 9a18 dc3c
00000050: 4ed6 dabd 68ea d53c 7d71 fa3c 586f 8b3d
00000060: 3bba 803d 76f5 91bc 2409 babd ba65 723c
00000070: 264d 563d 67dd 53bd ddb9 843d ab94 8f3d
00000080: ff4d 2f3d 1426 aebd 8f6d 183c b348 6bbd
00000090: 0d81 6abd efa1 1dbe 3099 f0bd 2be3 17bd
000000a0: 05aa d0bb 9617 a0bd a332 f2bd b77d 33bd
000000b0: 5fb6 89bd b45d bfbd 92f2 b4bd 1916 14be
000000c0: 987b 9a3c 2eb8 3b3d 0b1c 08bd ebe6 fa3d
000000d0: 45ba 88bd 9ff5 c63b 23bc 4b3d 51fb 9cbd
000000e0: 7188 9d3c c939 133e bbf6 923c e832 953d
000000f0: 032f e13d 81f5 4abc 52e1 f5bd 14f0 b8bd
00000100: cec1 ddbc 4333 153d 9822 b23d 8a46 743d
00000110: 5bc7 ea3d 8cdc 0f3d 9480 133c 9af3 d4bd
00000120: 0834 b83d 2643 893d 5d0c eb3d 3a44 db3c
00000130: 979c 80bc 1118 c2bc b20f 67bd e7e2 6d3d
00000140: 1710 033e d1bc 8a3c 089d a2bd a887 99bd
00000150: 5626 683d e77f a93c a3b4 d63d 3d54 e7bd
00000160: 0ac3 d93d 16cd b53d 02d7 85bc 9f95 183e
00000170: 7c45 f03c 2034 cd39 c90e db3d b162 123d
00000180: 7b4c d13d 0908 dc3d 6034 abbc 5995 50bd
00000190: 7aa8 d03d ade1 f1bd 5e0b ecbc b87f b53c
000001a0: b562 ecbb 22e9 bd3d 2137 903b a887 b6bd
000001b0: d61c 90bd 9100 e1bd 6215 6d3d 8b2d a63d
000001c0: dc13 8cbd 486e 05be 4fa6 433d f34e 0ebd
000001d0: 45cc 18bd b085 963c a6e9 e43d 0bf0 093e
000001e0: 7bc0 80bd d2ae 32bd f30e c43d aa3c 3a3d
000001f0: 91c8 cb3d c893 8c3d 6b7d 0fbe 3ba0 8ebd
00000200: 4c55 c0bd 24b8 b2bd 628b e93d 9d55 d0bd
00000210: d79c e4bc adcf 03be d236 eb3c 8c09 743d
00000220: 8b48 3e3d 5b27 22be 9a84 45bc b176 8f3d
00000230: 5954 bbbd 750b 9c3d f08d 4cbd 7748 d8bd
00000240: 8118 8f3d a038 0fbd f810 563d 1661 653d
00000250: 2af9 e6bd 1bdc c4bd 876b 0abe 2a56 f4bd
00000260: 82d8 1fbd 9a20 a33c 92e2 983c fa60 b83d
00000270: 86c8 28bd 5892 d7bd cfb2 243d ea71 c3bd
00000280: 14ce 2d3d 6d52 8fbd f8e9 d63d 9d7f 2f3d
00000290: 80bc f1bd 5315 8ebd a077 da3d 0fcd 063e
000002a0: d5d3 7bbd 41e1 ae3d bfcc 4ebc 820a 493d
000002b0: e1dd ee3d 4663 bf3c 61b7 91bd 4d2b 07bc
000002c0: caca 66bd acac b2bc 35fe ab3c 1e34 40bd
000002d0: 0882 a33d 3854 a3bd d419 30bd 639b 1a3d
000002e0: 161a 94bd e5de c03d 89a4 3d3d cd62 71bd
000002f0: 6429 58bc bc0d 0b3d 8118 babd 598f a9bd
00000300: 8818 babc 77da fe3d 1f43 15bd de86 c23d
00000310: da21 123d 7d8d 3fbc b9aa 7abd bc3b 043d
00000320: e435 04be 54f5 fdbb 2906 8e3d dd00 243d
00000330: 1d0f 95bd f928 dabd 7d2e 9b3d 6c82 8d3d
00000340: 14d8 ffbb 94dc c7bd 4a3a 413b 5b2d 243d
00000350: 102e 0bbd 6361 6bbc 75cc b6bd ce3b 9e3d
00000360: 6bac f73d 4e50 633d 26cd b2bd d67f 213d
00000370: 793a f53d 2626 3e3d 6ef9 0b3c 2edf d43d
00000380: 8276 a43c c166 b93d ff99 0c3e 8a12 bcbd
00000390: 099c d43d 3e89 59bd 755b 333d 3493 d13d
000003a0: 36de 123e f5a6 15bd 20d3 59ba ff23 02bc
000003b0: bdd1 ea3d 7b0f 42bd c1f2 dabd 9364 d0bd
000003c0: 908c ce3d ccc6 c73d f137 df3d cb39 c9bc
000003d0: 405d 4cbd 347f a63d 037f 033e 30ca 4fbd
000003e0: 4c81 10be 0b1a 203b 8103 a53d bc81 c83d
000003f0: 6085 39bd 25ed 433d a33c b3bc ddc0 cebd

bias f4 [32]
-0.09434354 0.08806222 -0.011077494 0.09541858 0.10147496 -0.04196886 -0.013953279 0.12684959
-0.25165722 -0.032631624 -0.015660249 -0.0067647537 0.0144113945 -0.21686292 0.0064122085 0.063652605
-0.10005135 -0.066004746 -0.1758879 0.017409123 0.046301477 -0.20797747 -0.003393081 -0.09971675
-0.0933378 -0.16257857 0.0020343938 -0.034713175 -0.13301493 0.093887374 -0.16504484 -0.13225496
00000000: 3037 c1bd f759 b43d 617e 35bc d16a c33d
00000010: 1bd2 cf3d 8ae7 2bbd 4b9c 64bc dce4 013e
00000020: 37d9 80be bda8 05bd ec49 80bc deaa ddbb
00000030: c51d 6c3c 5011 5ebe 811d d23b 4c5c 823d
00000040: b9e7 ccbd 7f2d 87bd f51b 34be 949d 8e3c
00000050: 9ea6 3d3d 0cf8 54be 745e 5ebb 4c38 ccbd
00000060: e327 bfbd ff7a 26be 7753 053b 672f 0ebd
00000070: 1135 08be 0648 c03d 8401 29be d86d 07be

weight f4 [32, 32, 5, 5]
0.0044864984 0.03244606 0.009216453 -0.027465673 0.038327683 0.025937546 0.022034891 0.015485167
-0.022856684 0.03172556 0.013138337 0.02779208 -0.008041355 -0.0072544785 0.016082443 0.0089278715
-0.016407808 -0.0071487734 0.02845916 0.034475915 0.0014604924 -0.018792247 -0.027087664 -0.012432463
0.015542614 0.048374355 -0.013092113 0.0058395537 0.011239211 0.015245456 0.016164701 0.016958797
0.042835265 0.008954259 0.048844956 0.043051932 0.04827601 0.010276096 0.016285602 -0.0039111334
-0.00051475177 0.02858598 -0.0012657801 -0.013395206 -0.0019800568 0.036445342 -0.0069551454 0.012754427
0.018128064 0.025668526 -0.02328574 -0.019405574 0.005402538 0.031152783 -0.01622354 -0.013855184
-0.0045862594 0.002766099 0.0027691568 0.013472702 -0.0005702696 0.036679868 0.0060371803 -0.003451029
0.0037776306 0.014354519 0.038242187 0.019021465 0.027062936 -0.011851063 0.03830701 -0.014645481
0.032027118 0.043807983 -0.008808692 0.031012192 0.041325774 -0.0047476483 0.00025248487 0.02542253
0.03115484 0.022581713 0.047044124 -0.015601736 0.023054047 0.04289216 0.017359087 0.0067308964
0.04428694 0.051494215 0.052548148 0.023000017 0.020703046 0.0054494315 0.04107858 0.029510453
0.013120954 0.041368797 0.04224503 -0.020694569 0.007988892 0.016484082 0.01830632 0.03133102
0.02802881 -0.01597222 0.023439502 -0.019346058 0.033666983 -0.022489866 0.0016208566 -0.0017909824
0.039425943 0.008645892 -0.01394156 0.017959971 0.01938083 0.02563818 0.007849436 0.022619711
-0.026031982 -0.012758358 -0.0120498035 0.010826845 0.02784558 0.048100635 -0.007159384 -0.0043145022
-0.005430207 -0.003764686 0.040085528 -0.015329445 0.035894584 0.0027726898 0.0022768914 -0.003863334
0.006409305 0.03505217 -0.017722478 0.015248575 -0.023711748 -0.00095288083 -0.015523776 0.01915325
0.036445986 0.026535718 0.0033584144 0.004868526 0.040298715 0.021217102 -0.0077278824 0.0370557
0.033456355 0.020473834 -0.015539186 0.028126864 -0.015301599 0.038632005 0.036399476 0.038853064
0.0022308563 -0.022145089 0.00048209482 -0.025414413 -0.021593887 0.035331134 0.02927366 0.025680125
0.01589766 0.028447203 0.027687939 0.0057320003 0.007513977 0.04064517 0.023650892 -0.004326597
-0.0025923392 0.020424318 0.038958084 0.035249736 0.027804727 -0.008266276 -0.005937071 0.013544044
0.0070389602 0.02688208 0.04032511 0.03186992 0.024071246 0.028923592 0.008441689 -0.020614687
0.020434346 0.015029369 0.04987298 -0.020971073 -0.029987743 0.020818189 0.037581354 0.012550875
0.018715171 0.024882758 0.023580724 0.007498957 0.03226877 -0.034286972 -0.0115565285 -0.022892376
-0.00905612 0.021628201 -0.0104845455 -0.02280026 0.005577546 -0.043821532 0.030347679 0.018379353
-0.012620667 -0.0391874 -0.024773745 -0.009562923 -0.017130818 -0.0048185852 -0.03388382 -0.007389703
0.024681777 0.00030975533 0.00870021 0.015109395 0.021211842 -0.029361825 0.018244665 0.008615986
0.033090938 0.029436052 -0.010748978 -0.018141454 0.01370608 0.026480936 0.0448696 0.01920855
-0.007650893 -0.014379964 0.0025512346 0.03139477 0.011983042 -0.02508287 -0.03160136 -0.008892111
-0.0152780935 -0.0035838657 0.022334136 0.012870908 0.018571552 -0.010155464 -0.0036346207 0.03204979
00000000: 7a03 933b 29e6 043d 9b00 173c b1ff e0bc
00000010: 7dfd 1c3d fa7a d43c 8482 b43c 7fb5 7d3c
00000020: f13d bbbc a9f2 013d 2e42 573c 37ac e33c
00000030: e3bf 03bc fab6 edbb 54bf 833c 3546 123c
00000040: ab69 86bc 4240 eabb 2f23 e93c 9e36 0d3d
00000050: fe6d bf3a 33f2 99bc f3e6 ddbc 87b1 4bbc
00000060: 73a6 7e3c 3024 463d 4d80 56bc ba59 bf3b
00000070: ab24 383c 14c8 793c d66b 843c 2ded 8a3c
00000080: 0874 2f3d e2b4 123c a611 483d 3957 303d
00000090: 11bd 453d 125d 283c 6269 853c f728 80bb
000000a0: 68f0 06ba 252d ea3c 88e8 a5ba 9177 5bbc
000000b0: d7c3 01bb b647 153d fde7 e3bb f2f7 503c
000000c0: 4e81 943c cd46 d23c bcc1 bebc 70f8 9ebc
000000d0: c607 b13b 1f34 ff3c 3be7 84bc db00 63bc
000000e0: 5548 96bb 7147 353b be7a 353b 9cbc 5c3c
000000f0: 257e 15ba a13d 163d 8ad3 c53b a92a 62bb
00000100: 2092 773b 372f 6b3c d7a3 1c3d e7d2 9b3c
00000110: 17b3 dd3c f62a 42bc d0e7 1c3d 99f3 6fbc
00000120: de2e 033d 0070 333d 5552 10bc 480d fe3c
00000130: 3745 293d 2992 9bbb f25f 8439 e942 d03c
00000140: 6f38 ff3c 49fd b83c 57b1 403d 6c9e 7fbc
00000150: d7db bc3c b1af 2f3d a534 8e3c da8e dc3b
00000160: 3966 353d 99eb 523d ba3c 573d 886a bc3c
00000170: 6f99 a93c 2591 b23b 0342 283d e8bf f13c
00000180: 45f9 563c 5472 293d 2009 2d3d a887 a9bc
00000190: d7e3 023c a009 873c 23f7 953c f554 003d
000001a0: ad9c e53c 2cd8 82bc 3304 c03c a07b 9ebc
000001b0: 64e6 093d ab3c b8bc ec72 d43a 66bf eaba
000001c0: 197d 213d 80a7 0d3c 246b 64bc ca20 933c
000001d0: 8cc4 9e3c 2907 d23c ec9a 003c f94c b93c
000001e0: 0641 d5bc 6f08 51bc 8a6c 45bc 1463 313c
000001f0: 6a1c e43c 2c05 453d 4499 eabb ab60 8dbb
00000200: e1ef b1bb f3b8 76bb b930 243d 5a28 7bbc
00000210: 3306 133d 04b6 353b e637 153b fd2f 7dbb
00000220: 2605 d23b dd92 0f3d bb2e 91bc 29d5 793c
00000230: 243f c2bc c0ca 79ba 7057 7ebc 47e7 9c3c
00000240: 6348 153d 6f61 d93c d818 5c3b 2888 9f3b
00000250: 4410 253d 7dcf ad3c 2d3a fdbb b8c7 173d
00000260: 8809 093d beb8 a73c 1298 7ebc 4f6a e63c
00000270: 8fb3 7abc 983c 1e3d 9e17 153d 6424 1f3d
00000280: 8f33 123b 9e69 b5bc acc1 fc39 e331 d0bc
00000290: aae5 b0bc 61b7 103d 51cf ef3c 205f d23c
000002a0: cf3b 823c 1c0a e93c d1d1 e23c 81d3 bb3b
000002b0: cf37 f63b 8d7b 263d 84bf c13c 20c6 8dbb
000002c0: 3ce4 29bb e650 a73c 8392 1f3d 0762 103d
000002d0: bdc6 e33c 466f 07bc c38b c2bb d7e7 5d3c
000002e0: 14a7 e63b cf37 dc3c f12b 253d 098a 023d
000002f0: 1031 c53c 2bf1 ec3c 034f 0a3c 22e0 a8bc
00000300: ee65 a73c be3d 763c 9c47 4c3d 87cb abbc
00000310: dba8 f5bc e88a aa3c e8ee 193d 2fa2 4d3c
00000320: 8f50 993c edd6 cb3c 5d2c c13c d0b9 f53b
00000330: 422c 043d 7f70 0cbd 9857 3dbc cb88 bbbc
00000340: 1f60 14bc a02d b13c 5fc7 2bbc 9cc7 babc
00000350: d9c3 b63b 357e 33bd b29b f83c 4c90 963c
00000360: eac6 4ebc f882 20bd 4ff2 cabc cead 1cbc
00000370: ee55 8cbc 39e5 9dbb c3c9 0abd 5225 f2bb
00000380: 7031 ca3c a866 a239 538b 0e3c 658d 773c
00000390: 75c4 ad3c 3688 f0bc d675 953c 112a 0d3c
000003a0: 5d8a 073d e023 f13c 7b1c 30bc 639d 94bc
000003b0: 778f 603c 8cee d83c 30c9 373d 405b 9d3c
000003c0: 58b4 fabb f199 6bbc 9d32 273b cd97 003d
000003d0: 8554 443c 977a cdbc 6d70 01bd 37b0 11bc
000003e0: f850 7abc 4adf 6abb 14f6 b63c 80e0 523c
000003f0: 5e23 983c 1a63 26bc d132 6ebb a446 033d

bias f4 [32]
0.023978423 -0.047640976 -0.083977155 0.011386844 0.0011041817 0.026772527 0.027685663 -0.03846068
-0.051927615 0.054332092 0.021746991 -0.010635828 0.00792923 -0.023508493 -0.008832743 -0.01239212
0.005371379 -0.067305006 0.051683217 -0.052622516 0.01610002 -0.028365862 -0.01970158 0.049050175
0.03550767 -0.015300817 -0.004998702 -0.08219295 0.0016051957 -0.018708583 0.004826647 -0.028354727
00000000: 666e c43c 2f23 43bd 37fc abbd e38f 3a3c
00000010: 31ba 903a 0f52 db3c 0bcd e23c f288 1dbd
00000020: 0db2 54bd 548b 5e3d bf26 b23c e541 2ebc
00000030: 9ae9 013c e294 c0bc 36b7 10bc 5208 4bbc
00000040: 6502 b03b 35d7 89bd c8b1 533d b58a 57bd
00000050: 30e4 833c 865f e8bc 3565 a1bc d6e8 483d
00000060: 7e70 113d 47b0 7abc 27cc a3bb c754 a8bd
00000070: 6e65 d23a be42 99bc da28 9e3b 2c48 e8bc

weight f4 [64, 32, 5, 5]
-0.012838671 0.011824801 -0.006246721 -0.028576758 -0.027320076 -0.028824948 0.01661364 -0.015233388
-0.03423778 0.014013441 -0.01869227 -0.016043626 0.028328124 -0.0055479105 0.01659955 -0.0035386481
0.030025413 -0.032177478 -0.031248393 0.001033969 -0.030346503 -0.012783463 0.015708284 -0.03352276
0.0204134 -0.025727475 -0.00095701474 -0.022998406 0.010695624 0.00015727237 0.008145144 -0.012082878
-0.00427039 -0.028130356 -0.032761887 0.016825886 -0.030177189 0.0137242805 0.0076465467 -0.024013048
-0.027198039 0.045742627 0.044613555 -0.010082998 0.025505962 0.019439833 -0.030696284 -0.01130773
0.031596504 -0.03070593 -0.0025358484 -0.0009884657 0.013290507 0.021135941 -0.041997954 -0.04310018
-0.018543143 0.028240295 0.010225791 -0.034014326 -0.02746021 0.0117343 0.039920934 0.013638798
-0.028088149 0.015818989 -0.035044197 0.0068708425 -0.009962758 -0.046336483 0.028168296 0.013610013
0.04123554 0.0021700643 0.01703908 -0.03247824 0.0005004192 -0.02225672 0.008403553 -0.032484084
0.01754495 -0.00031573483 -0.028031824 -0.034379885 -5.237616e-05 0.011044049 0.004305096 -0.0030784092
0.008863209 -0.003725679 0.017259574 -0.02342211 -0.013844356 0.017836696 0.021643898 0.02275597
0.014840752 -0.002976278 -0.013404297 0.018452587 -0.001999133 -0.010221767 0.023565201 -0.025917701
0.022900853 -0.048580643 0.00949895 0.028657602 -0.031766668 -0.0007478516 0.017325621 0.035583947
0.041828137 0.03968742 0.03548034 0.01827951 -0.030593345 -0.034292374 0.013536586 -0.02574007
-0.024488945 -0.023208357 -0.029500581 0.02726876 0.018381614 -0.010809849 -0.0058711083 -0.031170368
-0.0031031226 0.00012381875 0.0054473234 -0.034028925 0.021752179 0.019790025 -0.034335397 -0.0011040603
0.015242683 -0.025658954 0.025903594 0.0074216374 0.029411728 0.0031478407 0.03987648 0.024097376
0.004204764 0.019655157 -0.008956817 -0.031003142 -0.02853668 0.019962372 0.021577964 -0.0031272573
-0.021324378 0.028259981 -0.0025248935 0.005330227 0.01841875 0.032126054 0.0028000958 -0.011729721
0.020962188 -0.029831009 -0.020953547 -0.014332792 -0.0139488205 -0.038173206 -0.0030718807 -0.019480739
-0.031346455 0.00055412616 0.012777081 -0.008087894 0.018580219 0.031563852 -0.034335747 -0.010760233
0.014043105 -0.011665946 -0.031298015 -0.0049627027 0.019680176 0.011239545 0.016609458 0.025138984
-0.034862943 0.026123283 0.017627383 0.031087337 0.025777273 -0.04010533 -0.037498597 -0.011772795
-0.018216219 0.012254925 -0.0045001283 -0.00862557 0.0009362119 0.038776103 -0.013397886 -0.014329351
-0.029046627 0.011712784 -0.03317562 -0.02140092 0.022897609 -0.027420608 0.021398835 0.009138028
0.008885205 -0.009091433 0.011532522 0.019473989 0.023012104 0.017447311 -0.005918565 -0.029410193
-0.033993874 0.018025355 0.029746788 -0.029548058 -0.005861942 -0.004657206 -0.021457719 -0.015960531
0.004638598 -0.022465024 -0.0289025 -0.029341403 -0.01491963 -0.01868939 -0.033338446 -0.0038636457
-0.0082482565 0.021082772 0.020126794 -0.03655774 -0.029376311 0.022461666 0.013058506 0.0039346186
-0.029320773 0.024515714 0.023209522 0.024745176 -0.009996168 -0.036561538 -0.006996619 0.02161265
-0.0077723167 -0.027328536 0.019942347 0.02699909 -0.010908213 -0.01119563 0.010485334 -0.0070564975
00000000: 4a59 52bc cfbc 413c 4bb1 ccbb ce19 eabc
00000010: 5ace dfbc 4c22 ecbc 5419 883c 7695 79bc
00000020: ea3c 0cbd a298 653c 8820 99bc ec6d 83bc
00000030: 6210 e83c 3fcb b5bb c8fb 873c aae8 67bb
00000040: dbf7 f53c 88cc 03bd a1fc ffbc 3e86 873a
00000050: 3b99 f8bc bb71 51bc a9ae 803c 294f 09bd
00000060: 013a a73c 6dc2 d2bc 2ce0 7aba 2767 bcbc
00000070: b33c 2f3c 7be9 2439 3673 053c 43f7 45bc
00000080: a1ee 8bbb a271 e6bc 5431 06bd 71d6 893c
00000090: 2736 f7bc cedb 603c e28f fa3b 03b7 c4bc
000000a0: 6cce debc 9f5c 3b3d b4bc 363d 2933 25bc
000000b0: e1f1 d03c 4940 9f3c c676 fbbc 0f44 39bc
000000c0: 566b 013d 018b fbbc 7a30 26bb 688f 81ba
000000d0: 6dc0 593c 4825 ad3c 0c06 2cbd d089 30bd
000000e0: cae7 97bc 3158 e73c 138a 273c 9b52 0bbd
000000f0: 3cf4 e0bc 3941 403c 2284 233d 4475 5f3c
00000100: 1e19 e6bc d396 813c 818a 0fbd ce24 e13b
00000110: d63a 23bc 53cb 3dbd 33c1 e63c 88fc 5e3c
00000120: 99e6 283d a337 0e3b 8a95 8b3c e707 05bd
00000130: 902e 033a ba53 b6bc 0eaf 093c 080e 05bd
00000140: 6dba 8f3c 3689 a5b9 ffa2 e5bc ecd1 0cbd
00000150: 79ae 5bb8 19f2 343c c311 8d3b 23bf 49bb
00000160: fe36 113c 852a 74bb f363 8d3c badf bfbc
00000170: 70d3 62bc 431e 923c 8b4e b13c ba6a ba3c
00000180: a026 733c a90d 43bb b29d 5bbc e129 973c
00000190: e303 03bb 3379 27bc cf0b c13c 5c51 d4bc
000001a0: 929a bb3c 7ffc 46bd 7ca1 1b3c 59c3 ea3c
000001b0: c41d 02bd 790b 44ba 76ee 8d3c 79c0 113d
000001c0: fb53 2b3d 478f 223d d553 113d e9be 953c
000001d0: e59e fabc 2976 0cbd 8fc8 5d3c d7dc d2bc
000001e0: 0a9d c8bc 741f bebc 34ab f1bc bc62 df3c
000001f0: 0a95 963c cb1b 31bc 6d62 c0bb 0059 ffbc
00000200: c25d 4bbb 58d5 0139 767f b23b ea61 0bbd
00000210: a031 b23c b11e a23c 46a3 0cbd 1eb6 90ba
00000220: 72bc 793c ba32 d2bc c633 d43c 3531 f33b
00000230: ddf0 f03c 014c 4e3b 8555 233d dc67 c53c
00000240: 1ec8 893b da03 a13c 9dbf 12bc 4dfa fdbc
00000250: c1c5 e9bc 2188 a33c 45c4 b03c acf2 4cbb
00000260: 76b0 aebc 7a81 e73c af78 25bb 2fa9 ae3b
00000270: ebe2 963c 9c96 033d d081 373b 042e 40bc
00000280: e5b8 ab3c 2960 f4bc c6a6 abbc 16d4 6abc
00000290: 9889 64bc 825b 1cbd 9b51 49bb 1296 9fbc
000002a0: 2465 00bd c742 113a f656 513c 1683 04bc
000002b0: 8b35 983c 1949 013d a4a3 0cbd b04b 30bc
000002c0: 0d15 663c 8622 3fbc 5932 00bd 2b9e a2bb
000002d0: 5238 a13c 1226 383c 8f10 883c 45f0 cd3c
000002e0: 72cc 0ebd 7f00 d63c 4d67 903c dfaa fe3c
000002f0: dc2a d33c 7d45 24bd 2198 19bd aee2 40bc
00000300: 2e3a 95bc e2c8 483c d075 93bb 4352 0dbc
00000310: 1e6c 753a b1d3 1e3d cf82 5bbc a7c5 6abc
00000320: 31f3 edbc fae6 3f3c 29e3 07bd fb50 afbc
00000330: c493 bb3c 2fa1 e0bc 9c4c af3c abb7 153c
00000340: 4093 113c 3cf4 14bc e7f2 3c3c ea87 9f3c
00000350: e183 bc3c aaed 8e3c 86f0 c1bb a5ed f0bc
00000360: 293d 0bbd e9a9 933c 89af f33c c50e f2bc
00000370: 8915 c0bb 7a9b 98bb 19c8 afbc a9bf 82bc
00000380: 61ff 973b 9208 b8bc f0c4 ecbc 625d f0bc
00000390: 7771 74bc 7e1a 99bc e58d 08bd 3835 7dbb
000003a0: b223 07bc c7b5 ac3c f2e0 a43c 92bd 15bd
000003b0: 97a6 f0bc 8701 b83c 58f3 553c f9ed 803b
000003c0: 1e32 f0bc 2ed5 c83c e521 be3c 65b6 ca3c
000003d0: f8c6 23bc 8dc1 15bd e543 e5bb 030d b13c
000003e0: ebae febb 18e0 dfbc 225e a33c 322d dd3c
000003f0: 5db8 32bc e06d 37bc aeca 2b3c 313a e7bb

bias f4 [64]
-0.0064581805 -0.014091804 -0.028155316 -0.03089 -0.022994088 0.021897009 0.032676578 -0.007715183
-0.0024385168 0.01521645 -0.022938533 0.017478775 -0.022953222 -0.039270435 -0.027076278 0.03304653
-0.027123084 -0.041266505 0.027327228 0.02323945 -0.0020825819 -0.005248015 0.007116667 -0.009138021
0.040029507 0.014041214 0.006311355 -0.01803018 0.0023357884 0.027458692 -0.014961321 -0.005977035
-0.055753488 -0.010156799 -0.023899902 -0.020032218 -0.0015756148 0.0024044947 -0.027864682 0.011918427
-0.03413993 -0.034247905 0.013827396 0.022573935 0.04481441 -0.016139863 0.016534353 -0.0156145105
-0.015127104 -0.023600204 -0.00616539 -0.003778146 -0.012713792 0.044485215 -0.021467943 -0.010679329
0.0052914224 0.028707566 -0.026488049 -0.02986037 0.0034632985 0.0116270995 0.0045616576 -0.043472182
00000000: 259f d3bb 4fe1 66bc faa5 e6bc 060d fdbc
00000010: 195e bcbc 5b61 b33c e0d7 053d a5cf fcbb
00000020: 86cf 1fbb 6b4e 793c 97e9 bbbc a62f 8f3c
00000030: 6508 bcbc 09da 20bd 12cf ddbc cc5b 073d
00000040: 3b31 debc 1107 29bd 5add df3c a960 be3c
00000050: ed7b 08bb 8af7 abbb ee32 e93b a3b7 15bc
00000060: fbf5 233d 1f0d 663c 7ccf ce3b 07b4 93bc
00000070: 0714 193b 0df1 e03c 5420 75bc 01db c3bb
00000080: c55d 64bd b468 26bc bac9 c3bc 9b1a a4bc
00000090: dc84 ceba ba94 1d3b 7944 e4bc 8245 433c
000000a0: 50d6 0bbd 8847 0cbd 4d8c 623c f9ec b83c
000000b0: 518f 373d bf37 84bc 0d73 873c 01d4 7fbc
000000c0: acd7 77bc 3755 c1bc 0a07 cabb c69a 77bb
000000d0: 824d 50bc 2136 363d 8add afbc 5af8 2ebc
000000e0: ab63 ad3b 212c eb3c 77fd d8bc bc9d f4bc
000000f0: 82f8 623b 977f 3e3c f579 953b e30f 32bd

weight f4 [64, 1024]
-0.019167349 -0.027076028 0.0016583119 -0.022953713 0.017650526 -0.022448337 -0.0020290313 0.015164823
0.017863357 0.020024076 -0.039484445 -0.006528856 -0.015801828 -0.019910077 -0.017424759 -0.02834937
0.012107429 0.005763072 0.008254645 0.018539088 0.028059177 0.0026804402 0.005500332 0.004788276
-0.019067332 -0.020628503 -0.0046587996 -0.017850013 -0.0150336325 0.029005386 -0.032296076 0.03917282
0.014486762 -0.021147866 0.015014074 -0.015312719 -0.0067890566 -0.031774234 0.026783478 -0.02379546
0.0078067654 0.030189652 0.0008985244 0.015044791 -0.018248022 -0.024576277 -0.024663659 0.02705566
-0.002640601 0.024418825 0.024856146 0.011616242 0.008949261 -0.029496277 0.011423831 0.013639592
0.022393035 -0.0045941393 -0.00089212996 0.012926777 0.0032884798 0.013375215 -0.023449706 0.039866522
0.026089204 -0.0067125764 -0.0016898155 0.029069629 -0.013186427 0.012381891 0.020423949 -0.02405528
0.017839719 -0.0052548023 -0.032395635 -0.029055068 0.031144533 -0.025303222 0.022137243 -0.02066726
-0.00383734 -0.010338062 -0.0033803496 -0.02547535 0.027887225 -0.005326618 -0.03169645 0.019631082
0.003805958 -0.025902435 -0.0011066024 0.04826095 0.04312441 -0.039026186 0.02678301 0.015972028
-0.008834506 -0.030451579 -0.0242565 -0.0374615 -0.019231379 0.012082003 0.022662943 -0.0046449443
0.010260397 0.0040669558 -0.0100337565 -0.013050268 0.027294127 -0.011003648 -0.0046487446 -0.0020516466
0.017813988 -0.018258745 -0.002690234 0.030767258 0.0013963362 -0.021131307 0.00026293553 -0.03248378
-0.0020366758 -0.031386275 -0.00034024747 -0.012418822 -0.0070500337 0.01823554 -0.02226356 -0.027187971
-0.016793929 0.0014262701 -0.0073071024 0.02907607 0.012809121 0.014929982 -0.018106932 -0.016144007
-0.013996163 -0.0012766512 -0.016376501 0.024981199 -0.022030065 -0.00071541005 -0.0016752789 0.008957705
0.013951731 0.010072729 -0.024875427 0.013668717 -0.021116495 0.0009306657 0.013363799 0.032377798
0.009057284 0.033645622 0.028053172 0.007653588 -0.0028462124 -0.01915162 0.0068914504 0.00517325
-0.019454872 0.014092329 -4.8329675e-06 -0.0147978915 -0.008457446 0.03428011 -0.028760932 0.02647817
-0.0059550824 0.03314697 -0.005051438 0.02245482 -0.023222564 0.0023153983 0.029757986 0.034315925
0.031406086 0.030191137 -0.012684326 -0.033038322 -0.015858728 0.033830136 -0.007131124 0.0029300698
0.022573013 0.031023739 -0.02240994 0.008940965 0.015986415 0.0172404 -0.018763492 -0.022362258
0.010488409 -0.009993907 0.0147524895 0.012035303 0.008168667 -0.0033912298 -0.0107058445 -0.015772095
-0.02227627 0.018874897 -0.02281523 0.031312317 0.027328048 -0.001687344 -0.013874063 0.0145960655
-0.022402383 -0.01451174 0.001861739 0.030671595 -0.019168248 0.03208694 0.010619388 -0.0338311
-0.009286689 -0.05454363 0.011736314 0.0071596215 0.017451432 -0.0031331172 -0.035154242 0.01913515
0.029313697 -0.00037852637 0.01308733 -0.028931417 0.00501926 -0.018048916 -0.015338185 -0.013957503
-0.014728643 0.017713059 0.028462088 0.013994307 -0.01018153 -0.034015693 0.011789887 -0.0041007395
-0.0048813303 -0.012795343 -0.028105525 -0.009641463 -0.0049188333 0.026673503 0.027826814 -0.016124541
-0.030091949 -0.010576455 0.0054929927 0.02722895 0.010516955 0.018780395 -0.016838215 -0.015044568
00000000: d804 9dbc 8cce ddbc b75b d93a 6d09 bcbc
00000010: d697 903c 93e5 b7bc 7ff9 04bb e175 783c
00000020: 2d56 923c 8809 a43c 71ba 21bd 04f0 d5bb
00000030: d672 81bc 751a a3bc 5ebe 8ebc f03c e8bc
00000040: 3d5e 463c 27d8 bc3b 7e3e 073c 49df 973c
00000050: 5cdc e53c 53aa 2f3b 213c b43b f8e6 9c3b
00000060: 1833 9cbc 1bfd a8bc d8a8 98bb 313a 92bc
00000070: a04f 76bc b49c ed3c e448 04bd ae73 203d
00000080: e259 6d3c 4a3e adbc 97fd 753c 33e2 7abc
00000090: bc76 debb b325 02bd 0669 db3c b2ee c2bc
000000a0: e5cf ff3b 4a50 f73c f48a 6b3a 6d7e 763c
000000b0: e07c 95bc 3054 c9bc 710b cabc d5a3 dd3c
000000c0: ef0d 2dbb fd09 c83c 1e9f cb3c 0d52 3e3c
000000d0: ec9f 123c 2da2 f1bc 052b 3b3c 9878 5f3c
000000e0: 9971 b73c 6f8a 96bb d4dd 69ba d5ca 533c
000000f0: 8983 573b b823 5b3c 9919 c0bc 144b 233d
00000100: 07b9 d53c 2cf5 dbbb cd7c ddba 6e23 ee3c
00000110: e20b 58bc 6add 4a3c 2050 a73c 940f c5bc
00000120: 9a24 923c 7a30 acbb 49b1 04bd e504 eebc
00000130: d222 ff3c b448 cfbc 2a59 b53c 634e a9bc
00000140: e27b 7bbb fa60 29bc db88 5dbb aeb1 d0bc
00000150: c073 e43c e98a aebb 23d4 01bd 5dd1 a03c
00000160: 616d 793b 5831 d4bc 6a0b 91ba 46ad 453d
00000170: 39a3 303d ecd9 1fbd 0b68 db3c c5d7 823c
00000180: 9bbe 10bc 9775 f9bc 91b5 c6bc 3b71 19bd
00000190: 208b 9dbc 98f3 453c a3a7 b93c 9e34 98bb
000001a0: 391b 283c 1944 853b a064 24bc cbd0 55bc
000001b0: ef97 df3c a548 34bc 7f54 98bb eb74 06bb
000001c0: a4ee 913c 5d93 95bc a34e 30bb 9e0b fc3c
000001d0: 4505 b73a 901b adbc 9cda 8939 b60d 05bd
000001e0: c079 05bb e58e 00bd 3e63 b2b9 5178 4bbc
000001f0: f803 e7bb b362 953c 1262 b6bc 4fb9 debc
00000200: 6c93 89bc aff1 ba3a 6b70 efbb f030 ee3c
00000210: 59dd 513c e29c 743c fd54 94bc 7040 84bc
00000220: 2a50 65bc 4e55 a7ba 0328 86bc 5fa5 cc3c
00000230: 6578 b4bc 5b8a 3bba 0895 dbba 57c3 123c
00000240: cd95 643c 1608 253c 8dc7 cbbc c1f2 5f3c
00000250: 80fc acbc ebf7 733a d6f3 5a3c 959e 043d
00000260: 0165 143c fecf 093d c4cf e53c f3ca fa3b
00000270: 8587 3abb dce3 9cbc add1 e13b 5e84 a93b
00000280: d35f 9fbc 83e3 663c e02a a2b6 db72 72bc
00000290: 1991 0abc 4d69 0c3d 0c9c ebbc bfe8 d83c
000002a0: da22 c3bb 1ec5 073d 8986 a5bb 2cf3 b73c
000002b0: 3f3d bebc f0bd 173b 05c7 f33c db8e 0c3d
000002c0: aba3 003d 6753 f73c ebd1 4fbc 3153 07bd
000002d0: 2aea 81bc 7891 0a3d 34ac e9bb 6a06 403b
000002e0: 0aeb b83c 7f25 fe3c 0d95 b7bc 207d 123c
000002f0: f1f5 823c bd3b 8d3c e5b5 99bc 0e31 b7bc
00000300: 93d7 2b3c 7cbd 23bc 6db4 713c b82f 453c
00000310: dfd5 053c 653f 5ebb 9167 2fbc 7b34 81bc
00000320: b97c b6bc 879f 9a3c 01e7 babc 5841 003d
00000330: 12df df3c df29 ddba 0a50 63bc 5624 6f3c
00000340: 3485 b7bc a6c2 6dbc 9805 f43a ff42 fb3c
00000350: bb06 9dbc 986d 033d f1fc 2d3c 7b92 0abd
00000360: 3227 18bc 2469 5fbd ab49 403c 429b ea3b
00000370: 4ef6 8e3c fc54 4dbb e5fd 0fbd 51c1 9c3c
00000380: 4723 f03c f374 c6b9 3e6c 563c 9401 edbc
00000390: 9b78 a43b 52db 93bc 034d 7bbc 03ae 64bc
000003a0: 6850 71bc fa1a 913c 5329 e93c 6148 653c
000003b0: 6fd0 26bc 0a54 0bbd 5f2a 413c 7f5f 86bb
000003c0: 91f3 9fbb 8fa3 51bc 8f3d e6bc 3af7 1dbc
000003d0: 2a2e a1bb 6482 da3c 0ff5 e33c 9d17 84bc
000003e0: 6483 f6bc de48 2dbc 90fe b33b 3f0f df3c
000003f0: 4e4f 2c3c 58d9 993c 4cf0 89bc 7e7d 76bc

bias f4 [64]
0.007308463 0.018225573 -0.041626893 0.0017269271 0.022249414 0.026735445 -0.031889025 0.021719975
0.03029441 0.020937854 0.015789093 0.00019075819 0.021579549 0.010945816 -0.0025551536 -0.01206873
-0.018908288 0.010343307 -0.01970587 -0.03047551 -0.031052962 -0.00059999217 -0.0029444376 -0.025032235
0.02787864 -0.00037651317 -0.04019247 0.0005250942 -0.023232967 0.021626983 -0.018192863 -0.0009603179
-0.03560491 0.022731468 0.018233186 0.036938086 -0.018647924 0.022293443 0.03915457 -0.035357933
0.025476675 -0.008605583 -0.0064348876 0.015931288 -0.029664123 0.0062669157 0.008191843 -0.024823092
0.006932963 -0.020611864 0.024135398 -0.027096402 0.01406683 0.032266025 0.0210195 0.0010145077
-0.01748353 -0.0015840919 0.017665265 -0.0124778915 0.010389024 -0.04326804 0.031754173 0.053724125
00000000: d57b ef3b cc4d 953c f680 2abd 0f5a e23a
00000010: 6744 b63c 4b04 db3c 119e 02bd 17ee b13c
00000020: fc2b f83c dd85 ab3c 2158 813c 4306 4839
00000030: 98c7 b03c 1456 333c 5d74 27bb ecbb 45bc
00000040: 8ee5 9abc f976 293c 346e a1bc c7a7 f9bc
00000050: c862 febc cb48 1dba 77f7 40bb 6710 cdbc
00000060: bf61 e43c be66 c5b9 dca0 24bd 7aa6 093a
00000070: 1053 bebc 122b b13c 3309 95bc d8bd 7bba
00000080: 74d6 11bd 5837 ba3c c35d 953c 644c 173d
00000090: 88c3 98bc bda0 b63c 8b60 203d 7bd3 10bd
000000a0: 76b4 d03c 6efe 0cbc c0db d2bb 5582 823c
000000b0: 2d02 f3bc b35a cd3b 1437 063c cc59 cbbc
000000c0: e92d e33b 36da a8bc 99b7 c53c 46f9 ddbc
000000d0: 9078 663c 6129 043d 1631 ac3c 3bf9 843a
000000e0: 9f39 8fbc 4ea1 cfba bfb6 903c 1270 4cbc
000000f0: ba36 2a3c d439 31bd aa10 023d d40d 5c3d

weight f4 [10, 64]
0.1379937 0.0012414852 0.13229042 0.0013451908 -0.14198741 -0.16909215 -0.07240561 -0.048436213
-0.009219067 0.047761936 -0.029785952 0.0382537 -0.058472883 -0.07919693 0.02929042 -0.02747956
0.13949709 -0.13349687 0.15813069 0.08657181 0.15253794 0.015549579 -0.017737655 0.07312136
-0.12078614 0.06379077 0.16123381 0.008127839 -0.06772243 -0.14489408 0.089440785 0.06981268
0.070194855 0.06747117 -0.10818226 -0.13579741 0.0792634 -0.096441865 -0.086359434 0.1508764
0.0023140702 0.10442395 0.07307118 0.036240138 0.069391176 -0.12853333 0.1140946 -0.07713344
0.07630613 0.0465883 -0.1260739 0.078456804 0.006864068 -0.07695306 -0.038976047 -0.11544925
0.081144124 0.06381943 0.12642898 0.060895015 0.11186003 0.108497165 -0.11095338 -0.00022773421
0.0060066325 -0.14987336 0.18864502 -0.1519028 -0.09719903 0.19613071 -0.03675172 -0.008535087
0.11902821 0.072209194 0.0663247 0.16337809 -0.12796687 -0.18795533 -0.14735845 0.11422022
0.0015602089 -0.1586302 -0.056165446 -0.19285445 0.18064414 -0.04950112 -0.043052614 0.047972973
0.030594725 0.07297454 -0.1153444 0.11809788 0.029801717 0.11407666 -0.06405657 0.1492944
0.18459518 0.0843105 -0.19388802 -0.04748244 -0.1661923 -0.10106588 0.06564076 0.14173913
-0.044408858 0.020935 -0.111563005 0.06750037 -0.113888696 -0.02236658 0.08934603 -0.08828171
0.13170324 0.1244834 -0.006517579 -0.19322912 -0.21434613 -0.10812215 0.013664341 0.009200486
0.011271332 -0.10857392 -0.113888934 -0.20341784 -0.09962198 -0.009422559 0.06376067 0.043210484
0.079102576 -0.08645324 -0.16489044 0.0021102806 -0.14448643 0.10345627 -0.04992916 -0.1261113
-0.082372196 0.079825535 -0.17869708 -0.11545775 0.13406783 -0.034242794 0.14640564 -0.046849117
-0.12975596 0.029206293 0.1276656 0.0018330336 -0.046022806 0.06465171 0.099445835 -0.035972517
0.11170701 0.030710153 -0.08991133 -0.14137694 -0.15250048 -0.10080073 0.07226186 0.10740363
-0.0848814 0.021018932 0.0893912 -0.07313864 0.11404481 -0.092454314 0.0970951 0.133323
0.10150321 -0.028194303 -0.01516488 0.12451648 -0.14546005 0.08205696 -0.058074743 0.11104376
0.120660506 -0.14486457 0.045328535 0.104720145 0.1341824 0.09131237 -0.084778726 -0.083606616
0.11653972 0.18715426 -0.021497829 0.1085577 -0.06291072 -0.083263196 -0.12081204 0.1272794
-0.036085166 0.11482975 -0.18665138 -0.07255099 -0.028193327 0.09404139 0.09141279 0.019485012
-0.11183459 0.096577436 0.049401235 -0.13822313 0.060889173 0.071968585 0.012044115 -0.10972226
-0.13672946 0.06348176 -0.07509264 -0.03912096 -0.11142628 -0.110147536 -0.06768367 -0.102204256
0.085619956 -0.07201273 -0.10436269 -0.019587819 0.11322329 -0.014389192 0.008456506 0.100207314
0.077792116 0.14505607 0.108462386 0.024630837 -0.075409174 0.15718335 -0.14667436 -0.0050458256
-0.0026994026 0.09829895 -0.117367744 0.08739486 0.07505304 0.00016094037 -0.09716418 0.031001078
-0.056897227 -0.063719064 0.06579004 -0.07729528 0.106533416 0.117344424 0.05124247 -0.11265117
-0.14515647 0.086899586 0.044477105 0.12461674 0.10515457 -0.21166179 0.048944656 0.068203576
00000000: 384e 0d3e 55b9 a23a 2477 073e 1d51 b03a
00000010: 2665 11be 7e26 2dbe 6449 94bd 0d65 46bd
00000020: 920b 17bc 05a2 433d ab01 f4bc e9af 1c3d
00000030: 4381 6fbd 0032 a2bd 76f2 ef3c d01c e1bc
00000040: 53d8 0e3e 67b3 08be 03ed 213e 904c b13d
00000050: e832 1c3e a9c3 7e3c 8f4e 91bc a7c0 953d
00000060: b95e f7bd bca4 823d 7a1a 253e a12a 053c
00000070: 0fb2 8abd 1d5f 14be bb2c b73d f3f9 8e3d
00000080: 52c2 8f3d 532e 8a3d a98e ddbd 7a0e 0bbe
00000090: d954 a23d 5083 c5bd 37dd b0bd 587f 1a3e
000000a0: a8a7 173b 39dc d53d 58a6 953d 8a70 143d
000000b0: f61c 8e3d 3e9e 03be 6eaa e93d 23f8 9dbd
000000c0: 6346 9c3d 60d3 3e3d 8419 01be f6ad a03d
000000d0: faeb e03b 9199 9dbd 59a5 1fbd a870 ecbd
000000e0: e42e a63d c3b3 823d 9976 013e 0d6d 793d
000000f0: df16 e53d c333 de3d 873b e3bd f0cb 6eb9
00000100: 49d3 c43b 6778 19be 292c 413e 688c 1bbe
00000110: 4910 c7bd 7dd6 483e f988 16bd c0d6 0bbc
00000120: 10c5 f33d 6ae2 933d 3fd5 873d 964c 273e
00000130: bf09 03be 5d77 40be 22e5 16be 4aec e93d
00000140: ec7f cc3a f56f 22be bd0d 66bd a37b 45be
00000150: c7fa 383e b0c1 4abd f057 30bd 4f7f 443d
00000160: caa1 fa3c ad73 953d af39 ecbd 4ddd f13d
00000170: bb22 f43c 06a1 e93d 1730 83bd a2e0 183e
00000180: 8506 3d3e fcaa ac3d 958a 46be f27c 42bd
00000190: 502e 2abe a1fb cebd aa6e 863d 1024 113e
000001a0: 10e6 35bd e17f ab3c 257b e4bd a23d 8a3d
000001b0: 7a3e e9bd 1e3a b7bc 0dfb b63d 0bcd b4bd
000001c0: 37dd 063e 27f1 fe3d 6a91 d5bb dbdd 45be
000001d0: 8d7d 5bbe 256f ddbd 66e0 5f3c a3bd 163c
000001e0: 65ab 383c 015c debd 9a3e e9bd c44c 50be
000001f0: 9c06 ccbd 1461 1abc f494 823d 7afd 303d
00000200: 8800 a23d 650e b1bd 0ad9 28be a24c 0a3b
00000210: 40f4 13be e2e0 d33d 8582 4cbd 5223 01be
00000220: c1b2 a8bd 927b a33d 5efc 36be 1d75 ecbd
00000230: 1449 093e 2c42 0cbd 5ceb 153e dce4 3fbd
00000240: bfde 04be 0942 ef3c c5ba 023e 6742 f03a
00000250: 6982 3cbd 1e68 843d 42aa cb3d eb57 13bd
00000260: a5c6 e43d dc93 fb3c 6e23 b8bd 1ec5 10be
00000270: 1629 1cbe 9d70 cebd 07fe 933d 6ff6 db3d
00000280: 4dd6 adbd e52f ac3c bc12 b73d b6c9 95bd
00000290: 5390 e93d b058 bdbd ccd9 c63d d385 083e
000002a0: eae0 cf3d bdf7 e6bc 1e76 78bc 7f02 ff3d
000002b0: 7bf3 14be 7b0d a83d c8df 6dbd e96a e33d
000002c0: db1c f73d 6157 14be 6aaa 393d 8477 d63d
000002d0: 1c67 093e fb01 bb3d 78a0 adbd f239 abbd
000002e0: 60ac ee3d 5ea5 3f3e 371c b0bc 8053 de3d
000002f0: 56d7 80bd e585 aabd 4e6c f7bd 8855 023e
00000300: 0ace 13bd dc2b eb3d 8a21 3fbe 9d95 94bd
00000310: b1f5 e6bc c698 c03d a136 bb3d 089f 9f3c
00000320: 8909 e5bd 64ca c53d f358 4a3d 5d8a 0dbe
00000330: ed66 793d 4464 933d ae54 453c 10b6 e0bd
00000340: cf02 0cbe ba02 823d 2cca 99bd 4d3d 20bd
00000350: 7633 e4bd 0895 e1bd bc9d 8abd 7750 d1bd
00000360: 8459 af3d 697b 93bd 1bbc d5bd a276 a0bc
00000370: 9de1 e73d a5c0 6bbc 288d 0a3c 7e39 cd3d
00000380: 7951 9f3d 9489 143e 8721 de3d 9cc6 c93c
00000390: 2070 9abd acf4 203e ce31 16be 7457 a5bb
000003a0: 76e8 30bb f650 c93d 805e f0bd 14fc b23d
000003b0: 69b5 993d 1ac2 2839 03fe c6bd f9f5 fd3c
000003c0: 110d 69bd 247f 82bd eebc 863d fd4c 9ebd
000003d0: 312e da3d 4652 f03d a0e3 513d a8b5 e6bd
000003e0: e6a3 14be 69f8 b13d a02d 363d 1037 ff3d
000003f0: 475b d73d debd 58be 317a 483d 51ae 8b3d

bias f4 [10]
-0.10304562 0.009017695 -0.036991972 0.08498505 0.035427775 0.00040658348 0.064626604 0.06960498
0.014434327 0.06408245
00000000: 9509 d3bd f4be 133c e584 17bd a40c ae3d
00000010: b71c 113d b62a d539 f45a 843d 0e8d 8e3d
00000020: f57d 6c3c a93d 833d
