p27model_4.pth (torch, 588587 bytes, 10 tensors)

weight f4 [32, 3, 5, 5]
0	0x3bdb7618	0.0066974275
1	0x3e270d7c	0.16313738
2	0x3d414d86	0.047193073
3	0x3e044e2b	0.12920444
4	0x3e04583e	0.12924287
5	0x3d0a324d	0.033739377
6	0x3d5f2a9c	0.054483995
7	0xbc8baa95	-0.017049113
8	0x3d74d7cf	0.059776124
9	0x3dcbb458	0.09946507
10	0x3c96c144	0.018402703
11	0xbd836cde	-0.06417249
12	0xbdc8fe7b	-0.09814163
13	0xbdbdbe3e	-0.092648014
14	0x3d67a2e6	0.056551836
15	0x3d740574	0.059575513
16	0x3d720ad3	0.059092354
17	0x3cf454a8	0.029825523
18	0x3de3b39b	0.111182414
19	0x3d09b9ec	0.033624575
20	0xbddc463a	-0.10755582
21	0x3cc8afb4	0.024497844
22	0x3d03cf41	0.032180075
23	0x3d93c13e	0.072145924
24	0x3d8d8223	0.06909587
25	0xbcb022a5	-0.021500895
26	0xbdc18c40	-0.09450579
27	0x3c7385b7	0.014863423
28	0x3d50ee51	0.051008526
29	0xbd5ae20a	-0.053438224
30	0x3d7e1be6	0.062038325
31	0x3d869285	0.06570915
32	0x3d21e46c	0.03952448
33	0xbdb697d2	-0.08915676
34	0x3bac1bdf	0.005252346
35	0xbd8035b5	-0.06260244
36	0xbd855841	-0.06510974
37	0xbe2429ce	-0.16031572
38	0xbdfc83ff	-0.12329864
39	0xbd2a23e4	-0.041538134
40	0xbc51d0a8	-0.012806095
41	0xbdb3d33b	-0.087805234
42	0xbe0042e7	-0.12525521
43	0xbd46481e	-0.04840862
44	0xbd8c986f	-0.06865012
45	0xbdcf82fc	-0.10132405
46	0xbdc7b709	-0.09751708
47	0xbe1a5b79	-0.15073957
48	0x3c7ab95b	0.015302981
49	0x3d374b07	0.044749286
50	0xbd18cb7d	-0.037303437
51	0x3df3f652	0.11912216
52	0xbd87f9a3	-0.06639411
53	0x3bb14e60	0.0054109544
54	0x3d477e8b	0.048704665
55	0xbda07c41	-0.078361996
56	0x3c8a8c71	0.01691267
57	0x3e126356	0.14295706
58	0x3c86edfa	0.016470898
59	0x3d918e46	0.07107215
60	0x3ddde86f	0.10835349
61	0xbc7d7059	-0.01546868
62	0xbdf847b0	-0.12123048
63	0xbdba6f8d	-0.09103308
64	0xbcde977e	-0.027171846
65	0x3d10d86b	0.035362642
66	0x3dabb107	0.08383375
67	0x3d727865	0.05919685
68	0x3dee65da	0.116405204
69	0x3d2153df	0.039386626
70	0x3bd00873	0.0063486635
71	0xbddaf839	-0.10691876
72	0x3db84856	0.08998172
73	0x3d8e20ff	0.06939887
74	0x3df3de6e	0.119076595
75	0x3cf27034	0.029594518
76	0xbc9b6c66	-0.018972587
77	0xbce103f5	-0.027467707
78	0xbd6f0629	-0.058355484
79	0x3d7004d1	0.058598343
80	0x3e0a1561	0.13484718
81	0x3c90b1a3	0.017662829
82	0xbdb00838	-0.085953176
83	0xbda39d43	-0.0798898
84	0x3d6caae9	0.05778018
85	0x3cb5994f	0.02216783
86	0x3dd8fcf0	0.10595119
87	0xbdf72d3b	-0.12069174
88	0x3dd0278b	0.10163792
89	0x3dbc56bf	0.09196233
90	0xbc9887c5	-0.018619427
91	0x3e1b9ce7	0.15196572
92	0x3cee7c0e	0.029111888
93	0x399d6408	0.00030019903
94	0x3de6e9cc	0.11275062
95	0x3d06d0a3	0.032913815
96	0x3dd5a5db	0.10432025
97	0x3de11065	0.10989455
98	0xbcb9ae89	-0.022666233
99	0xbd4e8f9f	-0.050429936
100	0x3ddb53bc	0.107093304
101	0xbdf5e1cb	-0.12005957
102	0xbd024ba7	-0.03181043
103	0x3caf5992	0.021405015
104	0xbbb1fbb7	-0.005431618
105	0x3dce8494	0.10083881
106	0x3bb58d97	0.0055405605
107	0xbdc39023	-0.09548976
108	0xbd98faea	-0.07469733
109	0xbddd3180	-0.10800457
110	0x3d71b386	0.059009098
111	0x3da67ca6	0.081292436
112	0xbd9dd4c0	-0.077065945
113	0xbe0abcc4	-0.13548571
114	0x3d4fec06	0.0507622
115	0xbd1cab04	-0.03824903
116	0xbd143197	-0.036180105
117	0x3c85bca1	0.016325297
118	0x3de23232	0.1104473
119	0x3e0f05d2	0.13967064
120	0xbd89451d	-0.067026354
121	0xbd3287be	-0.043586485
122	0x3dc4891c	0.09596464
123	0x3d2c5f14	0.04208286
124	0x3dca3f52	0.09875359
125	0x3d95400e	0.07287608
126	0xbe126fe6	-0.14300498
127	0xbd96051e	-0.07325195
128	0xbdc27777	-0.09495442
129	0xbdb107fe	-0.086441025
130	0x3df85a93	0.12126651
131	0xbdcfe8dc	-0.10151836
132	0xbd0ddb7d	-0.03463315
133	0xbe083042	-0.13299659
134	0x3cf390ab	0.029732069
135	0x3d74903b	0.05970786
136	0x3d3866f8	0.045020074
137	0xbe2c6706	-0.16836175
138	0xbc94af46	-0.018149983
139	0x3d920db8	0.07131523
140	0xbdc2c915	-0.095110096
141	0x3d9bebf7	0.07613366
142	0xbd5af49f	-0.053455945
143	0xbddd8311	-0.108160146
144	0x3d9567c0	0.07295179
145	0xbd1c7e41	-0.038206343
146	0x3d558576	0.05212923
147	0x3d63e40d	0.055637408
148	0xbdee5c52	-0.116387025
149	0xbdc7cc36	-0.09755747
150	0xbe125e89	-0.14293875
151	0xbe029f7e	-0.12756154
152	0xbd350090	-0.04418999
153	0x3c906cea	0.01763006
154	0x3c80617a	0.01567148
155	0x3db192a4	0.086705476
156	0xbd3eda8a	-0.046595134
157	0xbde3a53d	-0.11115501
158	0x3d11691e	0.03550064
159	0xbdd1330a	-0.10214813
160	0x3d29c41b	0.041446786
161	0xbd918f47	-0.07107406
162	0x3dd19114	0.102327496
163	0x3d1f2cf9	0.03886125
164	0xbdfdd73f	-0.123945706
165	0xbd8d811f	-0.069093935
166	0x3de0ffb3	0.10986271
167	0x3e09e4b6	0.13466153
168	0xbd77cc0c	-0.06049733
169	0x3dad43a7	0.08460169
170	0xbc29fd66	-0.010375356
171	0x3d5a5ade	0.053309314
172	0x3df5bd28	0.11998969
173	0x3cccd029	0.025001602
174	0xbd90c25b	-0.0706832
175	0xbc320746	-0.010865992
176	0xbd72399e	-0.05913698
177	0xbcb0f368	-0.02160044
178	0x3cbf4900	0.023350239
179	0xbd3bfa3a	-0.04589293
180	0x3da6d8e5	0.08146838
181	0xbda3ae74	-0.07992259
182	0xbd33c133	-0.04388542
183	0x3d197961	0.03746927
184	0xbd99925c	-0.07498619
185	0x3dc73cb8	0.09728378
186	0x3d4a13ee	0.049335413
187	0xbd6c8544	-0.05774428
188	0xbc5f8219	-0.013641858
189	0x3d012d0c	0.0315371
190	0xbdb41968	-0.08793908
191	0xbd9de7c1	-0.07710219
192	0xbc8f0000	-0.017456055
193	0x3e029cef	0.12755178
194	0xbd0f2085	-0.034943122
195	0x3dc8c23c	0.09802672
196	0x3d25a968	0.04044476
197	0xbc0149ba	-0.007891113
198	0xbd726398	-0.05917701
199	0x3d07f847	0.03319576
200	0xbe072468	-0.13197482
201	0xbc2c53e0	-0.010518044
202	0x3d8ea8f4	0.06965819
203	0x3d2be867	0.041969683
204	0xbd93fc58	-0.07225865
205	0xbdd6f3e5	-0.10495738
206	0x3d9afcbc	0.075677365
207	0x3d8bfc0d	0.06835184
208	0xbc06358b	-0.008191477
209	0xbdcd30e7	-0.10019093
210	0x3bc09373	0.0058769523
211	0x3d2ed442	0.042682894
212	0xbd081768	-0.033225447
213	0xbc7ab4a9	-0.015301862
214	0xbdbc42b2	-0.091924086
215	0x3da423ab	0.080146156
216	0x3e00fc7c	0.12596315
217	0x3d761cdd	0.06008612
218	0xbdadaf9f	-0.08480763
219	0x3d25c780	0.04047346
220	0x3dfb062d	0.12257037
221	0x3d4ebe25	0.050474305
222	0x3c413561	0.011792512
223	0x3dd828bc	0.105546445
224	0x3ca9200c	0.020645164
225	0x3db4b9f0	0.08824527
226	0x3e10ce2c	0.14141148
227	0xbdba7520	-0.09104371
228	0x3dce3ab1	0.10069788
229	0xbd64d9a7	-0.055871632
230	0x3d258184	0.04040672
231	0x3de4df1d	0.11175368
232	0x3e17d1a5	0.14826067
233	0xbd3a3e27	-0.04546943
234	0xbbaccf26	-0.0052737175
235	0xbc22466d	-0.009904486
236	0x3e0213ee	0.12702915
237	0xbd2a1da7	-0.041532185
238	0xbdf48ec1	-0.11941291
239	0xbdd8a03a	-0.10577436
240	0x3dd1dd80	0.10247326
241	0x3dde4a8c	0.108540624
242	0x3de8ddab	0.11370405
243	0xbd0e361f	-0.034719583
244	0xbd4aca4d	-0.049509335
245	0x3da5fdeb	0.08105072
246	0x3e07c3e9	0.13258328
247	0xbd5a320c	-0.053270385
248	0xbe1d5778	-0.15365398
249	0xbad05049	-0.0015893067
250	0x3da499be	0.080371365
251	0x3dd3e109	0.103456564
252	0xbd3297d2	-0.04360182
253	0x3d3ac304	0.045596138
254	0xbcbfaa59	-0.023396658
255	0xbdd10976	-0.10206883

bias f4 [32]
0	0xbddf200c	-0.10894784
1	0x3dc8a605	0.09797291
2	0xbbf44fb7	-0.007455792
3	0x3ddcfc4f	0.107903115
4	0x3df70172	0.120608225
5	0xbd5adf29	-0.05343548
6	0xbbac5a5d	-0.0052597956
7	0x3e071625	0.13192041
8	0xbe8b0fae	-0.271604
9	0xbcd39468	-0.025827602
10	0xbc136f8e	-0.008998765
11	0xbc8c0d37	-0.017096145
12	0x3c2ba713	0.010476845
13	0xbe6dc9a3	-0.2322145
14	0xbc49949c	-0.012303498
15	0x3d8eb95c	0.06968948
16	0xbdfeb7a1	-0.12437368
17	0xbd99271a	-0.07478161
18	0xbe432556	-0.19057211
19	0x3ce15b86	0.027509462
20	0x3d64c574	0.05585237
21	0xbe696251	-0.22791411
22	0xba841ad7	-0.00100788
23	0xbe03cda1	-0.1287141
24	0xbdbb10df	-0.09134077
25	0xbe37b57e	-0.17940328
26	0x3bb6e7b9	0.0055818227
27	0xbcb70639	-0.022341834
28	0xbe082e05	-0.13298805
29	0x3df8fd2d	0.121576644
30	0xbe257e3a	-0.16161433
31	0xbdf5af43	-0.11996319

weight f4 [32, 32, 5, 5]
0	0x3b83dde6	0.004024255
1	0x3d0451e5	0.032304663
2	0x3c17648b	0.00924028
3	0xbce2a1cb	-0.02766504
4	0x3d1852b2	0.03718824
5	0x3cd4255d	0.025896722
6	0x3cbd49a4	0.023106404
7	0x3c86f895	0.016475955
8	0xbcb4c8de	-0.022068437
9	0x3d046314	0.03232105
10	0x3c594145	0.01326019
11	0x3ceb142b	0.02869614
12	0xbbeb0e26	-0.0071733175
13	0xbbb053dc	-0.0053810906
14	0x3c9108bf	0.017704366
15	0x3c1b0670	0.009461984
16	0xbc7cc83c	-0.015428599
17	0xbbbdac52	-0.0057883644
18	0x3cfc1fc7	0.030776871
19	0x3d158268	0.03650132
20	0x3afe63f4	0.001940845
21	0xbc93e4c4	-0.01805342
22	0xbcd97ca1	-0.026548686
23	0xbc3594c0	-0.011082828
24	0x3c8f9971	0.017529221
25	0x3d4152b0	0.047197998
26	0xbc6dd7f0	-0.014516816
27	0x3bb068ae	0.0053835725
28	0x3c3bc86e	0.01146136
29	0x3c8060fa	0.015671242
30	0x3c84f536	0.016230207
31	0x3c92ee1d	0.017935807
32	0x3d32f42e	0.0436899
33	0x3c1b8e9f	0.009494453
34	0x3d4ded52	0.050275154
35	0x3d314234	0.043276027
36	0x3d4af271	0.049547616
37	0x3c3a8b3f	0.011385738
38	0x3c85fa26	0.016354632
39	0xbb6228b2	-0.003450912
40	0xbad0dd16	-0.0015935029
41	0x3ce66e37	0.028128726
42	0xbab5f738	-0.0013882881
43	0xbc6b87bb	-0.014375622
44	0xbb85dce3	-0.0040851696
45	0x3d135e7c	0.03597878
46	0xbbc3f767	-0.0059804204
47	0x3c63f29d	0.013912824
48	0x3c993264	0.018700786
49	0x3ccb462c	0.024813734
50	0xbcbbfa16	-0.022946399
51	0xbca16730	-0.019702524
52	0x3b956c2b	0.004560014
53	0x3cf90d9e	0.030402001
54	0xbc82bd42	-0.015959386
55	0xbc494007	-0.012283332
56	0xbb7fd6ff	-0.003903806
57	0x3b30fb8d	0.0027005405
58	0x3b3f2976	0.0029169
59	0x3c6a8ffe	0.014316557
60	0x3a6c09d1	0.00090041483
61	0x3d160ba8	0.03663221
62	0x3bb108e5	0.0054026716
63	0xbba89612	-0.005144843
64	0x3b23a526	0.0024970262
65	0x3c80d6e9	0.015727477
66	0x3d1e9a68	0.038721472
67	0x3c9dd9b7	0.019268854
68	0x3cd10fe6	0.025520276
69	0xbc60addd	-0.013713327
70	0x3d1e692b	0.038674515
71	0xbc612bea	-0.01374338
72	0x3d09cad9	0.033640716
73	0x3d356ce2	0.044293292
74	0xbc17f69f	-0.009275108
75	0x3cff0ab3	0.031133031
76	0x3d3025cc	0.043004796
77	0xbb21964d	-0.0024656237
78	0x3a949a40	0.0011337474
79	0x3cd6317a	0.02614664
80	0x3d06b660	0.03288877
81	0x3ccf3fce	0.02529898
82	0x3d490c62	0.049084075
83	0xbc729f89	-0.014808544
84	0x3cc2c683	0.023776298
85	0x3d3b2c0b	0.0456963
86	0x3ca22da0	0.019797146
87	0x3c1d8d03	0.009616139
88	0x3d377e8c	0.04479842
89	0x3d523e04	0.051328674
90	0x3d5ffe65	0.05468597
91	0x3ccb09d8	0.024784967
92	0x3cc716b8	0.024302825
93	0x3baa0d6e	0.005189589
94	0x3d2190cd	0.039444733
95	0x3d016b24	0.031596318
96	0x3c77c560	0.015122741
97	0x3d39090f	0.045174655
98	0x3d2d1873	0.042259645
99	0xbcb9a7c8	-0.022663012
100	0x3bd8e005	0.006618502
101	0x3c6c4a26	0.014421975
102	0x3c8eb4c9	0.01742019
103	0x3cfef7ba	0.031123985
104	0x3ce3269a	0.027728368
105	0xbc8ea037	-0.01741038
106	0x3cb6bc87	0.022306694
107	0xbc9d2af0	-0.019185513
108	0x3d0ce551	0.03439838
109	0xbcb48756	-0.02203719
110	0x39f90dc4	0.00047503237
111	0xbad565ae	-0.0016280913
112	0x3d26eccb	0.040753167
113	0x3c2800ec	0.010254126
114	0xbc50853a	-0.012727076
115	0x3c801cc0	0.015638709
116	0x3c92706d	0.017875874
117	0x3cd241d7	0.02566616
118	0x3c0366e5	0.008020137
119	0x3cb66716	0.022265952
120	0xbce63f4a	-0.02810635
121	0xbc5c47d9	-0.013444864
122	0xbc3438d9	-0.010999882
123	0x3c412030	0.011787459
124	0x3ce62257	0.028092546
125	0x3d4a2f20	0.04936135
126	0xbbcbe3fe	-0.006222247
127	0xbb5d2110	-0.003374163
128	0xbba83b0b	-0.0051339916
129	0xbb6b6dfb	-0.0035923708
130	0x3d2ae333	0.04172058
131	0xbc6d7268	-0.014492609
132	0x3d1834e2	0.037159808
133	0x3b807343	0.0039199903
134	0x3b50327c	0.0031768372
135	0xbafc03a0	-0.0019227155
136	0x3c0419f6	0.00806283
137	0x3d1b748e	0.037952952
138	0xbc7e3cb4	-0.015517402
139	0x3c8d8b30	0.017278284
140	0xbcbc7758	-0.023006126
141	0xb9ec12d1	-0.00045027447
142	0xbc68ec07	-0.01421643
143	0x3ca50350	0.020143181
144	0x3d1a1406	0.037616752
145	0x3cdaa079	0.026687847
146	0x3b597eb9	0.0033187105
147	0x3bbe484d	0.005806959
148	0x3d28b2e1	0.041186217
149	0x3cb7b5c3	0.022425538
150	0xbbf15709	-0.0073651117
151	0x3d19cd73	0.037549447
152	0x3d0bea04	0.03415872
153	0x3cb0fb72	0.021604273
154	0xbc6ae7b3	-0.014337468
155	0x3ce6ad07	0.028158678
156	0xbc66b7cc	-0.0140819065
157	0x3d23c8c3	0.039986383
158	0x3d1781db	0.036989074
159	0x3d20ff16	0.03930577
160	0x3a83c05b	0.0010051833
161	0xbcb361c8	-0.021897212
162	0x3a703365	0.0009162932
163	0xbcd9f2e1	-0.026605071
164	0xbcc2188c	-0.023693345
165	0x3d10847b	0.035282593
166	0x3cfe9008	0.031074539
167	0x3ce6236c	0.028093062
168	0x3c8d443a	0.017244447
169	0x3cdabd76	0.02670167
170	0x3cdc6f0e	0.026908424
171	0x3bfea6f5	0.0077713677
172	0x3c309f7c	0.010780212
173	0x3d334013	0.043762278
174	0x3cc237f2	0.023708317
175	0xbbad5643	-0.005289824
176	0xbb3edcf5	-0.00291234
177	0x3cb1849a	0.021669675
178	0x3d2308a8	0.039803177
179	0x3d10d587	0.035359886
180	0x3cdaad13	0.026693856
181	0xbc036b24	-0.00802115
182	0xbb82c4ee	-0.003990761
183	0x3c78dbfb	0.015189166
184	0x3bf50cf9	0.007478353
185	0x3cd01c74	0.025404193
186	0x3d266f23	0.040633332
187	0x3d091fef	0.03347772
188	0x3cdb9035	0.026802162
189	0x3cf43c0e	0.029813793
190	0x3bbd0bc8	0.0057692267
191	0xbcae61e6	-0.021286916
192	0x3cadb87b	0.021206131
193	0x3c8c41fd	0.01712131
194	0x3d512186	0.05105736
195	0xbcc13976	-0.02358697
196	0xbcfe5972	-0.03104851
197	0x3cae0054	0.02124039
198	0x3d1e3e1d	0.038633455
199	0x3c660030	0.014038131
200	0x3c9b4e74	0.018958308
201	0x3cc3d89c	0.023906998
202	0x3cb04fb1	0.021522375
203	0x3bbf402d	0.005836508
204	0x3d02e0b3	0.03195257
205	0xbd065122	-0.032792218
206	0xbc4b8e48	-0.012424059
207	0xbccdbb59	-0.025113748
208	0xbc1b800e	-0.00949098
209	0x3cbd8b4d	0.023137713
210	0xbbdab844	-0.006674798
211	0xbcadd24f	-0.021218447
212	0x3bac9c52	0.0052676583
213	0xbd31a55c	-0.04337059
214	0x3d05d8a1	0.032677297
215	0x3cb86eff	0.022513865
216	0xbc3080aa	-0.010772863
217	0xbd21b834	-0.03948231
218	0xbcc849ed	-0.024449313
219	0xbbfd6ee6	-0.0077341674
220	0xbc7010bd	-0.014652428
221	0xbb7daf0a	-0.0038709068
222	0xbd0b6b38	-0.0340378
223	0xbbe84a2a	-0.007088919
224	0x3cd04aee	0.025426354
225	0xbaf29779	-0.0018508277
226	0x3bfa7305	0.007643106
227	0x3c7d4806	0.015459066
228	0x3cabeecc	0.02098789
229	0xbcfbb38b	-0.030725261
230	0x3c86ae2a	0.01644047
231	0x3c04acb1	0.008097813
232	0x3d072cc8	0.03300169
233	0x3ced2b2a	0.028951246
234	0xbc439cf1	-0.011939273
235	0xbc93b827	-0.018032147
236	0x3c784d16	0.0151550975
237	0x3ce5a0e3	0.028030818
238	0x3d4340d2	0.04766924
239	0x3cb2855a	0.021792103
240	0xbc080df8	-0.008304112
241	0xbc619448	-0.013768263
242	0x3b745200	0.003728032
243	0x3d06ba8c	0.03289275
244	0x3c5b6e85	0.013393049
245	0xbcc995b9	-0.024607526
246	0xbcfea8ed	-0.03108641
247	0xbc07b9a6	-0.008284008
248	0xbc7a3cd2	-0.01527329
249	0xbb54e8ab	-0.0032487314
250	0x3ca3c5ec	0.019991837
251	0x3c49ff17	0.012328885
252	0x3c96b20c	0.018395446
253	0xbc4734b1	-0.012158559
254	0xbbe1430e	-0.0068744486
255	0x3cf059df	0.029339729

bias f4 [32]
0	0x3ca85edc	0.020553045
1	0xbd451e53	-0.048124623
2	0xbdbb5277	-0.09146588
3	0x3bb4c3a8	0.005516488
4	0x3b09fc1a	0.0021054805
5	0x3d1492ce	0.036272816
6	0x3cad1ef1	0.021132918
7	0xbd4d2e92	-0.05009324
8	0xbd71bd9e	-0.059018724
9	0x3d8a24b0	0.06745279
10	0x3cbdb392	0.023156915
11	0xbc3b3627	-0.011426485
12	0x3c6d283b	0.014474924
13	0xbcc4da74	-0.024029948
14	0xbbed6282	-0.007244409
15	0xbc0bc10c	-0.008529913
16	0x3a9e3d11	0.0012072643
17	0xbd94f42b	-0.07273134
18	0x3d6f59d1	0.058435265
19	0xbd5f1f8e	-0.054473452
20	0x3c3aefe0	0.01140973
21	0xbd141e46	-0.036161683
22	0xbc00d994	-0.007864375
23	0x3d710db6	0.058850966
24	0x3d079688	0.033102542
25	0xbca9ff22	-0.02075154
26	0xbadc4eb2	-0.0016808121
27	0xbdbd8644	-0.09254125
28	0xbaf74898	-0.0018866239
29	0xbca1d365	-0.019754121
30	0x3b7d94bc	0.003869339
31	0xbd0c6b6b	-0.03428213

weight f4 [64, 32, 5, 5]
0	0xbc22058c	-0.009889018
1	0x3c67fcd7	0.014159403
2	0xbbabe333	-0.00524559
3	0xbcee20dc	-0.029068403
4	0xbcdf08e3	-0.027225917
5	0xbce73364	-0.028222747
6	0x3c86d255	0.016457716
7	0xbc84b157	-0.016197843
8	0xbd0cb101	-0.03434849
9	0x3c7758e3	0.015096876
10	0xbc90237a	-0.017595042
11	0xbc7e0f2c	-0.015506547
12	0x3ce5496e	0.027989116
13	0xbb8fd369	-0.0043892157
14	0x3c9e4a7d	0.019322628
15	0xbb449043	-0.0029993213
16	0x3cf72112	0.030167136
17	0xbd07a00d	-0.03311162
18	0xbd01e3e2	-0.031711467
19	0x3ad601b4	0.0016327412
20	0xbcf20db0	-0.029547542
21	0xbc55b7e1	-0.013044328
22	0x3c720364	0.014771316
23	0xbd09a14c	-0.03360109
24	0x3caf6a6d	0.021413052
25	0xbcd8b890	-0.026455194
26	0xba856824	-0.0010178131
27	0xbcc65d8c	-0.024214529
28	0x3c0702f3	0.008240449
29	0xbac6ab95	-0.0015157337
30	0x3c02ddcc	0.007987451
31	0xbc3968ce	-0.011316491
32	0xbbb7696b	-0.0055972836
33	0xbcfae796	-0.030628007
34	0xbd0f3b9e	-0.034968965
35	0x3c9c6a75	0.019093731
36	0xbcdffbaa	-0.027341682
37	0x3c7acb01	0.015307189
38	0x3c05c9fb	0.008165832
39	0xbcc53d2b	-0.024077019
40	0xbcd8b983	-0.026455646
41	0x3d4317f1	0.047630254
42	0x3d37c401	0.04486466
43	0xbc40281e	-0.011728315
44	0x3cc4ddb4	0.024031498
45	0x3c9e220f	0.01930335
46	0xbcfb726f	-0.030694215
47	0xbc43841d	-0.011933354
48	0x3d01fbf9	0.03173444
49	0xbcf10b00	-0.02942419
50	0xbaad67ce	-0.0013229789
51	0xb9611894	-0.00021466828
52	0x3c54889a	0.0129720215
53	0x3cabe652	0.020983849
54	0xbd2daf6a	-0.042403616
55	0xbd466d93	-0.048444342
56	0xbcbe062d	-0.023196304
57	0x3cccba27	0.024991108
58	0x3c1d46ab	0.009599368
59	0xbd106147	-0.03524902
60	0xbcc4f8b6	-0.024044376
61	0x3c8c3080	0.01711297
62	0x3d391620	0.045187116
63	0x3c8fd016	0.017555278
64	0xbcdddad2	-0.02708188
65	0x3c66a516	0.0140774455
66	0xbd1461b5	-0.036225993
67	0x3b92c0e3	0.0044785603
68	0xbc5452fd	-0.012959239
69	0xbd49bb2b	-0.049250763
70	0x3ced03bf	0.02893245
71	0x3c856a03	0.016285902
72	0x3d2e268c	0.04251723
73	0x3a30acb9	0.0006739605
74	0x3c72168a	0.014775882
75	0xbd0b81a1	-0.03405917
76	0xbaabd7b9	-0.0013110555
77	0xbcc74569	-0.02432509
78	0x3baddc7d	0.0053058253
79	0xbd0ff3b9	-0.03514454
80	0x3c71f0e9	0.01476691
81	0xbb36b57f	-0.0027879176
82	0xbcf899b1	-0.030346723
83	0xbd17aec2	-0.037031896
84	0xbae4b1c3	-0.0017447997
85	0x3c3aba97	0.011397026
86	0x3ba32d6f	0.0049797813
87	0xbb3f2b9a	-0.0029170276
88	0x3c096187	0.008385069
89	0xbb6f4c8e	-0.0036514136
90	0x3c900389	0.01757981
91	0xbcc26094	-0.023727693
92	0xbc61040c	-0.013733875
93	0x3c93790f	0.018002061
94	0x3cb2552a	0.021769125
95	0x3cc81db5	0.024428228
96	0x3c869e71	0.016432973
97	0xbaac7c74	-0.0013159649
98	0xbc4c112e	-0.012455268
99	0x3c991f06	0.018691551
100	0x3ab16950	0.0013535414
101	0xbbe68e7c	-0.0070360284
102	0x3ccea387	0.02522446
103	0xbccb3cf0	-0.02480933
104	0x3cc0d84b	0.023540637
105	0xbd5ab305	-0.053393383
106	0x3b794932	0.0038038013
107	0x3cc17406	0.023614895
108	0xbd090ad7	-0.033457603
109	0xbaf6ae03	-0.001882017
110	0x3cacf3fe	0.021112438
111	0x3d288175	0.041139085
112	0x3d41a03c	0.047271952
113	0x3d37f551	0.044911686
114	0x3d1f9ab3	0.038965892
115	0x3c8ef781	0.017452003
116	0xbcf4f783	-0.029903179
117	0xbd13db26	-0.036097668
118	0x3c2a6dca	0.010402152
119	0xbceb1ab5	-0.028699258
120	0xbcc6214e	-0.024185803
121	0xbca8ce8e	-0.020606305
122	0xbcdead64	-0.027182288
123	0x3ce4b3d5	0.027917782
124	0x3c93f07c	0.018059008
125	0xbc4229e8	-0.011850812
126	0xbbcaf4a9	-0.0061937165
127	0xbd036da5	-0.032086987
128	0xbb79b880	-0.0038104355
129	0x39f709ea	0.00047118898
130	0x3bacd13c	0.005273966
131	0xbd06f6ba	-0.03295014
132	0x3cad9b84	0.02119232
133	0x3c9dcac2	0.019261722
134	0xbd0c90bb	-0.034317713
135	0xbb000cd8	-0.0019538905
136	0x3c7d5a6d	0.015463454
137	0xbcd61a31	-0.026135536
138	0x3cd41d69	0.02589293
139	0x3bfe5e04	0.0077626724
140	0x3cea5dfa	0.028609265
141	0x3b57afd2	0.0032911194
142	0x3d22b42c	0.039722607
143	0x3cc31f49	0.023818629
144	0x3b8068f6	0.0039187623
145	0x3c943d91	0.018095763
146	0xbc1af4df	-0.009457796
147	0xbd025933	-0.03182335
148	0xbcee8e96	-0.029120725
149	0x3ca3f9d2	0.020016585
150	0x3ca89960	0.020580947
151	0xbb9b147e	-0.0047326675
152	0xbcb82bb4	-0.022481777
153	0x3cdf04e9	0.027224021
154	0xbb742885	-0.0037255597
155	0x3b918681	0.004441083
156	0x3c8b825d	0.017029935
157	0x3d014ef6	0.031569444
158	0x3b1c951b	0.0023892585
159	0xbc44b697	-0.012006423
160	0x3ca0aedb	0.019614628
161	0xbd034f87	-0.032058265
162	0xbcb456d3	-0.022014057
163	0xbc6d5ed5	-0.014487942
164	0xbc640b53	-0.0139187155
165	0xbd22f3be	-0.039783232
166	0xbbba8579	-0.0056921807
167	0xbcaab4e2	-0.020838205
168	0xbcfeac74	-0.031088091
169	0x39c13204	0.00036849093
170	0x3c359d01	0.011084796
171	0xbc30677f	-0.010766863
172	0x3c8be516	0.01707701
173	0x3d003679	0.03130195
174	0xbd0f7674	-0.035025075
175	0xbc3ac8e3	-0.011400434
176	0x3c649ce1	0.0139534185
177	0xbc4f0db0	-0.012637541
178	0xbd0239f5	-0.031793553
179	0xbbcc145e	-0.006228014
180	0x3c88b198	0.016686246
181	0x3c20f6b7	0.009824446
182	0x3c6ad2ea	0.014332512
183	0x3cc8ffe0	0.024536073
184	0xbd119f9e	-0.035552613
185	0x3cc74648	0.024325505
186	0x3c9455c8	0.01810731
187	0x3cf6e73d	0.03013956
188	0x3ccead50	0.025229126
189	0xbd27b8fe	-0.040947907
190	0xbd21fa48	-0.039545327
191	0xbc549199	-0.012974166
192	0xbca45769	-0.020061212
193	0x3c337800	0.010953903
194	0xbbc0a76e	-0.005879334
195	0xbc1e8b7a	-0.0096768085
196	0x3a818560	0.0009881668
197	0x3d1c506f	0.038162645
198	0xbc6c908e	-0.014438761
199	0xbc861154	-0.016365685
200	0xbcfbab14	-0.030721225
201	0x3c2462ab	0.01003329
202	0xbd0b234d	-0.033969212
203	0xbcaa58bb	-0.020794263
204	0x3cb796c9	0.022410767
205	0xbcfa42ea	-0.030549485
206	0x3c9ac973	0.018894887
207	0x3c1208d0	0.008913234
208	0x3c38c9bb	0.011278565
209	0xbc05b7c2	-0.008161487
210	0x3c34c962	0.0110343415
211	0x3ca69c3d	0.020338172
212	0x3ccc8328	0.024964884
213	0x3ca4f408	0.020135894
214	0xbba47faa	-0.0050201016
215	0xbcff2391	-0.03114489
216	0xbd11380f	-0.035453852
217	0x3c8e138f	0.01734331
218	0x3cee48a0	0.029087365
219	0xbcfdc3c1	-0.030977132
220	0xbc010d31	-0.00787668
221	0xbbaa8a1a	-0.0052044513
222	0xbcafbbf6	-0.021451931
223	0xbc8801b8	-0.016602382
224	0x3b776fc9	0.0037755838
225	0xbcbc8922	-0.023014609
226	0xbceac7ff	-0.028659819
227	0xbcf03273	-0.029320931
228	0xbc66f185	-0.014095669
229	0xbc8b0b57	-0.01697318
230	0xbd02a355	-0.031894047
231	0xba62e3ca	-0.0008655159
232	0xbbd10f9d	-0.006380035
233	0x3cba8f7a	0.022773493
234	0x3cb1f930	0.021725267
235	0xbd18528b	-0.037188094
236	0xbcf3718c	-0.02971723
237	0x3cad1141	0.021126391
238	0x3c5c50b6	0.013446977
239	0x3babfe95	0.0052488544
240	0xbcf336e0	-0.029689252
241	0x3ccb7715	0.024837056
242	0x3cb9b4c5	0.022669205
243	0x3ccc0230	0.024903387
244	0xbc1214a3	-0.008916053
245	0xbd1bc26d	-0.038027216
246	0xbc00311a	-0.007824207
247	0x3ca5d98a	0.020245332
248	0xbc0d488a	-0.008623252
249	0xbcdff40a	-0.027338047
250	0x3ca6b9bd	0.020352239
251	0x3ce2506e	0.027626242
252	0xbc32739e	-0.010891823
253	0xbc3f8487	-0.011689312
254	0x3c2c78e1	0.010526867
255	0xbbdf72e2	-0.006819115

bias f4 [64]
0	0xbbf00449	-0.0073247296
1	0xbc959afb	-0.018262377
2	0xbd0e59b8	-0.03475353
3	0xbd19c161	-0.037537936
4	0xbcc821b3	-0.024430132
5	0x3c898168	0.016785339
6	0x3ce90e55	0.028449217
7	0xbc20b06b	-0.009807686
8	0xb8a6d319	-7.954817e-05
9	0x3c837478	0.016046748
10	0xbce4e913	-0.02794317
11	0x3c8650b4	0.016395904
12	0xbccf6741	-0.02531779
13	0xbd2bd10a	-0.041947402
14	0xbd123ae3	-0.03570069
15	0x3d13d5ff	0.036092754
16	0xbcf9b8e2	-0.030483667
17	0xbd353e05	-0.0442486
18	0x3d06fbf2	0.032955118
19	0x3ccefd34	0.025267221
20	0xbbcd82be	-0.006271689
21	0xbbd882cf	-0.0066073905
22	0x3bbca997	0.0057575214
23	0xbc281483	-0.010258797
24	0x3d30e29a	0.043184854
25	0x3c806afc	0.015676014
26	0x3c208789	0.009797939
27	0xbcb2b60b	-0.02181532
28	0x3b5b2899	0.0033440946
29	0x3cec9cdb	0.028883388
30	0xbc8e7d31	-0.01739368
31	0xbc3b34ba	-0.011426145
32	0xbd82ead1	-0.06392444
33	0xbc7024ef	-0.014657243
34	0xbcf60b75	-0.03003476
35	0xbca28629	-0.019839363
36	0xbb9d7917	-0.004805695
37	0xbc0eb603	-0.008710387
38	0xbd1c65a1	-0.03818286
39	0x3c1c5f41	0.009544195
40	0xbd27cc8c	-0.040966555
41	0xbd1e603a	-0.038665988
42	0x3c6ccbd0	0.01445289
43	0x3c8917e1	0.01673502
44	0x3d3ffa0c	0.046869323
45	0xbca20858	-0.01977937
46	0x3c655c7d	0.013999102
47	0xbc63d0b4	-0.013904739
48	0xbca79359	-0.020456003
49	0xbcdd1c25	-0.02699096
50	0xbbd935c0	-0.006628722
51	0xbc49f31f	-0.012326031
52	0xbc87d4c2	-0.016580943
53	0x3d360c26	0.04444518
54	0xbcc61033	-0.024177646
55	0xbc79cb8e	-0.015246285
56	0x3a75b5d0	0.00093731005
57	0x3ccb1347	0.024789466
58	0xbd05a2ab	-0.032625835
59	0xbd0a7140	-0.03379941
60	0xba910287	-0.0011063375
61	0x3c43e24a	0.011955807
62	0xbb159ce0	-0.00228291
63	0xbd34144e	-0.043964677

weight f4 [64, 1024]
0	0xbca4e1fa	-0.020127285
1	0xbcfa483b	-0.03055202
2	0x3a1e6b65	0.0006043225
3	0xbcb97c22	-0.022642199
4	0x3c90d26f	0.017678468
5	0xbcaf7896	-0.021419805
6	0xbae2b795	-0.0017297143
7	0x3c7d3cd8	0.015456401
8	0x3c9fa8bb	0.019489637
9	0x3cb690eb	0.0222859
10	0xbd1cf664	-0.038320914
11	0xbbaeb694	-0.0053318236
12	0xbc8285d0	-0.015932947
13	0xbca7e0b5	-0.02049289
14	0xbc9649d9	-0.01834576
15	0xbcedfff5	-0.029052714
16	0x3c850715	0.016238729
17	0x3c23d651	0.0099998275
18	0x3c371d93	0.011176485
19	0x3cae1c9e	0.02125388
20	0x3ceb1b59	0.028699564
21	0x3b18526c	0.0023242487
22	0x3bbdbadc	0.0057900976
23	0x3c0323f9	0.008004182
24	0xbca7edcd	-0.020499134
25	0xbcb2e8a0	-0.02183944
26	0xbb8dc175	-0.0043260404
27	0xbc778b72	-0.01510893
28	0xbc6fb075	-0.014629473
29	0x3cee8273	0.029114937
30	0xbd0696a9	-0.032858524
31	0x3d307e45	0.04308917
32	0x3c88121e	0.016610201
33	0xbc9e7d45	-0.019346843
34	0x3c7e6ca8	0.015528835
35	0xbc7e5a41	-0.015524448
36	0xbba07080	-0.0048962235
37	0xbd020563	-0.03174342
38	0x3cd78bc5	0.026311764
39	0xbcc9a4b5	-0.024614671
40	0x3c0754a2	0.008259924
41	0x3cf41e4c	0.029799603
42	0x3b3d94aa	0.0028927722
43	0x3c8c2952	0.017109547
44	0xbc9880de	-0.018616136
45	0xbce6d22c	-0.02817639
46	0xbccce658	-0.02501218
47	0x3ce51149	0.027962344
48	0xbab3fd32	-0.0013732074
49	0x3cc6e173	0.024277424
50	0x3cd9487f	0.026523827
51	0x3c5fe7ff	0.013666152
52	0x3c3e6b3f	0.011622249
53	0xbcfa08d1	-0.030521782
54	0x3c522774	0.012826789
55	0x3c807cd4	0.015684523
56	0x3caff253	0.021477854
57	0xbbbf3306	-0.00583494
58	0xba8b42fd	-0.0010624822
59	0x3c48831f	0.012238293
60	0x3b9835f1	0.004645102
61	0x3c69fbf8	0.014281265
62	0xbcb5510a	-0.022133369
63	0x3d2cb4dd	0.042164672
64	0x3ccf734a	0.025323529
65	0xbba261ac	-0.004955491
66	0xb8f69752	-0.0001175838
67	0x3cfaec9c	0.030630402
68	0xbc6027f4	-0.013681401
69	0x3c317562	0.010831209
70	0x3ca81c65	0.020521352
71	0xbccbbba2	-0.024869744
72	0x3c93ca3e	0.018040773
73	0xbbb6ee47	-0.005582604
74	0xbd035143	-0.03205992
75	0xbcf69e6b	-0.030104836
76	0x3d057954	0.03258641
77	0xbcc83cf0	-0.02444312
78	0x3cafa50c	0.021441005
79	0xbcabed15	-0.020987073
80	0xbb1d4f38	-0.0024003517
81	0xbc207c99	-0.009795331
82	0xbb548d7a	-0.003243296
83	0xbccc098f	-0.024906902
84	0x3ce8ba26	0.028409075
85	0xbbbfc6f7	-0.005852576
86	0xbd06da8d	-0.03292327
87	0x3cb43962	0.022000019
88	0x3baeff34	0.005340481
89	0xbcdda36f	-0.02705547
90	0xbb2eea14	-0.0026689814
91	0x3d49c2d1	0.049258057
92	0x3d37d83a	0.044883944
93	0xbd1fc968	-0.039010435
94	0x3ccc0406	0.024904262
95	0x3c87304a	0.016502518
96	0xbc1a9145	-0.009434049
97	0xbceff364	-0.029290862
98	0xbcd207e3	-0.025638526
99	0xbd292a30	-0.0413
100	0xbca00061	-0.01953143
101	0x3c3a3604	0.011365417
102	0x3ccadf15	0.024764577
103	0xbbc8d8d1	-0.006129362
104	0x3c12dc8e	0.008963717
105	0x3b9a5df4	0.004710907
106	0xbc220e55	-0.009891112
107	0xbc76d5db	-0.015065636
108	0x3ccce54d	0.025011683
109	0xbc3e140d	-0.01160146
110	0xbbddacd0	-0.0067649856
111	0xbc214b5d	-0.009844628
112	0x3ca2faa9	0.019894915
113	0xbc9e0da3	-0.019293612
114	0xbaa7597e	-0.001276776
115	0x3d08b538	0.03337595
116	0x3b1f81cd	0.0024338842
117	0xbcb12c70	-0.021627635
118	0x3a59b7c2	0.0008305275
119	0xbd04bd3d	-0.032407034
120	0xba2733de	-0.0006378273
121	0xbd03120e	-0.03199964
122	0xbb86c4ae	-0.0041128015
123	0xbc5cb1c9	-0.013470122
124	0xbba11fb1	-0.004917108
125	0x3ca03d2e	0.019560423
126	0xbcb2034b	-0.021730086
127	0xbcd3dc83	-0.025861984
128	0xbc8dca30	-0.017308325
129	0x3954f6f0	0.00020309887
130	0xbc04496e	-0.008074148
131	0x3ce4fcf6	0.027952652
132	0x3c52f3e7	0.012875534
133	0x3c865d1b	0.016401818
134	0xbc860a0d	-0.016362214
135	0xbc5802df	-0.013184278
136	0xbc84b623	-0.01620013
137	0xbb184418	-0.0023233946
138	0xbc87d891	-0.01658276
139	0x3cd07311	0.025445493
140	0xbca99ce7	-0.0207047
141	0xbab763f7	-0.0013991584
142	0xbac6a8eb	-0.0015156543
143	0x3c16f511	0.009213702
144	0x3c685cab	0.01418225
145	0x3c002ac2	0.007822694
146	0xbcddce5d	-0.02707594
147	0x3c609b87	0.013708956
148	0xbca70aa9	-0.020390825
149	0x3ac57422	0.0015064518
150	0x3c5eb778	0.013593547
151	0x3d0d69db	0.03452478
152	0x3c1097a2	0.008825215
153	0x3d07012c	0.032960102
154	0x3ce7452b	0.028231224
155	0x3c13eddf	0.009028881
156	0xbb9fdb6e	-0.004878453
157	0xbca89e9a	-0.02058344
158	0x3bcf32df	0.006323203
159	0x3b9e9993	0.004840085
160	0xbc85c43d	-0.016328925
161	0x3c8539a4	0.016262837
162	0x3a8b7b6e	0.0010641643
163	0xbc5fa957	-0.013651214
164	0xbbdeec2e	-0.006803057
165	0x3d0dfbb1	0.03466386
166	0xbcec1b2d	-0.028821552
167	0x3ce7bd32	0.028288458
168	0xbb816c25	-0.0039496594
169	0x3d112e80	0.035444736
170	0xbb88ac75	-0.004170949
171	0x3cbf7ea0	0.02337581
172	0xbcc02e54	-0.023459591
173	0x3aa6d3f6	0.0012727964
174	0x3cf574b9	0.029962884
175	0x3d102e81	0.0352006
176	0x3cf45054	0.02982346
177	0x3cf07fa8	0.029357746
178	0xbc6f7526	-0.014615333
179	0xbd11a8c7	-0.03556135
180	0xbc73ee6f	-0.01488839
181	0x3d0a635f	0.033786174
182	0xbbf4d623	-0.007471816
183	0x3b5e9077	0.003396062
184	0x3cc737cb	0.024318596
185	0x3d020d49	0.03175095
186	0xbcbac16c	-0.022797309
187	0x3c3383bc	0.010956701
188	0x3c83e0df	0.016098438
189	0x3c983242	0.018578652
190	0xbc9c3186	-0.019066583
191	0xbcba2b2a	-0.02272566
192	0x3c17d5f8	0.009267323
193	0xbc131990	-0.008978263
194	0x3c74619e	0.014915852
195	0x3c2a094c	0.010378193
196	0x3c05a3be	0.008156715
197	0xbb89fe0f	-0.0042111943
198	0xbc208e25	-0.009799515
199	0xbc827deb	-0.015929183
200	0xbcc1a01b	-0.023635915
201	0x3c987717	0.018611474
202	0xbcbba8d2	-0.022907648
203	0x3d013bfc	0.031551346
204	0x3ce886d5	0.028384605
205	0x3a0fe0fe	0.00054885435
206	0xbc65eab8	-0.014033012
207	0x3c637238	0.013882212
208	0xbca40a7a	-0.020024527
209	0xbc74e692	-0.01494755
210	0x3b40a04e	0.0029392424
211	0x3d03458f	0.032048758
212	0xbc890f73	-0.016731
213	0x3d0bd7f7	0.034141507
214	0x3c0fb8f3	0.008772123
215	0xbd14cc9d	-0.036327947
216	0xbb890b3c	-0.0041822474
217	0xbd64391f	-0.055718537
218	0x3c57d5a1	0.013173492
219	0x3c316f24	0.010829721
220	0x3c916620	0.017748892
221	0xbba09ddb	-0.0049016303
222	0xbd1c8696	-0.03821429
223	0x3ca252a2	0.019814793
224	0x3cfa65f0	0.030566186
225	0x3ad3c2b0	0.0016156044
226	0x3c63f34b	0.013912986
227	0xbcf1467c	-0.029452555
228	0x3bcf2b8b	0.0063223294
229	0xbc86c229	-0.016450005
230	0xbc5dac8a	-0.013529906
231	0xbc5a211c	-0.013313558
232	0xbc6ce355	-0.014458497
233	0x3c769840	0.015050948
234	0x3cd7cd21	0.02634293
235	0x3c55e03a	0.013053948
236	0xbc0c5453	-0.008565026
237	0xbd122954	-0.035683945
238	0x3c4bed86	0.012446767
239	0xbbbcf1ca	-0.005766128
240	0xbb6287ea	-0.0034565874
241	0xbc5bdcb8	-0.013419323
242	0xbce79aeb	-0.028272113
243	0xbc044783	-0.00807369
244	0xbb44cc7e	-0.0030029113
245	0x3cc8dcec	0.024519406
246	0x3cda7c90	0.026670724
247	0xbc6526ab	-0.01398627
248	0xbcdeadd7	-0.027182503
249	0xbc0f5ef7	-0.008750669
250	0x3bcbaf85	0.006215992
251	0x3cf906af	0.030398695
252	0x3c452e37	0.012034944
253	0x3c9eb060	0.019371212
254	0xbc8375e8	-0.016047433
255	0xbc61c234	-0.013779212

bias f4 [64]
0	0x3bfd018d	0.007721132
1	0x3cb3b795	0.021938125
2	0xbd2c07dc	-0.041999683
3	0x3aa3c9a0	0.0012496002
4	0x3ce4fa74	0.027951457
5	0x3ce08b5f	0.027410207
6	0xbcfc1f74	-0.030776717
7	0x3cb63dd5	0.02224628
8	0x3cfa570c	0.030559085
9	0x3c9acb88	0.01889588
10	0x3c9bb77a	0.019008387
11	0xbaebe938	-0.0017998582
12	0x3ca9fd97	0.020750804
13	0x3c8a2747	0.016864432
14	0xbb7c89e4	-0.0038534338
15	0xbc36a740	-0.011148274
16	0xbc9910d6	-0.018684786
17	0x3c752639	0.014962726
18	0xbcb21cc9	-0.021742241
19	0xbd0b0de9	-0.033948813
20	0xbd0f78bb	-0.035027247
21	0xbb90df4a	-0.0044211494
22	0xbb8fe3e1	-0.004391179
23	0xbcc3522a	-0.02384289
24	0x3cffd1cd	0.03122797
25	0xbba6520c	-0.0050756987
26	0xbd1f48aa	-0.038887657
27	0x3b297be6	0.0025861203
28	0xbcad8df5	-0.021185854
29	0x3cbe90fb	0.023262491
30	0xbcbe7bb5	-0.023252347
31	0xb99bad4a	-0.00029693014
32	0xbd17c158	-0.03704962
33	0x3ca539fe	0.020169254
34	0x3ca6ea91	0.020375522
35	0x3d302bd6	0.043010555
36	0xbcb55f40	-0.022140145
37	0x3cb6dac0	0.022321105
38	0x3d290dc5	0.041272897
39	0xbd1b50f7	-0.03791901
40	0x3cc64591	0.024203094
41	0xbc3391d4	-0.010960061
42	0xbb8fe07c	-0.0043907743
43	0x3c65e532	0.014031695
44	0xbcfb2b0d	-0.030660177
45	0x3ba391d0	0.0049917474
46	0x3b1d8041	0.0024032744
47	0xbcce4132	-0.025177572
48	0x3b278bec	0.0025565578
49	0xbca6426e	-0.020295348
50	0x3ce719b9	0.028210508
51	0xbcf8e3e5	-0.030382106
52	0x3c85d99d	0.016339118
53	0x3d056a2a	0.03257195
54	0x3cc56c0f	0.024099378
55	0xb8cacd76	-9.670381e-05
56	0xbcb1a759	-0.021686243
57	0xbb00e40e	-0.0019667181
58	0x3c9af6d6	0.018916529
59	0xbc534e53	-0.012897092
60	0x3c57f3e7	0.013180709
61	0xbd29982c	-0.041404888
62	0x3d1dfc95	0.03857096
63	0x3d6a5859	0.05721316

weight f4 [10, 64]
0	0x3e13c911	0.1443217
1	0xba478415	-0.00076109293
2	0x3e0b0452	0.13575867
3	0x3b0ba77b	0.0021309543
4	0xbe1cfbe3	-0.15330462
5	0xbe35bdc6	-0.17748174
6	0xbda94679	-0.08265395
7	0xbd5546d0	-0.052069485
8	0xbc0e58dc	-0.008688178
9	0x3d54d679	0.05196235
10	0xbd2a1cd6	-0.041531406
11	0x3d02ede5	0.031965155
12	0xbd853cea	-0.06505759
13	0xbda426ff	-0.080152504
14	0x3d1b75ea	0.03795425
15	0xbc8c2b18	-0.017110392
16	0x3e168768	0.14700091
17	0xbe0d62ac	-0.13807172
18	0x3e284e1c	0.16436046
19	0x3db33efc	0.08752248
20	0x3e251933	0.16122894
21	0x3c08c1d3	0.008346993
22	0xbcd3b1f6	-0.025841694
23	0x3d9145a8	0.07093364
24	0xbdfb44fd	-0.12269018
25	0x3d69e7d6	0.05710586
26	0x3e294998	0.1653198
27	0x3c8446f6	0.016147118
28	0xbd9ab098	-0.07553214
29	0xbe243dfd	-0.16039272
30	0x3da82b4c	0.08211383
31	0x3db63e46	0.088985965
32	0x3da77301	0.08176232
33	0x3da38a09	0.079853125
34	0xbde7c412	-0.11316694
35	0xbe146706	-0.14492425
36	0x3da125c1	0.07868529
37	0xbdd48878	-0.10377592
38	0xbdc3b1c1	-0.09555388
39	0x3e2331a6	0.15936908
40	0x3c1dd0e7	0.009632326
41	0x3de51679	0.11185927
42	0x3d8d3f9a	0.06896897
43	0x3d1965d0	0.03745061
44	0x3d888002	0.066650406
45	0xbe0fc947	-0.14041625
46	0x3dfe4898	0.1241619
47	0xbda22935	-0.07918016
48	0x3da1d96e	0.079027995
49	0x3d48a73f	0.048987623
50	0xbe00201f	-0.12512253
51	0x3da775da	0.08176775
52	0x3c2384e8	0.009980418
53	0xbda2cfd5	-0.07949797
54	0xbd308e79	-0.043104623
55	0xbdf8ad45	-0.121424235
56	0x3d99bacd	0.075063325
57	0x3d8e234e	0.069403276
58	0x3e10061f	0.14064835
59	0x3d86d59b	0.06583711
60	0x3df18050	0.11792052
61	0x3de15c39	0.11003918
62	0xbddd7e3d	-0.10815094
63	0x3beaeae3	0.007169114
64	0x38ad5ff8	8.2671584e-05
65	0xbe22ab70	-0.1588571
66	0x3e531b3d	0.2061586
67	0xbe234e4c	-0.15947837
68	0xbdc009fa	-0.09376903
69	0x3e59b5cc	0.21260756
70	0xbd2cf764	-0.042228118
71	0xbc87bfa0	-0.016570866
72	0x3dfb7b30	0.122793555
73	0x3d9a20e7	0.07525807
74	0x3d9223e8	0.07135755
75	0x3e3a0aa9	0.18168129
76	0xbe067876	-0.1313189
77	0xbe4bce4a	-0.19902912
78	0xbe1fbec8	-0.15600121
79	0x3dff2159	0.124575324
80	0x3a9a7d40	0.0011786595
81	0xbe2eeadf	-0.17081784
82	0xbd7edb8d	-0.0622211
83	0xbe5376f2	-0.20650843
84	0x3e43989e	0.19101188
85	0xbd75c6ff	-0.06000423
86	0xbd4133b3	-0.047168445
87	0x3d41be4c	0.047300622
88	0x3cf0ddb5	0.029402593
89	0x3d941119	0.072298236
90	0xbdeb16aa	-0.11478932
91	0x3dfec5a2	0.12440039
92	0x3cdb5463	0.026773637
93	0x3df91dcb	0.12163886
94	0xbd8d04eb	-0.06885704
95	0x3e243b6e	0.16038296
96	0x3e4d720b	0.20063035
97	0x3db1d77e	0.0868368
98	0xbe55b257	-0.20868813
99	0xbd2acc6b	-0.041698854
100	0xbe3089d3	-0.17240076
101	0xbdcbaa71	-0.099446185
102	0x3d809364	0.062781125
103	0x3e155f7d	0.14587207
104	0xbd5ab57f	-0.053395744
105	0x3ca59b7b	0.02021574
106	0xbde49e31	-0.11162985
107	0x3d7537f6	0.05986782
108	0xbdf58c4c	-0.1198965
109	0xbce563c1	-0.028001668
110	0x3dbd2c08	0.09236914
111	0xbdade8a2	-0.08491637
112	0x3e079a39	0.13242425
113	0x3e0b2a3e	0.13590333
114	0xbc369d3e	-0.011145888
115	0xbe53cf42	-0.20684531
116	0xbe6d238a	-0.23158088
117	0xbe01b290	-0.12665772
118	0x3c947c41	0.018125655
119	0x3c894a82	0.01675916
120	0x3b84d788	0.0040540136
121	0xbdf0219b	-0.1172516
122	0xbdfe06f1	-0.12403668
123	0xbe5fd0f8	-0.21857059
124	0xbdd31001	-0.10305787
125	0x3c0cc3c7	0.008591599
126	0x3da1a92c	0.07893595
127	0x3d367efc	0.044554695
128	0x3d9fa555	0.077952065
129	0xbdb2176a	-0.08695872
130	0xbe2e008a	-0.16992393
131	0x3b72adfd	0.0037029975
132	0xbe16251a	-0.1466259
133	0x3dce8c88	0.10085398
134	0xbd3b0f5f	-0.045668956
135	0xbe021eaf	-0.12707017
136	0xbdaf96aa	-0.08573659
137	0x3da1a8c3	0.07893517
138	0xbe3984ac	-0.18117017
139	0xbdfc2922	-0.12312533
140	0x3e0bb183	0.13641934
141	0xbd0a2b03	-0.033732425
142	0x3e171616	0.14754519
143	0xbd43702a	-0.04771439
144	0xbe0a70e5	-0.13519628
145	0x3cd8971e	0.026439246
146	0x3e00c1d5	0.12573941
147	0x3bd3bbaa	0.0064615803
148	0xbd597af8	-0.053095788
149	0x3d84b4c0	0.06479788
150	0x3dcbd718	0.09953135
151	0xbd14d3f8	-0.03633496
152	0x3df10fc4	0.11770585
153	0x3cfdf8c7	0.031002415
154	0xbdbac343	-0.091192745
155	0xbe140548	-0.1445514
156	0xbe197996	-0.14987788
157	0xbdcf527f	-0.10123157
158	0x3d928738	0.07154697
159	0x3ddb759a	0.1071579
160	0xbdb5dc5e	-0.08879922
161	0x3cbc9c69	0.0230238
162	0x3dca34c3	0.09873345
163	0xbd990e97	-0.07473486
164	0x3df44135	0.119265
165	0xbdba9b9e	-0.09111713
166	0x3dbd8ea5	0.09255723
167	0x3e08499e	0.13309333
168	0x3dd07a81	0.10179616
169	0xbd001436	-0.031269275
170	0xbc7e994a	-0.015539477
171	0x3e00ace3	0.12565951
172	0xbe1468f7	-0.14493166
173	0x3db2b9ff	0.08726882
174	0xbd813634	-0.063091666
175	0x3deff96a	0.11717494
176	0x3df46a41	0.11934329
177	0xbe17d88e	-0.14828703
178	0x3d3425da	0.04398141
179	0x3dd7022f	0.10498463
180	0x3e0e7025	0.13909967
181	0x3dc3bdf4	0.09557715
182	0xbdb0460a	-0.08607109
183	0xbda85398	-0.08219069
184	0x3deed074	0.11660853
185	0x3e3f5244	0.18683726
186	0xbca16a3c	-0.019703977
187	0x3de344f0	0.11097133
188	0xbd80d31d	-0.06290267
189	0xbdb66d29	-0.089075394
190	0xbdfefa04	-0.124500304
191	0x3e003382	0.12519649
192	0xbd060468	-0.032719046
193	0x3df5988d	0.119919874
194	0xbe49a302	-0.19691089
195	0xbd84f315	-0.06491677
196	0xbd2984f6	-0.041386567
197	0x3dbbf0f0	0.091768146
198	0x3db8e95c	0.09028885
199	0x3c90e5a0	0.017687619
200	0xbdeed560	-0.11661792
201	0x3dd085e5	0.10181788
202	0x3d31ddce	0.04342442
203	0xbe176065	-0.14782865
204	0x3d7cdef2	0.061736055
205	0x3d952e2d	0.07284198
206	0x3caa63eb	0.020799598
207	0xbdefcd4f	-0.117090814
208	0xbe09aea6	-0.1344553
209	0x3d7ec551	0.062199894
210	0xbd999da1	-0.075007685
211	0xbd10838f	-0.035281714
212	0xbde78307	-0.11304288
213	0xbde1bd4d	-0.110224344
214	0xbd8144c8	-0.06311947
215	0xbdd63c52	-0.10460724
216	0x3d9d1a4c	0.07671031
217	0xbd8871af	-0.066623084
218	0xbddb5c3c	-0.10710952
219	0xbc866a2a	-0.016408045
220	0x3deb3c0b	0.11486062
221	0xbca1be78	-0.019744143
222	0x3c1a34df	0.0094120195
223	0x3dc49589	0.09598834
224	0x3da16a2b	0.07881578
225	0x3e178b7b	0.14799301
226	0x3ddf6472	0.1090783
227	0x3c91e0e2	0.017807428
228	0xbd94b263	-0.07260587
229	0x3e1ea225	0.1549154
230	0xbe17ccda	-0.14824238
231	0xbba178f0	-0.004927747
232	0x3a021d86	0.0004963506
233	0x3dd77e42	0.10522129
234	0xbdfd1793	-0.12358012
235	0x3dbd797b	0.09251686
236	0x3d960165	0.07324485
237	0x3a569899	0.0008186191
238	0xbdc37908	-0.09544569
239	0x3cceba13	0.025235211
240	0xbd63e54b	-0.055638593
241	0xbd8c5585	-0.06852249
242	0x3d81eb89	0.06343753
243	0xbd8eb115	-0.069673695
244	0x3de2f88b	0.11082562
245	0x3dfec9de	0.12440847
246	0x3d5cb00d	0.053878833
247	0xbdf348a8	-0.118790925
248	0xbe148119	-0.14502372
249	0x3dc5f64a	0.096661165
250	0x3d3c68ff	0.04599857
251	0x3e01be6c	0.12670296
252	0x3ddeec45	0.108849086
253	0xbe666c5e	-0.22502276
254	0x3d317044	0.043319955
255	0x3d8fa431	0.07013739

bias f4 [10]
0	0xbdf3e44f	-0.11908781
1	0x3bbc1a52	0.0057404423
2	0xbd2c40ba	-0.042053916
3	0x3db95c6e	0.09050833
4	0x3d446cca	0.04795531
5	0xbc33711c	-0.01095226
6	0x3d9891f2	0.07449712
7	0x3d8ba3b0	0.0681833
8	0x3cb98637	0.022647006
9	0x3d855899	0.06511039
