p27model_8.pth (torch, 588587 bytes, 10 tensors)

weight f4 [32, 3, 5, 5]
0.016965307 0.17674461 0.055649478 0.13639988 0.14123046 0.047043413 0.06444673 -0.020188611
0.060320437 0.109062724 0.022611005 -0.066062815 -0.107521296 -0.08978126 0.06883458 0.059579413
0.048817255 0.017005501 0.117517546 0.05122237 -0.108565256 0.018865498 0.024980025 0.07791675
0.08033089 -0.029802196 -0.10096975 0.0032946854 0.039291758 -0.05726655 0.05728346 0.056106366
0.016348032 -0.10870009 -0.002196583 -0.0746889 -0.08545948 -0.18985836 -0.14107907 -0.046496388
-0.028330615 -0.11627796 -0.15828708 -0.061680514 -0.06740519 -0.1177651 -0.120634206 -0.17683075
0.0030485587 0.04078011 -0.04449775 0.115786366 -0.07178349 0.0009648429 0.051969893 -0.07693412
0.01708185 0.13393782 0.011646438 0.076252416 0.110867254 -0.016948955 -0.1275615 -0.08652193
-0.0131812515 0.040968917 0.08076454 0.05451363 0.13002215 0.064190045 0.011792881 -0.104335494
0.091905184 0.0840207 0.13967465 0.037289012 -0.03958702 -0.043520268 -0.06360845 0.054972302
0.16296008 0.017418649 -0.11859417 -0.101971194 0.053721398 0.025927978 0.11154778 -0.1613073
0.07977242 0.09952874 -0.04554579 0.15478124 0.01864158 -0.010526032 0.12283967 0.005630838
0.1015499 0.11760833 -0.04009339 -0.06795083 0.13142712 -0.12862158 -0.037943684 0.028994894
0.003739909 0.1413188 0.0146454545 -0.11963698 -0.08573782 -0.100854635 0.06883334 0.09110086
-0.1132842 -0.1500887 0.066719055 -0.062501386 -0.032902997 0.0062376168 0.103237115 0.15506154
-0.093325116 -0.048569452 0.100684196 0.025005564 0.08341763 0.095718056 -0.15142515 -0.07666496
-0.08501335 -0.07875562 0.15841605 -0.094165854 -0.05587734 -0.14099424 0.034935165 0.06758393
0.051588953 -0.20455363 -0.033147648 0.081912555 -0.11588184 0.07876242 -0.06483114 -0.117639154
0.08222379 -0.055943053 0.050855827 0.06178192 -0.13109596 -0.112350754 -0.17108189 -0.15672496
-0.054654818 0.018680818 0.007948368 0.080599554 -0.06559168 -0.12916224 0.025391085 -0.12852986
0.042007517 -0.072689235 0.09306013 0.021829547 -0.15148102 -0.07077823 0.12600453 0.14823446
-0.062655 0.07873731 -0.0034005109 0.07013418 0.13239369 0.028745515 -0.06970458 -0.02442752
-0.07202396 -0.015673578 0.03828135 -0.041085735 0.089907095 -0.08277025 -0.04601105 0.04135869
-0.087999664 0.109319225 0.059851933 -0.055721596 -0.01987287 0.01533905 -0.08374324 -0.055379704
0.001243814 0.13085708 -0.034163233 0.10445329 0.055761375 0.0033292857 -0.056342755 0.034103367
-0.1453259 -0.02146497 0.076320186 0.054638147 -0.070418 -0.0964433 0.07448695 0.06711417
-0.005375316 -0.113839805 0.017203769 0.052376367 -0.032879867 -0.024007706 -0.109936394 0.08423712
0.14542088 0.075151 -0.08490288 0.037945222 0.12884952 0.063921414 0.020472221 0.1063444
0.019053616 0.06786068 0.15528502 -0.09459253 0.07855974 -0.07758646 0.013816249 0.14894569
0.16383676 -0.08897416 -0.028632684 -0.0362354 0.17417175 -0.021820853 -0.17849311 -0.13125417
0.0853177 0.14304148 0.11818027 -0.09791227 -0.07195134 0.07352375 0.15076366 -0.06830138
-0.21327686 -0.028399685 0.072436735 0.12761837 -0.039886013 0.030146528 -0.036445543 -0.115145996
00000000: d4fa 8a3c 8afc 343e b5f0 633d 69ac 0b3e
00000010: b89e 103e 98b0 403d a6fc 833d 9662 a5bc
00000020: 9012 773d 475c df3d b73a b93c f14b 87bd
00000030: 2034 dcbd 3ddf b7bd 25f9 8c3d 8b09 743d
00000040: 9af4 473d 1f4f 8b3c 0aad f03d 8cce 513d
00000050: 7657 debd d18b 9a3c e9a2 cc3c d192 9f3d
00000060: 8684 a43d bc23 f4bc 3ac9 cebd a6eb 573b
00000070: 65f0 203d 5490 6abd 10a2 6a3d cacf 653d
00000080: 4fec 853c 279e debd 8cf4 0fbb 7ef6 98bd
00000090: 6105 afbd 3b6a 42be 0877 10be ff72 3ebd
000000a0: 9b15 e8bc 2423 eebd 0216 22be b5a4 7cbd
000000b0: bb0b 8abd d42e f1bd 110f f7bd 1f13 35be
000000c0: 54ca 473b 0b09 273d 4643 36bd 6721 ed3d
000000d0: 3903 93bd 83ed 7c3a 62de 543d a38f 9dbd
000000e0: 3cef 8b3c ff26 093e b4d0 3e3c 3a2a 9c3d
000000f0: 5f0e e33d 89d8 8abc 7b9f 02be 6932 b1bd
00000100: 2df6 57bc 06cf 273d e167 a53d af49 5f3d
00000110: 8724 053e 1276 833d ee36 413c d9ad d5bd
00000120: c938 bc3d 0b13 ac3d df06 0f3e 5dbc 183d
00000130: 0026 22bd 4f42 32bd 2645 82bd a32a 613d
00000140: 02df 263e 8eb1 8e3c 80e1 f2bd 46d6 d0bd
00000150: f80a 5c3d e966 d43c 2a73 e43d be2d 25be
00000160: b95f a33d b9d5 cb3d 398e 3abd f97e 1e3e
00000170: 3ab6 983c 6175 2cbc 5d93 fb3d e582 b83b
00000180: 65f9 cf3d a3dc f03d f738 24bd ce29 8bbd
00000190: d594 063e 60b5 03be d66a 1bbd b386 ed3c
000001a0: 4319 753b e0b5 103e 7df3 6f3c 3c04 f5bd
000001b0: 4f97 afbd e08c cebd 7ff8 8c3d 1693 ba3d
000001c0: 8c01 e8bd dab0 19be 00a4 883d ba00 80bd
000001d0: 4bc5 06bd ec64 cc3b fb6d d33d 74c8 1e3e
000001e0: 3d21 bfbd c3f0 46bd 8433 ce3d 78d8 cc3c
000001f0: ddd6 aa3d d407 c43d 320f 1bbe 8502 9dbd
00000200: 7b1b aebd a04a a1bd d137 223e 07da c0bd
00000210: a3df 64bd cb60 10be 2d18 0f3d 7269 8a3d
00000220: f04e 533d 8276 51be d4c5 07bd c5c1 a73d
00000230: 7553 edbd 314e a13d 30c6 84bd ccec f0bd
00000240: f264 a83d 8b24 65bd 334e 503d 0a0f 7d3d
00000250: 053e 06be 2718 e6bd 1730 2fbe 827c 20be
00000260: bbdd 5fbd 8408 993c df39 023c 6111 a53d
00000270: ee54 86bd 1b43 04be f700 d03c 559d 03be
00000280: 1310 2c3d 18de 94bd 4f96 be3d e1d3 b23c
00000290: d71d 1bbe 2df4 90bd 5507 013e c6ca 173e
000002a0: 4451 80bd 0741 a13d 1bdb 5ebb 82a2 8f3d
000002b0: 3692 073e b77b eb3c 46c1 8ebd 391c c8bc
000002c0: 4c81 93bd e065 80bc e8cc 1c3d 8449 28bd
000002d0: 3621 b83d 7383 a9bd 1576 3cbd bb67 293d
000002e0: 2b39 b4bd c2e2 df3d 4d27 753d 543c 64bd
000002f0: 6ecc a2bc a450 7b3c 9381 abbd d4d5 62bd
00000300: 7907 a33a 66ff 053e bfee 0bbd 9beb d53d
00000310: 0a66 643d 2530 5a3b a9c7 66bd f9af 0b3d
00000320: 50d0 14be 4ed7 afbc c24d 9c3d 40cc 5f3d
00000330: 5037 90bd 1184 c5bd 9d8c 983d 2773 893d
00000340: 6b23 b0bb d824 e9bd ebee 8c3c 9a88 563d
00000350: 0aad 06bd cfab c4bc 5526 e1bd 8384 ac3d
00000360: 36e9 143e c4e8 993d 90e1 adbd 736c 1b3d
00000370: 21f1 033e 3be9 823d 5cb5 a73c 18cb d93d
00000380: 5416 9c3c 8afa 8a3d 0903 1f3e bab9 c1bd
00000390: eee3 a03d a6e5 9ebd 8c5d 623c 3885 183e
000003a0: d3c4 273e 1638 b6bd 178f eabc 926b 14bd
000003b0: 145a 323e a5c1 b2bc e6c6 36be 7e67 06be
000003c0: 0cbb ae3d 7779 123e 7f08 f23d 3a86 c8bd
000003d0: 395b 93bd 9f93 963d ca61 1a3e 98e1 8bbd
000003e0: 4065 5abe 75a6 e8bc b659 943d 64ae 023e
000003f0: 845f 23bd daf5 f63c ec47 15bd aad1 ebbd

bias f4 [32]
-0.14160292 0.12538922 0.011165979 0.12275029 0.18635327 -0.08855595 0.035693806 0.14265338
-0.32319415 0.0067129065 0.031778004 -0.041348945 0.0100103915 -0.27332917 -0.06741166 0.08150649
-0.19671126 -0.081562325 -0.21527594 0.03472539 0.09464948 -0.2840077 -0.0032540485 -0.23299901
-0.07336258 -0.2151007 0.02213692 0.028159475 -0.10698257 0.19632357 -0.1337927 -0.058495894
00000000: 5b00 11be 0866 003e 83f1 363c 8164 fb3d
00000010: 64d3 3e3e d25c b5bd ab33 123d ba13 123e
00000020: b479 a5be f1f7 db3b a729 023d 835d 29bd
00000030: a002 243c cdf1 8bbe 200f 8abd e0ec a63d
00000040: ad6e 49be 260a a7bd 4c71 5cbe 363c 0e3d
00000050: 96d7 c13d 7569 91be e041 55bb 4b97 6ebe
00000060: 1f3f 96bd 5c43 5cbe 7c58 b53c b3ae e63c
00000070: ad19 dbbd 0c09 493e f400 09be 6499 6fbd

weight f4 [32, 32, 5, 5]
0.00094120554 0.03298566 0.011122866 -0.02759684 0.030755782 0.022955697 0.026777515 0.019764582
-0.018944783 0.029526802 0.011838676 0.03215455 -0.003036122 0.0014218414 0.01713839 0.007583424
-0.014278884 -0.001898102 0.03846043 0.03844546 0.0009819787 -0.016902594 -0.024255635 -0.002580465
0.022307854 0.039710958 -0.020765916 -0.0005855083 0.00802859 0.014080652 0.013353702 0.020785484
0.039630815 0.005724635 0.050065298 0.03884688 0.054740977 0.010151848 0.014626727 -0.005493431
-0.009523891 0.026876016 -0.00509692 -0.0175182 -0.012217771 0.026406541 -0.006349353 0.013043367
0.017805224 0.01991173 -0.022768302 -0.023434317 -0.0010909986 0.028068593 -0.0122871585 -0.008193672
-0.00538913 -0.002454364 0.0006915094 0.016991554 0.0075646657 0.03703761 0.004358232 -0.010424566
0.002144409 0.022999726 0.042783897 0.021041432 0.01949448 -0.017197698 0.03785617 -0.013286194
0.03544301 0.04115798 -0.011792762 0.032823198 0.04385712 -0.009434236 -0.0069138324 0.02954706
0.04494383 0.032288168 0.045723084 -0.018030247 0.03244661 0.06167144 0.027488245 0.01511757
0.042413075 0.059197944 0.06198039 0.027079616 0.031980533 -0.0035253065 0.037868463 0.03499217
0.018338649 0.05465109 0.033756536 -0.029556325 0.0040177265 0.0099534625 0.019614823 0.03253196
0.028501038 -0.019182483 0.020765875 -0.013691107 0.038090497 -0.019594768 -0.0011738534 -0.0015276617
0.045492437 0.012943305 -0.010701649 0.012792142 0.015289703 0.028915439 0.010632196 0.022882434
-0.030726116 -0.014789147 -0.005726573 0.015246384 0.030253777 0.05408339 -0.0071763135 -0.0011378421
-0.0042707575 -0.002539739 0.047177408 -0.014640806 0.0431139 0.0065426216 0.005564159 0.0020517285
0.008334908 0.045681026 -0.012787786 0.020447941 -0.022357263 -0.0010025182 -0.009776676 0.021324072
0.03921112 0.025081133 0.0013537204 0.008605722 0.04097449 0.022441221 -0.007202754 0.037498266
0.03153564 0.020548077 -0.010833487 0.028852362 -0.009493744 0.039499324 0.03297286 0.04030863
0.0010589709 -0.014533433 0.0050963447 -0.03003203 -0.025752628 0.038165607 0.04176187 0.036219746
0.020219192 0.023396706 0.021353513 0.014200038 0.018436342 0.050100032 0.023739468 -0.013630908
-0.0050121006 0.026779927 0.039440706 0.028814696 0.019276313 -0.0063916873 0.003844987 0.019183947
0.0022770846 0.016408324 0.041068006 0.03874192 0.034183916 0.02483441 -0.0065043382 -0.02587946
0.02342028 0.0223236 0.047899757 -0.03598674 -0.03905022 0.021891274 0.041023776 0.01376548
0.021661382 0.022346066 0.018449405 0.008744096 0.03814124 -0.03098793 -0.01752528 -0.031335995
-0.0066725244 0.03114015 0.0019572657 -0.019871755 0.0017922674 -0.042771537 0.03868701 0.038437154
-0.00036378062 -0.035689507 -0.018768394 0.0009322079 -0.0055393027 6.316292e-05 -0.03293239 -0.0053801243
0.028094806 -0.009742674 0.0047534686 0.017179532 0.018785633 -0.036197767 0.011526204 0.0060731857
0.031060562 0.026535193 -0.0153117925 -0.018683264 0.015486013 0.02890703 0.05399235 0.027132994
-0.014049244 -0.017053379 0.004355608 0.036805384 0.01742353 -0.023472317 -0.029477803 -0.004958179
-0.010902824 0.0012037996 0.018680988 0.016068429 0.017252801 -0.020710094 -0.015166749 0.0268631
00000000: 3cbb 763a f91b 073d ae3c 363c c512 e2bc
00000010: 8df3 fb3c 960d bc3c 855c db3c 55e9 a13c
00000020: 1732 9bbc 31e2 f13c 02f7 413c 7db4 033d
00000030: adf9 46bb 155d ba3a cf65 8c3c 5f7e f83b
00000040: fbf1 69bc bcc9 f8ba af88 1d3d fd78 1d3d
00000050: bdb5 803a 4f77 8abc c1b3 c6bc 051d 29bb
00000060: f6be b63c f5a7 223d 481d aabc cc7c 19ba
00000070: 598a 033c 89b2 663c 7cc9 5a3c 5246 aa3c
00000080: ec53 223d b895 bb3b 4511 4d3d e81d 1f3d
00000090: 1338 603d f053 263c f1a4 6f3c 3d02 b4bb
000000a0: 180a 1cbc 172b dc3c 1004 a7bb 5482 8fbc
000000b0: 0c2d 48bc 8852 d83c 3c0e d0bb d9b3 553c
000000c0: 43dc 913c ed1d a33c 9784 babc 53f9 bfbc
000000d0: d7ff 8eba 1bf0 e53c 1450 49bc c03e 06bc
000000e0: 4d97 b0bb 65d9 20bb 6946 353a df31 8b3c
000000f0: 04e1 f73b c0b4 173d 80cf 8e3b cdcb 2abc
00000100: 3789 0c3b ec69 bc3c 2b3e 2f3d 155f ac3c
00000110: e3b2 9f3c 30e2 8cbc 120f 1b3d 56ae 59bc
00000120: b12c 113d 4595 283d 6e36 41bc 9e71 063d
00000130: 86a3 333d 0e92 1abc 6e8d e2bb ad0c f23c
00000140: 0617 383d 9940 043d 2148 3b3d 2bb4 93bc
00000150: bde6 043d 319b 7c3d 072f e13c afaf 773c
00000160: 55b9 2d3d 8b79 723d 26df 7d3d 12d6 dd3c
00000170: 05fe 023d d408 67bb f61b 1b3d f353 0f3d
00000180: ef3a 963c d2d9 5f3d 4b44 0a3d 1b20 f2bc
00000190: 22a7 833b d913 233c 44af a03c 3c40 053d
000001a0: 027b e93c 9524 9dbc 321d aa3c aa50 60bc
000001b0: c804 1c3d 3585 a0bc fcdb 99ba d23b c8ba
000001c0: 4756 3a3d 2810 543c f855 2fbc 2296 513c
000001d0: aa81 7a3c 12e0 ec3c aa32 2e3c f173 bb3c
000001e0: 56b5 fbbc 2e4e 72bc faa5 bbbb f8cb 793c
000001f0: c5d6 f73c 8b86 5d3d 4827 ebbb a523 95ba
00000200: b6f1 8bbb c071 26bb 193d 413d fedf 6fbc
00000210: 3398 303d 7d63 d63b 8c53 b63b 4b76 063b
00000220: 238f 083c 071c 3b3d dd83 51bc 7182 a73c
00000230: 9426 b7bc ee66 83ba 5a2e 20bc d2af ae3c
00000240: d79b 203d f376 cd3c 526f b13a 04ff 0c3c
00000250: ded4 273d a7d6 b73c 1405 ecbb c897 193d
00000260: 842b 013d 7154 a83c f07e 31bc ca5b ec3c
00000270: a68b 1bbc 0bca 213d 8d0e 073d a91a 253d
00000280: 2bcd 8a3a a31d 6ebc 3dff a63b bb05 f6bc
00000290: 2df7 d2bc 8a53 1c3d 7f0e 2b3d 285b 143d
000002a0: b8a2 a53c 73aa bf3c 90ed ae3c 47a7 683c
000002b0: d007 973c b135 4d3d 4679 c23c 2c54 5fbc
000002c0: 8c3c a4bb 9461 db3c 948c 213d cc0c ec3c
000002d0: 5ce9 9d3c 5c71 d1bb 2dfc 7b3b a727 9d3c
000002e0: 243b 153b c06a 863c ed36 283d d9af 1e3d
000002f0: 6f04 0c3d 8871 cb3c 5822 d5bb 2901 d4bc
00000300: e3db bf3c fbdf b63c 8932 443d d566 13bd
00000310: 20f3 1fbd 5455 b33c 8c08 283d 9c88 613c
00000320: 3673 b13c 190f b73c 3523 973c 6643 0f3c
00000330: fd39 1c3d 66da fdbc 2d91 8fbc 2c5a 00bd
00000340: 31a5 dabb a119 ff3c 7845 003b 17ca a2bc
00000350: 84ea ea3a 3531 2fbd 4576 1e3d 4770 1d3d
00000360: cfb9 beb9 292f 12bd 2dc0 99bc 6a5f 743a
00000370: 0a83 b5bb 5676 8438 1de4 06bd c14b b0bb
00000380: 1427 e63c bd9f 1fbc fcc2 9b3b 17bc 8c3c
00000390: 54e4 993c 1c44 14bd 67d8 3c3c 9301 c73b
000003a0: b872 fe3c 5560 d93c 50de 7abc a50d 99bc
000003b0: 0cb9 7d3c 70ce ec3c 1527 5d3d 0346 de3c
000003c0: cd2e 66bc 87b3 8bbc 7db9 8e3b 3ec1 163d
000003d0: cabb 8e3c 0449 c0bc 6f7b f1bc 3878 a2bb
000003e0: c2a1 32bc d0c8 9d3a df08 993c f0a1 833c
000003f0: bf55 8d3c 37a8 a9bc f57d 78bc 0110 dc3c

bias f4 [32]
0.008987534 -0.04571626 -0.09745571 -0.012664772 -0.0023282724 0.054113086 -0.00800124 -0.08567486
-0.08183275 0.07520597 0.02664313 -0.024117857 0.028799836 -0.031869575 -0.009722772 0.013437194
-0.020974116 -0.09759717 0.068975635 -0.07181007 0.004572034 -0.06746495 0.024840243 0.082043424
0.02568977 -0.041603822 0.006894643 -0.14031342 -0.007780026 -0.021507628 -0.008143634 -0.049734946
00000000: 7340 133c f940 3bbd dc96 c7bd e77f 4fbc
00000010: ee95 18bb afa5 5d3d a217 03bc 4d76 afbd
00000020: ee97 a7bd 9605 9a3d b242 da3c d092 c5bc
00000030: a2ed eb3c ac89 02bd 434c 1fbc ad27 5c3c
00000040: e9d1 abbc 06e1 c7bd 1943 8d3d 2811 93bd
00000050: 00d1 953b 102b 8abd c47d cb3c 6206 a83d
00000060: 5a73 d23c c568 2abd 75ec e13b 52ae 0fbe
00000070: 97ef febb c430 b0bc e06c 05bc dfb6 4bbd

weight f4 [64, 32, 5, 5]
0.0015432122 0.019673996 -0.0035109285 -0.03551766 -0.027562276 -0.024053467 0.013954217 -0.015756512
-0.035435583 0.018773746 -0.01740051 -0.017454369 0.025484463 -0.0024239626 0.025395699 -0.008130821
0.025540257 -0.04191741 -0.03559816 0.0063006585 -0.026670443 -0.012998056 0.012829056 -0.029365119
0.03159197 -0.019680666 0.007749795 -0.025293661 0.0015660619 -0.0056774523 0.010883864 -0.0065761106
-0.00875804 -0.033318914 -0.039316323 0.031917386 -0.014790611 0.021318538 0.009028116 -0.030666532
-0.026706927 0.052858084 0.042370684 -0.017739128 0.019151721 0.028535115 -0.023685033 -0.0078112753
0.043711286 -0.014175302 0.007236487 0.0058486816 0.0133957835 0.023692692 -0.037471943 -0.055237714
-0.021116376 0.03112948 0.013630446 -0.037816603 -0.017037006 0.036550555 0.061388437 0.023205854
-0.02303795 0.02184834 -0.03301912 0.00066848914 -0.018936716 -0.053804036 0.03348891 0.02436508
0.051363237 -0.0005164418 0.011022606 -0.038123265 -0.0060984134 -0.029899478 -0.0036696983 -0.044729352
0.01349606 -2.6935028e-05 -0.030145645 -0.041230794 -0.0075572613 0.012027729 0.00994872 -0.0012255257
0.010169796 -0.0010430848 0.022326987 -0.021291163 -0.012209183 0.01785154 0.019502785 0.026862945
0.020795774 0.0046142275 -0.007818275 0.020364843 0.016608315 0.0049542794 0.02651442 -0.024038525
0.027002739 -0.06378937 -0.0069695343 0.019215785 -0.02996676 -0.0022871236 0.02732484 0.054226674
0.055786047 0.05195006 0.045390215 0.019044133 -0.029698687 -0.048669748 -0.000317765 -0.033018887
-0.02172508 -0.015428866 -0.01575297 0.037386667 0.022422884 -0.014286666 -0.0064248675 -0.037002068
-0.004482799 0.0022770874 0.0062811123 -0.03029633 0.015789483 0.019828191 -0.0326949 -0.00497631
0.013256439 -0.029944977 0.027954727 0.007296959 0.022028808 -0.00038625582 0.03388679 0.020111136
0.00070687383 0.014829061 -0.012884143 -0.03495904 -0.028475704 0.02492842 0.019357387 -0.007553369
-0.024828415 0.02432567 -0.005888533 0.004301959 0.015352191 0.03398885 0.0018220792 -0.01244184
0.015698617 -0.03679026 -0.023359053 -0.015933035 -0.013368926 -0.04896762 -0.01659592 -0.03011647
-0.03490658 -0.0010761201 -0.00020273199 -0.023673784 0.0062843203 0.028826836 -0.03710395 -0.013250864
0.012133899 -0.015195053 -0.032616023 -0.010093429 0.009606166 0.012865461 0.009913703 0.025857449
-0.03908901 0.015287797 0.0212904 0.02136007 0.016589249 -0.043983888 -0.046853527 -0.0202407
-0.027068056 0.0030549543 -0.0083897635 -0.01716055 -0.0036191936 0.035791 -0.024294065 -0.024878738
-0.029501742 0.011991966 -0.03211985 -0.014075512 0.024655314 -0.037104886 0.017618896 0.014896668
0.02231598 -0.0037811035 0.010060852 0.025287008 0.030060358 0.02610518 -0.0015493558 -0.031216552
-0.039577145 0.014979203 0.030010762 -0.033131927 -0.0126007125 -0.00749867 -0.018904554 -0.016023427
0.0027079368 -0.025894763 -0.029800138 -0.030677045 -0.011265746 -0.008512551 -0.027630113 0.0002524525
-0.007419134 0.026097476 0.032402456 -0.041305427 -0.038014643 0.017790403 0.02293838 0.013255869
-0.040524114 0.01782415 0.014091332 0.02269836 -0.006974939 -0.043687258 -0.013499014 0.011281066
-0.010077623 -0.01897232 0.02148387 0.027513959 -0.012765745 -0.015434314 0.008373425 -0.006624753
00000000: 9c45 ca3a 5c2b a13c 9b17 66bb f77a 11bd
00000010: 48ca e1bc c70b c5bc 3aa0 643c cd13 81bc
00000020: e724 11bd 66cb 993c 848b 8ebc 77fc 8ebc
00000030: cbc4 d03c 58db 1ebb a40a d03c 2337 05bc
00000040: cd39 d13c 97b1 2bbd 60cf 11bd c175 ce3b
00000050: f97b dabc ccf5 54bc f630 523c 1e8f f0bc
00000060: 9566 013d 5939 a1bc fef1 fd3b a734 cfbc
00000070: 5144 cd3a ec09 babb 3c52 323c 6a7c d7bb
00000080: e27d 0fbc 6a79 08bd 270a 21bd cebb 023d
00000090: 5254 72bc 37a4 ae3c aaea 133c 6138 fbbc
000000a0: 7cc8 dabc b881 583d e28c 2d3d a651 91bc
000000b0: 12e4 9c3c 79c2 e93c 1d07 c2bc baf5 ffbb
000000c0: 9b0a 333d 873f 68bc 0e20 ed3b 4ca6 bf3b
000000d0: fd79 5b3c 2d17 c23c 2e7c 19bd f140 62bd
000000e0: 40fc acbc 4003 ff3c 3c52 5f3c 95e5 1abd
000000f0: 3191 8bbc 09b6 153d 7172 7b3d 341a be3c
00000100: 15ba bcbc 4afb b23c 0f3f 07bd 8c3d 2f3a
00000110: 2c21 9bbc 9f61 5cbd ab2b 093d 4799 c73c
00000120: 4262 523d d361 07ba 2998 343c 2427 1cbd
00000130: 33d5 c7bb c0ef f4bc 527f 70bb 2036 37bd
00000140: 941e 5d3c 88f2 e1b7 00f4 f6bc 9fe1 28bd
00000150: e7a2 f7bb f40f 453c f5ff 223c d2a1 a0ba
00000160: 379f 263c 1eb8 88ba 16e7 b63c ce6a aebc
00000170: 0609 48bc 653d 923c 4ec4 9f3c ae0f dc3c
00000180: e65b aa3c f232 973b 3918 00bc 2cd4 a63c
00000190: 290e 883c 8257 a23b c534 d93c 71ec c4bc
000001a0: d934 dd3c 00a4 82bd b160 e4bb 6c6a 9d3c
000001b0: da7c f5bc 91e3 15bb 58d8 df3c ca1c 5e3d
000001c0: e97f 643d 96c9 543d 17eb 393d 7102 9c3c
000001d0: a94a f3bc ee59 47bd b299 a6b9 d03e 07bd
000001e0: ccf8 b1bc 5bc9 7cbc 5f0c 81bc c322 193d
000001f0: 32b0 b73c 9f12 6abc b287 d2bb 7b8f 17bd
00000200: 72e4 92bb 303b 153b cad1 cd3b 0230 f8bc
00000210: f258 813c bb6e a23c 16eb 05bd 5010 a3bb
00000220: 8931 593c 2b4f f5bc 5001 e53c 541b ef3b
00000230: c275 b43c 6182 cab9 e0cc 0a3d 1cc0 a43c
00000240: 804d 393a 97f5 723c 0318 53bc 3631 0fbd
00000250: e145 e9bc b036 cc3c 6293 9e3c 4082 f7bb
00000260: f664 cbbc a146 c73c 98f4 c0bb 73f7 8c3b
00000270: c287 7b3c e437 0b3d d5d2 ee3a dcd8 4bbc
00000280: 639a 803c 62b1 16bd 7c5b bfbc ff85 82bc
00000290: 5709 5bbc 4592 48bd 2bf4 87bc d1b6 f6bc
000002a0: 34fa 0ebd 990c 8dba 7494 54b9 86ef c1bc
000002b0: b3ec cd3b 4226 ec3c 50fa 17bd 271a 59bc
000002c0: 43cd 463c acf4 78bc 6198 05bd e95e 25bc
000002d0: 2e63 1d3c a8c9 523c 166d 223c 00d3 d33c
000002e0: cc1b 20bd ab79 7a3c 3469 ae3c 50fb ae3c
000002f0: 2de6 873c 7328 34bd 7ce9 3fbd d3cf a5bc
00000300: d4bd ddbc a135 483b 3875 09bc 4894 8cbc
00000310: fe2f 6dbb 9599 123d 5904 c7bc 7fce cbbc
00000320: a3ad f1bc f379 443c 1b90 03bd fa9c 66bc
00000330: f1f9 c93c 4bfb 17bd 8155 903c 2711 743c
00000340: 01d0 b63c 64cc 77bb 46d6 243c b326 cf3c
00000350: 2441 f63c 88da d53c c113 cbba dbb9 ffbc
00000360: a51b 22bd 556b 753c 21d9 f53c 58b5 07bd
00000370: 3873 4ebc 67b7 f5bb b9dd 9abc 9043 83bc
00000380: a477 313b 4121 d4bc 6b1f f4bc 6d4e fbbc
00000390: f793 38bc 3a78 0bbc 8c58 e2bc 9a5b 8439
000003a0: 351c f3bb 60ca d53c 70b8 043d e12f 29bd
000003b0: 3eb5 1bbd 2ebd 913c 45e9 bb3c 252f 593c
000003c0: 9dfc 25bd f403 923c 55df 663c e9f1 b93c
000003d0: 078e e4bb 69f1 32bd f82a 5dbc 38d4 383c
000003e0: 9d1c 25bc d76b 9bbc f1fe af3c f464 e13c
000003f0: 6a27 51bc 34e0 7cbc b130 093c 7514 d9bb

bias f4 [64]
-0.011657442 -0.029141197 -0.05555805 -0.05544402 -0.036705974 -0.0038784407 0.0062532164 -0.021738434
0.003339945 0.015388377 -0.043764792 0.0028760873 -0.029610267 -0.04595084 -0.059104264 0.0417296
-0.038909074 -0.05322606 0.04367716 0.027995894 -0.023566911 -0.013963092 0.00065116334 -0.025129685
0.04358554 0.01126962 0.005414786 -0.038361896 0.010646408 0.029559655 -0.021747582 -0.022022115
-0.08340578 -0.02459442 -0.04003164 -0.022022048 -0.020671284 -0.044128478 -0.057843443 0.00022929008
-0.063847356 -0.06096997 0.015293477 -0.008117295 0.04356886 -0.033152424 0.010422809 -0.017651506
-0.035920113 -0.027496457 -0.0072554355 -0.044459753 -0.031721294 0.043731436 -0.029172044 -0.030247621
-0.006753642 0.011086596 -0.049034808 -0.047670674 -0.016601184 0.010097083 -0.015259636 -0.04364605
00000000: dbfe 3ebc 85b9 eebc d690 63bd 4519 63bd
00000010: 0159 16bd 702d 7ebb c8e7 cc3b cd14 b2bc
00000020: fbe2 5a3b 881f 7c3c b642 33bd bd7c 3c3b
00000030: 3b91 f2bc f336 3cbd 5017 72bd a8ec 2a3d
00000040: 1f5f 1fbd 9203 5abd d2e6 323d a557 e53c
00000050: 650f c1bc 74c5 64bc d5b2 2a3a c5dc cdbc
00000060: c086 323d 36a4 383c 846e b13b 5d21 1dbd
00000070: 466e 2e3c 1727 f23c fc27 b2bc b967 b4bc
00000080: a6d0 aabd 3d7a c9bc 38f8 23bd 9567 b4bc
00000090: d356 a9bc 10c0 34bd 3fed 6cbd 966d 7039
000000a0: 67c2 82bd a6bb 79bd 7e91 7a3c 67fe 04bc
000000b0: 4375 323d d6ca 07bd 6ec4 2a3c e499 90bc
000000c0: f820 13bd 4040 e1bc 01bf edbb 6e1b 36bd
000000d0: 30ee 01bd bc1f 333d 36fa eebc dcc9 f7bc
000000e0: a84d ddbb 8ea4 353c b9d8 48bd 5342 43bd
000000f0: 35ff 87bc 3c6e 253c 8d03 7abc 33c6 32bd

weight f4 [64, 1024]
-0.020814424 -0.04521431 -0.0053528366 -0.019677646 0.022751562 -0.011072806 -0.007214977 0.020020839
0.02534925 0.024480639 -0.04716117 -0.005847544 -0.010233081 -0.016592283 -0.020239221 -0.02691821
0.028618224 0.02222529 0.014292037 0.024007866 0.03068067 -0.0028903305 -0.0036931012 0.0111714965
-0.01854892 -0.024421422 0.0018657094 -0.005912563 -0.0109457765 0.023849249 -0.04611884 0.05483102
0.027708635 -0.012529244 0.020037517 -0.017147914 -0.0036304628 -0.028290102 0.023500752 -0.031699907
0.009873243 0.029430062 0.009245614 0.02280325 -0.01835912 -0.033082712 -0.025094979 0.03067166
0.0025037553 0.02265062 0.032118503 0.020738808 0.0235924 -0.034944482 0.014833382 0.020498589
0.015860276 -0.014122308 -0.0010466477 0.00847252 0.007230454 0.014927883 -0.021159533 0.046033867
0.013899757 0.000669137 0.0027167033 0.033161454 -0.013901655 0.011476838 0.02365174 -0.024122596
0.017296115 -0.0066114645 -0.02852929 -0.038016196 0.038243465 -0.02428612 0.018427735 -0.025598234
0.0033284454 -0.011190819 -0.0054635014 -0.023855153 0.028350063 -0.008039326 -0.038929913 0.031819128
0.007913873 -0.02939825 -0.007287359 0.051199093 0.04695646 -0.029929588 0.022233535 0.01411079
-0.0059866393 -0.029648261 -0.031273596 -0.053405214 -0.022800492 0.016267793 0.029377582 -0.0091333715
0.00090840453 0.019042585 0.005898258 -0.012857625 0.015988188 -0.014041888 0.012029817 -0.033933163
0.023076741 -0.02042452 0.007052278 0.047900107 0.010041011 -0.0156071605 0.00399208 -0.020552186
0.0040833615 -0.038022917 -0.013343872 -0.024725474 0.0018866591 0.03292391 -0.021551391 -0.029292952
-0.014968606 -0.0057841903 -0.022820693 0.020135215 0.009431966 0.024437707 -0.009519275 -0.009186492
-0.018455226 -0.009891171 -0.021894826 0.029298648 -0.018572897 -0.011743993 -0.010501312 0.01186821
0.016095797 -0.0065157437 -0.033960987 0.014633369 -0.016803611 0.0042982665 0.012880575 0.04245518
0.0021472378 0.03351025 0.027225025 0.009875661 -0.0114033185 -0.0229378 0.0038970243 0.0036914484
-0.008692197 0.014919557 -0.0014067173 -0.01566111 0.0009510497 0.03808975 -0.024181847 0.033200294
0.005689368 0.04211287 -0.004741654 0.027809683 -0.02964978 -0.0064485655 0.02856472 0.03564342
0.035387117 0.03418377 -0.015800117 -0.039674416 -0.0029957448 0.03348278 -0.011455869 0.0061181863
0.038489237 0.04005733 -0.015437552 0.019917022 0.020177087 0.015256274 -0.02583175 -0.023797477
0.00513949 -0.008278015 0.010642781 0.0025860448 0.005852303 -0.004664245 -0.007580157 -0.018243782
-0.021701466 0.02143248 -0.011888025 0.0348709 0.03160812 0.0011889789 -0.011739323 0.011229923
-0.017539103 -0.022357484 -0.00049735093 0.029260656 -0.012439112 0.03066641 -0.0032196022 -0.040299155
0.008554893 -0.050075438 0.02036099 0.018396314 0.021875333 -0.012903811 -0.052427173 0.024967592
0.03336666 0.009236752 0.018712249 -0.029559245 0.0038540056 -0.014647982 -0.0002924386 -0.017120374
-0.015000962 0.014326214 0.016632421 0.0047731986 -0.0032113644 -0.039985634 0.009601971 -0.0130027905
0.0037447505 -0.012353753 -0.028182626 -0.0044114576 0.0035342108 0.013853336 0.026106514 -0.0066608097
-0.013599621 -0.005125183 -0.003592543 0.040799476 0.01818366 0.020180168 -0.016883858 -0.012704727
00000000: 0383 aabc a432 39bd d966 afbb 0433 a1bc
00000010: 7c61 ba3c b76a 35bc 9d6b ecbb be02 a43c
00000020: 3ba9 cf3c 9f8b c83c 122c 41bd c19c bfbb
00000030: a7a8 27bc 8aec 87bc b9cc a5bc 9483 dcbc
00000040: c470 ea3c d011 b63c 2629 6a3c 25ac c43c
00000050: 0756 fb3c b36b 3dbb f507 72bb a708 373c
00000060: e8f3 97bc 6f0f c8bc d28a f43a 2cbe c1bb
00000070: ea55 33bc 805f c33c 1ce7 3cbd 7e96 603d
00000080: 38fd e23c 7547 4dbc b825 a43c c879 8cbc
00000090: 0fed 6dbb a5c0 e7bc a684 c03c c3d7 01bd
000000a0: 62c3 213c 5017 f13c ea7a 173c e2cd ba3c
000000b0: dd65 96bc bd81 07bd fc93 cdbc 2243 fb3c
000000c0: 0b16 243b cb8d b93c b18e 033d 6fe4 a93c
000000d0: d944 c13c f221 0fbd b707 733c a8ec a73c
000000e0: 69ed 813c 4161 67bc ab2f 89ba 53d0 0a3c
000000f0: 72ed ec3b 1494 743c c256 adbc 028e 3c3d
00000100: cebb 633c 0669 2f3a b80a 323b 4ed4 073d
00000110: c4c3 63bc 5909 3c3c 4bc1 c13c c09c c5bc
00000120: 95b0 8d3c fca4 d8bb 42b6 e9bc dfb6 1bbd
00000130: 2ea5 1c3d aff3 c6bc c3f5 963c 63b3 d1bc
00000140: 0c22 5a3b b259 37bc 2c07 b3bb e26b c3bc
00000150: 643e e83c 61b7 03bc f974 1fbd c654 023d
00000160: 30a9 013c 99d4 f0bc ccca eebb 24b6 513d
00000170: 6b55 403d e52e f5bc 1a23 b63c f130 673c
00000180: 922b c4bb e9e0 f2bc be18 00bd 6dbf 5abd
00000190: 19c8 babc 0944 853c 41a9 f03c 23a4 15bc
000001a0: ff21 6e3a 32ff 9b3c 2d46 c13b caa8 52bc
000001b0: a9f9 823c f20f 66bc b618 453c 80fd 0abd
000001c0: 6f0b bd3c 5351 a7bc cc16 e73b e732 443d
000001d0: 0d83 243c 2db5 7fbc ffcf 823b 0f5d a8bc
000001e0: b8cd 853b ebbd 1bbd 41a0 5abc 148d cabc
000001f0: c649 f73a 39db 063d 8b8c b0bc c6f7 efbc
00000200: e23e 75bc 4e89 bdbb 76f2 babc 9bf2 a43c
00000210: 8888 1a3c 9631 c83c bcf6 1bbc f182 16bc
00000220: 6a2f 97bc 940e 22bc c75c b3bc b803 f03c
00000230: 3026 98bc e069 40bc b20d 2cbc e172 423c
00000240: 55db 833c 0582 d5bb ad1a 0bbd ccc0 6f3c
00000250: baa7 89bc 79d8 8c3b 0c09 533c 7ce5 2d3d
00000260: acb8 0c3b 0b42 093d 0407 df3c 86cd 213c
00000270: fcd4 3abc 0ee8 bbbc 3865 7f3b 3aec 713b
00000280: b769 0ebc 2871 743c 9a61 b8ba ba4b 80bc
00000290: dd4f 793a ff03 1c3d 0219 c6bc 08fd 073d
000002a0: e16d ba3b 8b7e 2c3d e05f 9bbb 22d1 e33c
000002b0: 18e4 f2bc 7d4e d3bb 8f00 ea3c d6fe 113d
000002c0: 15f2 103d 4804 0c3d 3f6f 81bc a481 22bd
000002d0: 4254 44bb 3d25 093d 66b1 3bbc 117b c83b
000002e0: e4a6 1d3d 2813 243d c9ed 7cbc 0629 a33c
000002f0: 6b4a a53c 73f5 793c 1b9d d3bc edf2 c2bc
00000300: 2b69 a83b 83a0 07bc 0f5f 2e3c a27a 293b
00000310: adc4 bf3b 86d6 98bb f762 f8bb fc73 95bc
00000320: 46c7 b1bc 2b93 af3c fec5 42bc cad4 0e3d
00000330: 8477 013d 83d7 9b3a 4a56 40bc b6fd 373c
00000340: 2aae 8fbc 0b27 b7bc a860 02ba 0bb4 ef3c
00000350: 6bcd 4bbc 2038 fb3c f6ff 52bb ba10 25bd
00000360: d229 0c3c e71b 4dbd 17cc a63c deb3 963c
00000370: e633 b33c 826a 53bc e0bd 56bd d688 cc3c
00000380: 7bab 083d bf55 173c 6e4a 993c 3b26 f2bc
00000390: 7c93 7c3b 17fe 6fbc 7252 99b9 0740 8cbc
000003a0: 98c6 75bc 7fb8 6a3c b740 883c 7e68 9c3b
000003b0: c175 52bb fac7 23bd 9651 1d3c a809 55bc
000003c0: 7d6a 753b 6567 4abc 40df e6bc fd8d 90bb
000003d0: 389e 673b 1af9 623c 54dd d53c ec42 dabb
000003e0: f2d0 5ebc 27f1 a7bb df70 6bbb 5a1d 273d
000003f0: e6f5 943c e150 a53c 0450 8abc 7d27 50bc

bias f4 [64]
0.014425225 0.03348116 -0.03871242 0.00324665 0.034711283 0.021569315 -0.0330536 0.02792438
0.03566368 0.012640636 0.027852213 -0.006466135 0.014020153 0.031591468 -0.0051086145 -0.012274519
-0.010458702 0.022337744 -0.021679843 -0.040164094 -0.035591304 -0.010631965 -0.005398917 -0.013725672
0.033323377 -0.015185011 -0.03445269 0.009805354 -0.01894203 0.028599495 -0.034325726 -0.0028173425
-0.043885317 0.01461405 0.01974829 0.05634299 -0.029029155 0.017737212 0.05057285 -0.04488296
0.022252874 -0.013336584 0.0015151743 0.011624942 -0.031851754 -0.0038633998 -0.006319591 -0.034650303
-0.0022025597 -0.017647173 0.033591297 -0.036984343 0.016877329 0.0358537 0.03323247 -0.0063663
-0.0286937 -0.0017111106 0.026665268 -0.013510077 0.023796443 -0.03886756 0.05225504 0.06327195
00000000: c757 6c3c 8a23 093d ea90 1ebd c0c5 543b
00000010: 6b2d 0e3d 22b2 b03c 3663 07bd abc1 e43c
00000020: 1414 123d ac1a 4f3c 532a e43c dfe1 d3bb
00000030: c9b4 653c 0e66 013d 2a66 a7bb 101b 49bc
00000040: fa5a 2bbc a5fd b63c ed99 b1bc 1b83 24bd
00000050: 30c8 11bd b131 2ebc 66e9 b0bb a4e1 60bc
00000060: 187e 083d 8dca 78bc 441e 0dbd a3a6 203c
00000070: 512c 9bbc 7d49 ea3c 2299 0cbd 2aa3 38bb
00000080: 17c1 33bd c56f 6f3c 2ac7 a13c e8c7 663d
00000090: 8dce edbc a14d 913c 7a25 4f3d 32d7 37bd
000000a0: a94b b63c b081 5abc d098 c63a 8a76 3e3c
000000b0: fc76 02bd 1831 7dbb 9214 cfbb 7aed 0dbd
000000c0: d258 10bb ce90 90bc 0797 093d e57c 17bd
000000d0: 5342 8a3c 54db 123d c51e 083d 659c d0bb
000000e0: 0d0f ebbc 5847 e0ba 1f71 da3c 5f59 5dbc
000000f0: c2f0 c23c 9733 1fbd 6109 563d b994 813d

weight f4 [10, 64]
0.1469068 -0.021450099 0.13438575 0.004935056 -0.18914643 -0.20403892 -0.118136905 -0.07273264
-0.010776467 0.06341024 -0.08002432 0.015242089 -0.058345795 -0.09713097 0.066495694 0.00963209
0.15539803 -0.14976835 0.17481875 0.09318135 0.17815104 0.016993975 -0.046701692 0.056253694
-0.10950997 0.03515543 0.18232714 0.012383277 -0.11998868 -0.2259739 0.082649834 0.14892685
0.10717752 0.113408424 -0.12224475 -0.18523096 0.08957898 -0.11504098 -0.11740159 0.17523663
0.031466022 0.115134425 0.06616635 0.03478662 0.10035102 -0.14968346 0.16715063 -0.06259649
0.09558464 0.05671455 -0.10703024 0.10923566 0.020866381 -0.10993355 -0.0754271 -0.12115461
0.073875405 0.07158597 0.18322074 0.09507827 0.10994387 0.10967788 -0.13581501 0.008144253
0.008824064 -0.18949096 0.22394118 -0.18198007 -0.10511381 0.26376212 -0.053806525 -0.02227243
0.14233038 0.08414555 0.088048436 0.20219043 -0.14158379 -0.23032126 -0.17416944 0.14766112
-0.023862235 -0.22085486 -0.08421943 -0.2602788 0.22015409 -0.08464094 -0.05605974 0.044159286
0.039501123 0.064510725 -0.14533159 0.15059672 0.017097324 0.15477766 -0.072428204 0.17467314
0.22932653 0.09752853 -0.23818915 -0.019129047 -0.18709004 -0.08224628 0.08400299 0.14703713
-0.0563409 0.018931186 -0.12779081 0.047633458 -0.13961813 -0.024563449 0.09587706 -0.08174878
0.15764073 0.15925243 -0.016867554 -0.25186843 -0.29081446 -0.13865545 0.031138742 0.028183047
-0.027523369 -0.13863578 -0.14211763 -0.2611057 -0.13018759 0.008025126 0.10044824 0.050731856
0.07584484 -0.10140656 -0.17475149 0.018345138 -0.15972994 0.10676523 -0.049528003 -0.1614212
-0.10336802 0.079164416 -0.21976392 -0.14458689 0.12504616 -0.028726455 0.16240945 -0.040606324
-0.16030286 0.024695108 0.13542382 0.0049494365 -0.06943963 0.05974273 0.10856775 -0.031159826
0.14434697 0.024746941 -0.079208836 -0.14731681 -0.16214903 -0.11988416 0.05202835 0.13487779
-0.09615371 0.015296237 0.12218189 -0.086437024 0.14339562 -0.10405272 0.10306564 0.15080874
0.10511876 -0.046694465 -0.020134911 0.11220659 -0.17458536 0.085180596 -0.08544953 0.14767061
0.11492507 -0.15854894 0.04688108 0.12830423 0.16808993 0.098485366 -0.0999328 -0.07909198
0.13425376 0.20706555 -0.0037063616 0.11829121 -0.05895174 -0.08127396 -0.12191585 0.14824037
-0.03224177 0.13954338 -0.20319642 -0.056104653 -0.060289282 0.08807493 0.08911117 0.016575811
-0.122604445 0.11725883 0.04880931 -0.15548216 0.07180002 0.07611087 0.026109137 -0.12792711
-0.115037955 0.06531965 -0.07990332 -0.022502925 -0.11717119 -0.12102723 -0.068262994 -0.112801224
0.04618858 -0.06264982 -0.09866964 -0.0033196926 0.13165647 -0.044919074 0.013770366 0.08590892
0.096373275 0.15039554 0.09829008 0.0013833346 -0.07457057 0.15308122 -0.164767 0.009873717
0.00034515996 0.12825967 -0.1445303 0.07994218 0.08657371 -0.009183341 -0.08019457 0.01522076
-0.0675607 -0.077144325 0.06252232 -0.054466676 0.11926409 0.11365766 0.05954666 -0.12827857
-0.1497115 0.09638684 0.052541696 0.12986737 0.1206438 -0.24382366 0.034189176 0.072730765
00000000: bc6e 163e 1eb8 afbc 6b9c 093e 40b6 a13b
00000010: 9aaf 41be 94ef 50be c3f1 f1bd daf4 94bd
00000020: c78f 30bc 3add 813d cae3 a3bd f4b9 793c
00000030: 00fc 6ebd 9aec c6bd e52e 883d eacf 1d3c
00000040: a920 1f3e e05c 19be b003 333e ddd5 be3d
00000050: 3a6d 363e f336 8b3c 464a 3fbd 466a 663d
00000060: c346 e0bd 24ff 0f3d f7b3 3a3e 3ae3 4a3c
00000070: a0bc f5bd b465 67be 5144 a93d 4880 183e
00000080: e37f db3d ad42 e83d 755b fabd 2fad 3dbe
00000090: 2f75 b73d 9b9a ebbd 3f70 f0bd 3b71 333e
000000a0: 84e2 003d 99cb eb3d 3982 873d 6a7c 0e3d
000000b0: d684 cd3d 9f46 19be 8929 2b3e 9732 80bd
000000c0: e1c1 c33d 844d 683d ac32 dbbd f2b6 df3d
000000d0: f9ef aa3c d724 e1bd 8679 9abd e81f f8bd
000000e0: fd4b 973d aa9b 923d 389e 3b3e 65b8 c23d
000000f0: 402a e13d cc9e e03d 1713 0bbe 796f 053c
00000100: cf92 103c eb09 42be d650 653e fc58 3abe
00000110: e945 d7bd d40b 873e 3b64 5cbd ac74 b6bc
00000120: 0ebf 113e 8154 ac3d bd52 b43d 020b 4f3e
00000130: 57fb 10be 56d9 6bbe 7959 32be 7a34 173e
00000140: bc7a c3bc c727 62be 3d7b acbd 4343 85be
00000150: 1370 613e 3b58 adbd e69e 65bd 5ee0 343d
00000160: eecb 213d 331e 843d ced1 14be 0736 1a3e
00000170: b00f 8c3c 097e 1e3e 3d55 94bd 84dd 323e
00000180: 93d4 6a3e 0abd c73d dbe7 73be 85b4 9cbc
00000190: 8894 3fbe bd70 a8bd c209 ac3d e790 163e
000001a0: b7c5 66bd 9315 9b3c 98db 02be 4d1b 433d
000001b0: 0ef8 0ebe 4939 c9bc 315b c43d e86b a7bd
000001c0: 926c 213e 1213 233e d32d 8abc e6f4 80be
000001d0: a2e5 94be b2fb 0dbe ad16 ff3c 22e0 e63c
000001e0: b078 e1bc 8af6 0dbe 4987 11be a5af 85be
000001f0: e54f 05be d17b 033c cfb7 cd3d 35cc 4f3d
00000200: 8a54 9b3d 3eae cfbd 0ef2 32be 8b48 963c
00000210: 3f90 23be bba7 da3d e0dd 4abd 994b 25be
00000220: 9db2 d3bd f420 a23d cb09 61be 960e 14be
00000230: 1a0c 003e be53 ebbc aa4e 263e d152 26bd
00000240: 6f26 24be 654d ca3c 8bac 0a3e e22e a23b
00000250: 5d36 8ebd cbb4 743d c558 de3d e442 ffbc
00000260: b1cf 133e 19ba ca3c 3e38 a2bd 38da 16be
00000270: 650a 26be d485 f5bd ae1b 553d 671d 0a3e
00000280: 3cec c4bd 119d 7a3c 803a fa3d e505 b1bd
00000290: 4dd6 123e 9819 d5bd 1414 d33d 9b6d 1a3e
000002a0: 8148 d73d b242 3fbd f8f1 a4bc 92cc e53d
000002b0: 81c6 32be 2a73 ae3d 2a00 afbd f736 173e
000002c0: d65d eb3d a75a 22be 6006 403d 2f62 033e
000002d0: c41f 2c3e b2b2 c93d 91a9 ccbd fafa a1bd
000002e0: d179 093e fe08 543e 6ee6 72bb a942 f23d
000002f0: 6177 71bd f672 a6bd 04af f9bd 53cc 173e
00000300: f20f 04bd 76e4 0e3e b912 50be fecd 65bd
00000310: e5f1 76bd a160 b43d eb7f b63d ffc9 873c
00000320: 0a18 fbbd 6625 f03d 45ec 473d b736 1fbe
00000330: e40b 933d 04e0 9b3d d4e2 d53c 53ff 02be
00000340: 0599 ebbd 4fc6 853d 5aa4 a3bd 0e58 b8bc
00000350: 73f7 efbd 20dd f7bd 78cd 8bbd 5404 e7bd
00000360: 3d30 3d3d 8d4e 80bd 4f13 cabd 338f 59bb
00000370: f4d0 063e 10fd 37bd 1a9d 613c 04f1 af3d
00000380: 5a5f c53d 4a01 1a3e 4f4c c93d 0251 b53a
00000390: 74b8 98bd 53c1 1c3e aeb8 28be 5fc5 213c
000003a0: 96f6 b439 8156 033e c0ff 13be bab8 a33d
000003b0: 8f4d b13d b975 16bc 0d3d a4bd 7f60 793c
000003c0: 445d 8abd d8fd 9dbd b40b 803d 7318 5fbd
000003d0: bb40 f43d 59c5 e83d 33e7 733d 755b 03be
000003e0: f94d 19be 7766 c53d f635 573d f4fb 043e
000003f0: 1914 f73d e9ac 79be f309 0c3d def3 943d

bias f4 [10]
-0.1351626 0.0016462128 -0.06528713 0.09099466 0.09502236 -0.031043448 0.09008043 0.06583976
0.029310584 0.06114751
00000000: 1168 0abe bcc5 d73a 42b5 85bd 695b ba3d
00000010: 159b c23d d44e febc 177c b83d ffd6 863d
00000020: c01c f03c d075 7a3d
