p27model_1.pth (torch, 588587 bytes, 10 tensors)

weight f4 [32, 3, 5, 5]
00000000: d457 91bc 8350 0c3e 441a 133c ce10 c33d
00000010: d9f4 c93d 6e54 2f3c 4e0d 103d 8d3d 2dbd
00000020: 8706 163d 2e34 a13d 67a4 3b3c 7489 7ebd
00000030: 70e7 cdbd fa57 c3bd 089c 4d3d 7c17 4a3d
00000040: a66d 5f3d 89a1 893c 7309 c33d 1c06 1f3c
00000050: 0363 e5bd 6f9f aa3c 316b 963c 075a 553d
00000060: 7a5a 2a3d 10a8 41bc cf93 aebd ac50 333c
00000070: 048b 503d 5544 53bd fdee 943d fc69 a53d
00000080: 8b77 453d 3982 9dbd fe79 9a3c ca31 15bd
00000090: dea9 e7bc 561c 02be ec48 b6bd ae7a 46bc
000000a0: 847a 2d3c f449 66bd 50db cfbd da39 e6bc
000000b0: 9427 6dbd 9ec9 9abd f4c9 8dbd 4fb4 07be
000000c0: b0c7 d63c 1fbc 403d 892a 04bd d2ac fa3d
000000d0: 9240 9bbd c8eb c7b9 f122 393d a682 9cbd
000000e0: 1910 a83c 6b91 0e3e 1ab1 863c 0b1c 983d
000000f0: 8a2c f33d 6999 ed3a c2c9 debd 15a5 9cbd
00000100: 01b2 6bbc 3c94 1f3d d853 bd3d 1e3a 763d
00000110: 6ae0 eb3d 48c9 ff3c 9361 693c ddf2 cabd
00000120: 2223 b53d 0899 7d3d 2433 d73d 6264 973c
00000130: a4d6 08bc 448f 35bc b64a 45bd 46f6 6f3d
00000140: 8724 d83d d2bd 2b3c 6d44 8abd 7ce8 88bd
00000150: 8ccc 483d 5636 913b 7a93 bd3d 86e9 d6bd
00000160: 9320 dd3d 7c98 923d 3657 debc c42c 053e
00000170: 4839 9a3c 56a3 2abc aeb8 a93d 3d77 ed3c
00000180: 43c6 b03d 2f8f bc3d cb24 e9bc cffe 81bd
00000190: 6687 d33d 0cf4 c9bd ee6d 49bb fa4f 2f3d
000001a0: 0ff8 9d3b 02c9 a43d 19b4 263c 6caa 83bd
000001b0: 6e02 4dbd dcd5 d9bd 4551 5b3d bf50 a83d
000001c0: c82c 3fbd db42 edbd e2bd 2c3d 82be 0bbd
000001d0: 3fc7 33bd 927d a73c 3c98 e63d 0009 f83d
000001e0: 0ec3 76bd 46d2 49bd 872c ba3d debc 433d
000001f0: ffe0 c43d 7a1c 923d de8b f4bd 7d44 31bd
00000200: 0050 97bd 3e0b 9abd 44ca d33d dfcf c0bd
00000210: ec48 07bb 36ba debd 3f8f 063d d7a8 6c3d
00000220: 1f39 503d 9bca 08be 4121 883b 0475 893d
00000230: c350 b6bd 1ff2 943d 2444 36bd 77ee d1bd
00000240: d42b 733d 7a0d 02bd dc2e 473d 006f 5b3d
00000250: 8ad9 dfbd ea3c c8bd 7b50 f1bd 8aa7 d1bd
00000260: d8d3 d6bc 8771 e73c ce29 e23c ab20 c63d
00000270: 0d95 07bd 57d4 c2bd ca6c 4d3d 9b38 aabd
00000280: bd0c 263d b2d2 94bd 4bbf d73d ced2 3c3d
00000290: a67f e4bd b69b a0bd a559 c03d 525b f43d
000002a0: 3ea0 93bd 75fa a13d 75d1 c1bc e62a 0c3d
000002b0: a6b2 d23d 8eb8 403c 18e9 a3bd 9b56 0e3c
000002c0: 7839 25bd a18f 1fbc cbbc f63c 987f 14bd
000002d0: 83b9 ae3d a15a 96bd 9830 0cbd 7cbd 423d
000002e0: b04a 74bd 910e bb3d b533 2e3d 4896 71bd
000002f0: 58b4 1fbc 57da 253d 5a1e cdbd f1f1 c3bd
00000300: 4f17 0ebd 9bc4 ea3d abe1 2cbd 3850 af3d
00000310: 8c0f ba3c 55a5 bfbc d162 90bd 623d d23c
00000320: 53d8 eebd 7ee7 833b 141b 9d3d a933 393d
00000330: 2604 87bd dacf d6bd ea18 a13d bc3e 973d
00000340: 3ddf e6ba b6ff b5bd dc27 47bb c305 0b3d
00000350: 3f26 17bd 656d 61bc 6ecd afbd 0fdb 853d
00000360: a735 da3d 81f4 293d 8fe1 cabd f808 013d
00000370: 9ad9 de3d 4d92 063d 520a 93bb bd2f bf3d
00000380: aea0 443c 68c5 b33d d707 f33d 9617 cebd
00000390: 5e8d dd3d 480b 43bd d4f1 243d cf54 8d3d
000003a0: 08e8 fc3d 45c2 a9bc 4b3e dd3b e1a3 44bc
000003b0: e453 a03d 33d9 88bd 81a9 a9bd 0785 c2bd
000003c0: 9b0d c03d c0d4 8f3d cd99 c63d 9104 36bb
000003d0: eb05 48bd 85e9 a13d b3ec ed3d 1bac 49bd
000003e0: d0f7 f1bd f741 173c 4923 af3d 889a b33d
000003f0: 5046 37bd 5b86 7c3d eaf3 fbbb bc07 c8bd
-0.017742075 0.13702588 0.00897843 0.095246896 0.09861154 0.010701282 0.03516894 -0.042295028
0.03662732 0.078712806 0.011452771 -0.062142804 -0.10053909 -0.095382646 0.05019763 0.049338803
0.05454793 0.016800659 0.09523287 0.009706046 -0.112005256 0.020827977 0.01836166 0.05208781
0.04159019 -0.011819854 -0.08524286 0.010944527 0.050913826 -0.05157884 0.07272146 0.080768555
0.04820971 -0.076908536 0.018856999 -0.036424436 -0.028279241 -0.12706122 -0.089006275 -0.01211421
0.010588292 -0.05622287 -0.101492524 -0.028103758 -0.057899073 -0.07557987 -0.06923285 -0.13252376
0.026218265 0.047054406 -0.032267127 0.12239994 -0.07580675 -0.00038131909 0.04519934 -0.07642107
0.020515488 0.1392266 0.01644187 0.07427224 0.118737295 0.0018127385 -0.10878326 -0.076486744
-0.014385701 0.038959727 0.092445076 0.06011402 0.11517413 0.031223908 0.014244455 -0.09909604
0.08844592 0.06191352 0.10507801 0.018480483 -0.008351956 -0.0110815205 -0.048166953 0.058584474
0.10553842 0.010482268 -0.067513324 -0.06684968 0.049023196 0.004431526 0.092566445 -0.1049376
0.10797229 0.0715799 -0.027141195 0.13005358 0.018826142 -0.010414919 0.08287178 0.028987521
0.086315654 0.092069976 -0.028459927 -0.06347429 0.103285596 -0.09861001 -0.003073569 0.04280088
0.0048208307 0.08046152 0.010174775 -0.0642899 -0.050051145 -0.106364936 0.0535443 0.08218526
-0.046673566 -0.11585017 0.042173274 -0.03411723 -0.043891188 0.020445619 0.11259505 0.121110916
-0.060244612 -0.049272798 0.09090524 0.04778754 0.09613227 0.07134338 -0.1194074 -0.043278206
-0.07388306 -0.075216755 0.103413135 -0.09414648 -0.002064283 -0.10875361 0.032851454 0.057778206
0.050835725 -0.13358538 0.004154355 0.06711772 -0.08902123 0.072727434 -0.044498578 -0.10250562
0.05936797 -0.031751134 0.048628673 0.053572655 -0.10930164 -0.097772434 -0.117829286 -0.10237034
-0.026224062 0.028252376 0.027607825 0.096742 -0.03310113 -0.09513157 0.050152577 -0.08311578
0.040539492 -0.072667494 0.10534533 0.046099477 -0.111571595 -0.078421995 0.09392098 0.119314805
-0.07208298 0.07909099 -0.023659447 0.0342206 0.10287981 0.011762751 -0.080034435 0.008687641
-0.04033801 -0.009738834 0.03011932 -0.036254495 0.08531477 -0.07341505 -0.03422603 0.047543988
-0.05964154 0.09133638 0.04252978 -0.05898121 -0.009747587 0.04049143 -0.10015555 -0.09567631
-0.034690198 0.11463281 -0.0422074 0.085602224 0.022712491 -0.023394266 -0.07050098 0.025664035
-0.11662354 0.0040253988 0.0767118 0.045215283 -0.06592588 -0.10488863 0.0786608 0.073850125
-0.0017614138 -0.088866636 -0.0030388748 0.03394104 -0.03690171 -0.013758992 -0.085841045 0.06535923
0.106547646 0.041492943 -0.09906303 0.031502694 0.10881348 0.032854367 -0.0044873143 0.09335277
0.0120012 0.08777887 0.1186673 -0.100630924 0.10817979 -0.04761818 0.040269688 0.069009416
0.12348944 -0.020722518 0.0067518107 -0.012001962 0.07828501 -0.066820525 -0.082842834 -0.09498029
0.09377595 0.07023001 0.09697304 -0.0027773718 -0.04883377 0.079058684 0.116174124 -0.0492364
-0.118148446 0.009232036 0.08551652 0.08769709 -0.04474479 0.06165157 -0.007688989 -0.097671

bias f4 [32]
00000000: d463 0dbd 0205 b23d 6c99 7e3b de85 783d
00000010: 31c6 c23d fd4d d2bb cb0c 39bc 6344 033e
00000020: 29f5 2ebe d274 8abc d653 0f3c b26f 1f3d
00000030: ee48 e43c af02 1ebe 23c2 7f3d 6714 483d
00000040: 7bd2 11bd 9800 a4bc 14cb 05be 0048 fbbb
00000050: 8ff6 0f3d 12fe 1ebe 7502 0cbb 5abf e3bc
00000060: 207e 61bd 8894 02be 2a87 1f3b acca e5bc
00000070: c99c c1bd 882e 2e3d 8837 11be e132 f9bd
-0.03451903 0.086923614 0.003884877 0.06067454 0.09510458 -0.0064179883 -0.011294554 0.12819056
-0.17085709 -0.016901407 0.008748015 0.03892488 0.027866807 -0.15430711 0.062441003 0.048847582
-0.03560112 -0.020019814 -0.1306575 -0.007668495 0.035147246 -0.15526608 -0.002136377 -0.027801204
-0.055051923 -0.12751973 0.0024342039 -0.028050743 -0.094537325 0.042524844 -0.1418134 -0.121679075

weight f4 [32, 32, 5, 5]
00000000: 2e66 993b 44c4 003d bbc8 083c 0499 e1bc
00000010: 5912 1e3d 2ec7 b73c fdce 7b3c 46d8 1c3c
00000020: 52bd e0bc 6331 db3c bb51 273c fe95 b33c
00000030: ec7c 5abc 560a 5ebc 6047 143c e0ff d73b
00000040: c521 a8bc 549a 35bc 38c6 bc3c d97b e73c
00000050: 3f7a a23a 5c58 a0bc df6f debc 7041 60bc
00000060: cdce 483c 520f 383d 2926 7ebc cba4 c33a
00000070: 262a c03b b01c 193c dbd7 633c cd89 6c3c
00000080: c2b4 203d dcbd 883b 7844 2e3d 37ef 1a3d
00000090: 0510 303d 4a00 a23b 3a7a 303c 7729 18bc
000000a0: 2646 69bb 445c d23c 0213 87bb 97df 7fbc
000000b0: 3f43 95ba 8c1c 093d 46c8 31bc 032d 0c3c
000000c0: d685 673c 364b d03c 25c7 e4bc 567e c2bc
000000d0: 26b2 543a 56cf d13c 2421 a8bc 709e 8abc
000000e0: 9c06 c5bb 2230 033b fc96 3b3a c720 463c
000000f0: 3467 9abb c6eb 103d b765 b93b ce2b 4bbb
00000100: 5de2 af3b 3ebe 173c 42a5 0d3d 1a17 7b3c
00000110: b160 d53c fc5d 23bc 5f95 113d 4895 97bc
00000120: 7011 da3c 8c09 243d 005c 11bc b853 ee3c
00000130: 5a5d 193d 0a44 34bc d2f5 d3bb e025 b23c
00000140: ff2a d03c ece3 813c c528 213d d371 c1bc
00000150: d214 9d3c 94df 0a3d f839 1a3c 00fa 2fbb
00000160: 3558 133d 57e0 473d 5c2d 353d a6aa 7d3c
00000170: 9a6e 283c c58c c5ba 44cd 283d 0e1d bf3c
00000180: eff0 fd3b 0d46 063d df2c 193d d976 93bc
00000190: af47 bb3b 3be6 673c 7812 7a3c 69a2 e33c
000001a0: 4604 c63c 6ae3 74bc fe3f bc3c cf9b abbc
000001b0: 2b62 fd3c 20fa d1bc 3fec 623a afed bebb
000001c0: b827 0c3d 4e11 443b 7f4a a2bc bdf5 a13c
000001d0: b919 963c 76ac bb3c af4f ad3b e22e a93c
000001e0: 5531 c9bc 7806 72bc c43c 83bc 7bd0 e53b
000001f0: d8d0 cd3c 0398 3a3d 6a5e 2abc 0d42 febb
00000200: 2bfb f2bb b7a6 8fbb 8f86 0c3d a140 acbc
00000210: 86f0 f13c 482c 2dbb f416 06bb 28f7 26bc
00000220: 708c 0fba 7fa3 d43c cbe7 d0bc 8767 063c
00000230: 399b d0bc a46d 57bb 83fa 9fbc e2db 7b3c
00000240: 2c5d 053d cbfe da3c d909 463b 3804 463b
00000250: 9379 1d3d 15bb 943c bf90 65bc ec46 fc3c
00000260: 0d9d d43c 63ea 373c 6fa1 c2bc 246a d03c
00000270: e156 96bc 535d 0f3d 2081 043d 4965 123d
00000280: 501e eeb8 74e4 d5bc f2bf 60bb bde2 e1bc
00000290: 5c71 a7bc c735 fe3c 992a b03c cd80 8d3c
000002a0: 1e71 133c 1d16 ee3c c447 d53c 195c 45ba
000002b0: 7349 4cba 5686 033d 65da b13c 57d1 98bb
000002c0: 3db4 84bb 805a 973c 9a5e 193d 4571 093d
000002d0: d3de d43c b8bb 57bc 79c0 3ebc 44cf 0a3c
000002e0: 8f8a 503b 6040 ce3c a1fb 0a3d a75f cc3c
000002f0: 1bda 7d3c e83c bb3c e6ba 293c 9eda bdbc
00000300: 6a57 893c a118 173c 0764 363d 2799 91bc
00000310: 54c8 f2bc cf99 a63c 2005 123d b3e4 133c
00000320: d80e 843c 6785 b93c 59fb b43c f6dc df3b
00000330: e2f7 fc3c 2397 0abd f90a 09bc 94cb 93bc
00000340: 2490 e1bb 50f7 a93c bac6 75bc 816b c1bc
00000350: 4a92 ec3b 26ac 33bd 1e79 d83c 5ca0 413c
00000360: 2fec 79bc 05ae 1fbd c64a d0bc 1b21 5cbc
00000370: 0e5c bebc 77c1 0fbc f516 15bd d849 24bc
00000380: bf63 ad3c ede6 583b 0a6b 1f3c fab5 6e3c
00000390: 40ee ab3c 1570 e4bc d51c 983c 1ac8 a73b
000003a0: 41d1 e83c b3ca ce3c f6ea 50bc 0ab3 a7bc
000003b0: 9a3e 053c 3e8b a33c 9f74 153d 291e 3f3c
000003c0: fdc8 10bc 453d 90bc c8e6 b5ba e61a dc3c
000003d0: 75a3 f13b cf42 dfbc b372 07bd d419 2bbc
000003e0: 8949 86bc 5a77 9abb 8244 d23c 6033 753c
000003f0: 7dce 9c3c b89d 0abc 2ee1 2f3a b428 003d
0.00468137 0.031437173 0.008348639 -0.027538784 0.038591716 0.022433843 0.015369174 0.009573048
-0.027434025 0.026756948 0.010212357 0.021922108 -0.013335448 -0.013552269 0.00905022 0.006591782
-0.020523915 -0.011084158 0.023043737 0.028257297 0.0012396051 -0.019573383 -0.027152954 -0.0136874765
0.012256336 0.044936486 -0.015512028 0.0014926431 0.0058643995 0.009345219 0.013906444 0.014437151
0.039234884 0.0041730236 0.042545766 0.03782579 0.042984027 0.004943882 0.010771329 -0.00928723
-0.003559479 0.025678761 -0.004122139 -0.015617273 -0.0011387839 0.03347449 -0.010850972 0.0085556535
0.01413103 0.025426488 -0.02792699 -0.023741882 0.00081137044 0.02561156 -0.020523615 -0.016921252
-0.006012751 0.0020017703 0.00071559823 0.012092776 -0.00471201 0.0353811 0.0056578773 -0.0031001451
0.005367561 0.009261666 0.03458143 0.015325332 0.026047083 -0.009971138 0.035542842 -0.0185038
0.026619643 0.040048167 -0.008872032 0.029092655 0.037442543 -0.01100255 -0.006468513 0.021746576
0.025411127 0.015855752 0.03934552 -0.023613846 0.019174967 0.033904627 0.009413235 -0.0026851892
0.035972793 0.04879793 0.04423271 0.01548258 0.010280276 -0.001507186 0.04121138 0.023329284
0.007749669 0.03278165 0.037396308 -0.018001007 0.0057153325 0.014154012 0.015263192 0.027787404
0.02417196 -0.014946798 0.022979733 -0.020948319 0.0309306 -0.025631964 0.0008656419 -0.005826674
0.034217566 0.002991754 -0.019810913 0.019770497 0.018322812 0.022909384 0.00528904 0.020652238
-0.024559656 -0.01477205 -0.016020186 0.007013378 0.025123999 0.045555126 -0.010398487 -0.0077593387
-0.0074151955 -0.0043838876 0.034308013 -0.021026911 0.029533636 -0.0026424099 -0.0020460458 -0.010190763
-0.0005475944 0.025956867 -0.025501153 0.008203394 -0.02546464 -0.0032871747 -0.019528633 0.015372248
0.03255956 0.026732823 0.0030218272 0.0030214917 0.03844602 0.018155614 -0.014011561 0.030795537
0.025953794 0.011225316 -0.023758618 0.025441237 -0.018351974 0.03500111 0.032349706 0.035741124
-0.000113543705 -0.026109912 -0.0034294096 -0.027573938 -0.020439796 0.031031502 0.021504687 0.017273331
0.008999137 0.029063279 0.026035197 -0.0007528677 -0.0007792927 0.032110535 0.021710584 -0.004663627
-0.0040498064 0.018475771 0.037443735 0.033555288 0.025985157 -0.013167314 -0.011642569 0.008472268
0.0031820869 0.02517718 0.03393138 0.024947954 0.015493895 0.02285619 0.0103595015 -0.023175534
0.016765315 0.009222181 0.044528987 -0.017773224 -0.02963654 0.020337014 0.03564942 0.009026694
0.01612036 0.022646619 0.022092508 0.0068317605 0.030879918 -0.03383554 -0.0083644325 -0.01804141
-0.006883638 0.02074781 -0.015000993 -0.023610832 0.0072195875 -0.043865345 0.02642494 0.011818018
-0.015254064 -0.038984317 -0.02542628 -0.013435627 -0.023237254 -0.008774153 -0.036398847 -0.010027371
0.021165727 0.0033096627 0.00973011 0.014569754 0.02098763 -0.027885476 0.018568436 0.0051202895
0.028420093 0.025243139 -0.012751332 -0.020471115 0.008132601 0.019963857 0.03648817 0.011664906
-0.008836982 -0.01760734 -0.0013877982 0.026868295 0.007374222 -0.027253537 -0.03306837 -0.01044317
-0.016392486 -0.004713935 0.025667433 0.014965862 0.01914143 -0.008460455 0.00067092746 0.031288818

bias f4 [32]
00000000: afc0 103d 2efc f3bc 0f19 4fbd 99a3 dd3c
00000010: 4ac8 813c 3211 1e3c e728 023d a4ce 80bc
00000020: 999f 2cbd 7e52 e63c b809 a03c fa7a 62bc
00000030: 4a08 123c 0375 82bc 0808 53bc 6480 ae39
00000040: eaeb 113c 3d14 74bd f863 103d 7cee 27bd
00000050: c3fb 113d 16c1 9bbc 8e39 a6bc 8cc3 fd3c
00000060: 94c8 283d 08e4 383a ae5f ccbb b334 4dbd
00000070: e19c 353c 242e 62bc a9fe 963b d939 f3bb
0.035340007 -0.029783335 -0.050561007 0.027055549 0.015842576 0.009647654 0.03177729 -0.015723534
-0.04214439 0.028115507 0.019535884 -0.013823265 0.008913109 -0.015924936 -0.012880333 0.00033283525
0.008906344 -0.059589613 0.035251588 -0.04099892 0.03564049 -0.019012969 -0.020291116 0.030977033
0.04120691 0.0007053022 -0.006236992 -0.050099086 0.011084766 -0.013804946 0.0046079946 -0.0074226675

weight f4 [64, 32, 5, 5]
00000000: 420a 95bc 4379 d63b dd48 0abc c1cc e1bc
00000010: 5ce2 d1bc 715d debc 407e 983c b983 3fbc
00000020: 315c 00bd 780c 833c a3f4 adbc 4288 a6bc
00000030: 4c3c c43c c797 43bc f730 323c 114a bfbb
00000040: 4ded d63c 5aba 0fbd ddce 07bd 21df 773a
00000050: a08d 07bd aa25 60bc 94d9 8d3c 7b45 08bd
00000060: 8eb0 a43c aedd b8bc f517 ef38 7bc2 adbc
00000070: e26d 683c a7a2 013b 9db2 0f3c 96c8 63bc
00000080: 9d66 72bb 4849 c6bc c1ef efbc 92ff 843c
00000090: 2285 0dbd 4ff3 ff3b 3aac 483b e5cd ddbc
000000a0: 9ed8 00bd 2867 123d 54bb 103d 2102 6cbc
000000b0: 83bf c43c 5590 9b3c 5a70 07bd f8ef 52bc
000000c0: a4a2 fb3c 01cf 00bd 54bc 5b3a 0f5c c73a
000000d0: 7376 753c dc13 bd3c ef07 15bd 2cee 05bd
000000e0: 035d 3cbc 161b eb3c 4885 a93b b620 08bd
000000f0: 1a26 07bd 5ad7 a939 b799 ca3c 4633 d7b9
00000100: 6943 04bd b3f8 b63c 84f5 00bd cc50 273c
00000110: 9ffd f0bb b05c 2abd f24c cb3c e2cf b73b
00000120: 5370 003d 14f9 84bb 2e8e 873c a691 fcbc
00000130: 627e 343a d89a a8bc dc9f 413c f6e2 debc
00000140: 7f6d a83c 4a08 963a 1257 dcbc b8c1 0abd
00000150: 78d1 513b 1505 323c a926 253b a6cd 5bbb
00000160: 2149 0f3c a824 f5ba cc33 8b3c c94d cbbc
00000170: 4dcd 88bc 6e20 693c c91a a53c 2852 8d3c
00000180: a0ab f53b 4e9f 32bc e0ee a9bc 9b86 733c
00000190: 7a0c b7ba 9bd3 30bc ff52 ba3c 1483 dabc
000001a0: dbdb c93c fee4 20bd b6ac 8e3c d505 0a3d
000001b0: cf67 f8bc e818 983a e360 2d3c d8ad c03c
000001c0: f04c dc3c 936c d13c f97a dc3c 4a77 ac3c
000001d0: bac0 02bd e412 02bd 3d00 a53c d619 96bc
000001e0: b274 c6bc edb1 d6bc 6032 02bd ddeb e03c
000001f0: f2ba a13c 7131 26bc b90b dfbb 3a89 f3bc
00000200: d26f 84ba a96c 15bb e4cb c63b d85b 0dbd
00000210: 53d9 ca3c 5f8a c63c 5ad9 0bbd f9d4 9b3a
00000220: cfa8 763c 4eda cbbc 0705 db3c 479b ad3b
00000230: b721 ef3c 581a d8b9 90d8 193d 3853 c23c
00000240: 1fb0 563b 0f68 ae3c 68c1 1bbc 33f2 e8bc
00000250: 42d7 c6bc fbcc b33c 1109 b23c 438b 39bb
00000260: 68ff a2bc bccf f53c 0226 88b9 7120 973b
00000270: 4fa4 993c 02bb 063d a3b8 543b fe7a 22bc
00000280: 5e64 b23c 991d dcbc dac1 92bc cbac 47bc
00000290: dbf2 3fbc 368b 18bd 788d 8db8 5f87 93bc
000002a0: 9f6a 05bd bcd5 9f39 8bd0 533c 4584 cbbb
000002b0: 3cf5 983c 1946 f13c 08e7 0fbd 44fc 27bc
000002c0: b4a4 583c 0a1f 36bc 75af f7bc 8a72 a0b8
000002d0: d859 ba3c 980c 403c 6d9c 8c3c 39d8 b73c
000002e0: 02d3 0abd 3103 db3c df76 6d3c b807 ed3c
000002f0: 9ac2 b53c 1705 22bd 55cb 0abd 7681 23bc
00000300: 3501 7dbc 1035 573c 0b5d 0dbb 89c5 23bc
00000310: 913a 67bb 9975 0a3d fabc 93bc e510 79bc
00000320: 4a90 a2bc 9c94 b03c ef05 dcbc 0fd7 93bc
00000330: c7ef de3c ccae 94bc ffbf f13c 41eb 3d3c
00000340: 74cf bc3b 2269 21bc 0ecb 6a3c 8eda a03c
00000350: d734 ab3c 4399 5d3c ac1b e9bb 6d97 ccbc
00000360: 0e98 f2bc 1580 b33c 07d5 033d 040c dbbc
00000370: 06fc f3ba 1d00 4bbb 765d b3bc 4b64 82bc
00000380: 9112 cb3b f4a1 b7bc 498e febc a214 f0bc
00000390: 7514 84bc c40d c6bc 3a4d 10bd 2449 07bc
000003a0: f5b6 12bc 53bb aa3c eacd 913c 39b6 05bd
000003b0: 84e8 dabc d426 e03c 834c 7c3c 18ba 163b
000003c0: ed87 f2bc ddac aa3c 60bc b73c f891 c13c
000003d0: ffa1 53bc b715 0cbd 9868 debb 801a d23c
000003e0: 473d 44bb 07ef c7bc 59c5 993c 159c ca3c
000003f0: 0aaf 3abc bbc6 30bc 4a4f 213c 3abc bfbb
-0.018193368 0.0065452172 -0.0084402235 -0.027563455 -0.025620632 -0.027144166 0.018614888 -0.01168912
-0.03133792 0.015997157 -0.021234816 -0.020328645 0.023954533 -0.011938042 0.010875932 -0.005837687
0.0262362 -0.035089828 -0.033156265 0.0009455551 -0.03309405 -0.013680855 0.017315663 -0.033269387
0.02010372 -0.022566643 0.000114008704 -0.0212109 0.014186354 0.0019780786 0.008770612 -0.013902804
-0.0036987432 -0.024204865 -0.029289128 0.016235147 -0.034550793 0.007810987 0.0030620233 -0.027075717
-0.031456582 0.03574291 0.0353349 -0.014404804 0.024017101 0.018989721 -0.03306613 -0.012874596
0.030717202 -0.031447414 0.000838225 0.0015209931 0.014981854 0.023080759 -0.03638452 -0.03269784
-0.011496785 0.028699439 0.005173359 -0.03323432 -0.03299532 0.0003239464 0.0247315 -0.00041046197
-0.03229085 0.022335386 -0.031484142 0.010212135 -0.0073544527 -0.0415923 0.024816964 0.0056094984
0.03135712 -0.0040580127 0.016547289 -0.03083117 0.00068852876 -0.020581648 0.011817899 -0.027207833
0.020560024 0.0011446562 -0.026896987 -0.03387615 0.0032015722 0.010865469 0.0025200045 -0.0033539324
0.008745463 -0.0018702941 0.016992472 -0.024817364 -0.016699458 0.014228923 0.020154374 0.01725109
0.007497266 -0.010902239 -0.020743787 0.014863635 -0.001396551 -0.010792638 0.022744654 -0.026673831
0.024640968 -0.039280884 0.01741634 0.033696968 -0.030322937 0.0011604102 0.010582182 0.023520395
0.026892155 0.025564468 0.026914107 0.021052975 -0.03192208 -0.031756297 0.020141715 -0.018322866
-0.024225567 -0.026207888 -0.031786323 0.027456218 0.019742463 -0.010143624 -0.0068068174 -0.02972852
-0.0010104126 -0.0022800362 0.006066786 -0.034511417 0.024761831 0.024235902 -0.03414283 0.0011889032
0.015054896 -0.02488437 0.026735796 0.0052980515 0.029190881 -0.00041218358 0.037560046 0.023721322
0.0032758785 0.021289853 -0.009506561 -0.028435802 -0.024272565 0.021948328 0.021732839 -0.0028311766
-0.019897178 0.030006282 -0.0002596826 0.0046120216 0.018755106 0.03289319 0.0032458685 -0.009917019
0.021776374 -0.026869582 -0.017914701 -0.012187193 -0.011715616 -0.037242137 -6.7497545e-05 -0.018008886
-0.032572385 0.00030486088 0.0129281385 -0.006210836 0.018671624 0.02945237 -0.035132438 -0.010253016
0.013222862 -0.011115799 -0.030235032 -7.650729e-05 0.022747919 0.011721753 0.017164433 0.02244197
-0.03389264 0.02673492 0.014493673 0.028934345 0.02218752 -0.039555635 -0.03388532 -0.009979596
-0.015442182 0.01313521 -0.002157035 -0.0099958265 -0.003528271 0.033803556 -0.018034447 -0.015201782
-0.019844193 0.021555237 -0.026858298 -0.018046884 0.027213944 -0.018149756 0.029510496 0.011591733
0.005762035 -0.009851726 0.014330639 0.019635465 0.02089922 0.01352531 -0.0071138944 -0.02497455
-0.029613521 0.02191166 0.03218558 -0.026739128 -0.0018614538 -0.003097541 -0.021895152 -0.015916964
0.0061972816 -0.022416092 -0.031073706 -0.029306713 -0.016123036 -0.024176486 -0.0352299 -0.008257184
-0.008954753 0.020841276 0.017798383 -0.032644484 -0.0267222 0.027362265 0.015399101 0.0022999104
-0.02960583 0.02083438 0.022428691 0.023629174 -0.012917041 -0.034200396 -0.006787371 0.025647402
-0.002994375 -0.02440597 0.01877086 0.024732629 -0.011394272 -0.010789569 0.009845564 -0.005851296

bias f4 [64]
00000000: 57eb 60bb cf54 19bb 0390 85bc 40c4 c3bc
00000010: 682b abbc 9606 d13c c126 0f3d c82e babb
00000020: 6b50 9dbb 1d72 883c 1be4 79bc 41ea 983c
00000030: 7153 a9bc 53e7 b2bc b94f 1bbc 09d8 fb3c
00000040: 58b1 a8bc e3bc fabc e98e d63c 9727 a13c
00000050: ab90 993b 484f 4dba 928f 753c 8028 0dbc
00000060: 6376 0d3d b045 483c cee6 1fbc 69a8 6cbc
00000070: 6f37 dc3b c8e2 c33c f72d 80bb 2fcc 913b
00000080: d428 41bd 3b06 03bc 328a 2fbc 6394 a0bc
00000090: b815 783b 9ae0 333c f5a7 25bc 2410 7a3c
000000a0: fad1 a4bc d5aa 04bd ac1c 533c 7766 ed3c
000000b0: e959 2b3d 61a2 53bc aac2 c03c 02ed a6bc
000000c0: 68f6 79bb a1b7 6cbc 1c7e 953a 07ac c63b
000000d0: 0014 23bc 94ac 2c3d 6e39 56bc cf31 f9bb
000000e0: 6c4c 473c f980 f93c d8ba 83bc 3a97 ccbc
000000f0: c307 293c 12d3 4a3c 2b44 4f3c 35d3 12bd
-0.003431996 -0.0023396497 -0.016304022 -0.02389729 -0.020894721 0.025515836 0.034949068 -0.0056818463
-0.0048008463 0.016655976 -0.0152521385 0.018666388 -0.02066967 -0.02183882 -0.009479457 0.030742662
-0.020592377 -0.030607646 0.026191192 0.019672198 0.004686435 -0.0007831943 0.014987843 -0.008615613
0.03453673 0.012223646 -0.009759618 -0.014444449 0.0067204754 0.023911849 -0.0039117294 0.0044493894
-0.047158077 -0.007997091 -0.010714101 -0.019602006 0.0037854742 0.010978842 -0.010110845 0.015262637
-0.020119656 -0.03238948 0.012885254 0.028979523 0.041833792 -0.012917132 0.023530323 -0.020376686
-0.0038141254 -0.014448077 0.0011405381 0.0060629877 -0.009953499 0.04215677 -0.013075216 -0.0076048146
0.0121642165 0.030457007 -0.016080305 -0.024974454 0.010316792 0.012379425 0.01265053 -0.035845954

weight f4 [64, 1024]
00000000: a34b 98bc 80da cebc 0888 b73a 8644 cfbc
00000010: 5b37 8d3c e0f0 c8bc 436c 2dbb ec93 853c
00000020: a145 853c d21d 973c 1ecd 15bd ef50 cfbb
00000030: ca39 83bc 05d3 a0bc 21aa 79bc b4fd e1bc
00000040: f726 a73b f81e 79ba 8692 aa3a 8c32 183c
00000050: c1f8 f63c 0e65 153c bcb3 133c 4bd8 afb8
00000060: ff26 86bc 969a 99bc 4b95 49bb 7fe6 b1bc
00000070: 0413 9bbc 0dab c13c f10f 1abd a901 ef3c
00000080: e197 3b3c 6640 a0bc 4526 a33c ffdc 37bc
00000090: ccdd 3cbc 402b f3bc 7ed5 ab3c 5666 cbbc
000000a0: a788 883b 1a30 e63c b125 ccbb 6648 363c
000000b0: c206 87bc 0840 88bc c575 c1bc 51c0 db3c
000000c0: 135f e3ba 15a7 d03c f231 ac3c e01c e13b
000000d0: ce03 4c3b c363 e8bc 875c bc3b 08ee f73b
000000e0: 9270 a53c 796a 97bb 7023 283b 1cbb 6b3c
000000f0: 5d25 0d39 534b 373c be16 bebc 41ad 0c3d
00000100: 85cf e03c e669 95bb 525f edb8 be96 e03c
00000110: e546 2dbc 0230 753c 8bf2 ac3c 7400 b2bc
00000120: be46 7f3c 8b92 a9bb 8c77 fdbc 7be4 e5bc
00000130: 8fd3 db3c dc9a d0bc b088 df3c 2502 a0bc
00000140: eecc 9ebb 3126 1abc 9359 78bb 05fe e4bc
00000150: 37a8 d73c 7e38 06bb d1ef fabc 7c75 4f3c
00000160: 4138 75bb 1213 8bbc 466a 80b8 d94a 2a3d
00000170: 12d6 1a3d d246 04bd 2326 f53c 32f9 613c
00000180: 365d d3bb 8b8f e2bc 7524 9dbc 94bc 07bd
00000190: 2c4d a8bc d2b5 573c f9fb b33c fb09 6739
000001a0: bff9 543c c6ff 193c 3dca 21bb cff5 56bb
000001b0: 45bf fb3c 2e17 34bc 1358 7d3b 9d9a f93b
000001c0: 00aa 7b3c 1693 46bc cb8a 49bb 7e2d e13c
000001d0: 497c a1ba e8b2 a3bc 760c cbbb 9256 00bd
000001e0: 8d4d bdbb a588 e1bc c601 233c 5ea7 1fbc
000001f0: 1084 13bc 397c 973c 8a0d c3bc 14b0 f2bc
00000200: cce8 87bc f043 223b 01f3 fdbb ae52 eb3c
00000210: fb35 4f3c 0214 8a3c e2e8 58bc f1ce abbc
00000220: 15e2 1dbc a2fc 85bb 0997 8cbc 0bd8 cc3c
00000230: 2797 c4bc cc77 5abb c2b6 40bb 3f9e 183c
00000240: 660a 5c3c a47d 403c 2ebf b7bc 2b7c 623c
00000250: c540 a6bc cbff e13a 1c58 483c a85c f63c
00000260: aaed 2a3c 97a7 073d 662d db3c b91e f03b
00000270: 920a 903a 1131 8fbc 9e20 ee3b 40a5 df3b
00000280: 726f bcbc c396 303c 2556 f1ba bd08 78bc
00000290: 24a2 6bbc f7fc ea3c bf66 f8bc 1188 a33c
000002a0: 20b8 f3bb 1054 ea3c 8229 1cbc f6e6 9d3c
000002b0: 7660 babc 61c5 ca3b cdd0 033d c090 fa3c
000002c0: 40f6 083d ffd2 ed3c 51c5 28bc 6176 f3bc
000002d0: d42e 6abc 6c98 053d 07fa 1fbb ce31 b13b
000002e0: a7ea a43c 34c2 f33c 7f6b 8ebc 255b c33b
000002f0: a304 533c 1788 f63b f052 a5bc e2ed bfbc
00000300: fcbe 423c 718b 56bc da6c 513c b6f9 5c3c
00000310: 3694 173c 6402 e03a 7827 19bc 82ef 5bbc
00000320: a277 95bc 9832 9d3c fec0 94bc c123 093d
00000330: 7bd4 c03c 5f5b 00bc deb3 7abc 8fae 7c3c
00000340: 8f66 f0bc cd79 14bc 4b19 4b3b 85aa c83c
00000350: c8c4 9bbc 5668 c23c 6d70 2c3c d055 e3bc
00000360: 5a05 95bc 6d69 40bd 909b 1f3c f144 88bb
00000370: aaf5 603c 6146 7bbb bc8f 02bd e935 873c
00000380: 7c90 e63c 48d6 a33a 7d2c 873c d077 e9bc
00000390: dc50 c1ba 4455 b8bc 8f53 51bc b2f8 a5bc
000003a0: 39f9 b9bc 4317 8e3c 4694 e93c 55fd 223c
000003b0: d45d 45bc 4eae f8bc 79a2 493c bec7 353a
000003c0: 64fc d1bb 94a3 bdbb 27d2 afbc 45a0 1dbc
000003d0: f0da 26bc 27dd c63c b893 b53c 76cd b8bc
000003e0: 0f51 08bd cefa 80bc 66ce 3c3a 6d46 cb3c
000003f0: c91f 243c f5fc 963c 5cc7 9fbc c55e 6cbc
-0.018590754 -0.025250673 0.0014002332 -0.02530123 0.01723831 -0.02452892 -0.0026462234 0.016305886
0.016268553 0.018446837 -0.036572568 -0.0063267867 -0.016018767 -0.019631872 -0.015238316 -0.027586795
0.0051010805 -0.0009503211 0.0013013638 0.009289395 0.030147912 0.009118332 0.00901502 -8.384938e-05
-0.016376017 -0.01875047 -0.0030759152 -0.021716354 -0.018929966 0.023641134 -0.03761286 0.029175596
0.011449785 -0.019561958 0.01991571 -0.011222123 -0.01152749 -0.02968371 0.020975824 -0.024829071
0.004166681 0.028099108 -0.006230079 0.01112566 -0.016482715 -0.016632095 -0.023615727 0.026825102
-0.001734706 0.025470296 0.02101991 0.0068698972 0.0031130197 -0.028367883 0.005748335 0.0075662173
0.02019528 -0.004620847 0.0025655888 0.014387872 0.00013460727 0.011187392 -0.023204204 0.034344915
0.027442703 -0.004559743 -0.000113187954 0.02741563 -0.010575985 0.014965059 0.021111747 -0.021728732
0.015580831 -0.00517494 -0.030940793 -0.02806305 0.026834277 -0.025464468 0.027286857 -0.019532273
-0.004846207 -0.00940852 -0.0037895187 -0.027953157 0.026325328 -0.002048045 -0.030631931 0.012662288
-0.0037417563 -0.016976867 -6.1233106e-05 0.041575287 0.03780181 -0.032294102 0.029925412 0.013792323
-0.0064503206 -0.027656337 -0.019182423 -0.033138826 -0.02054461 0.013165908 0.021970736 0.00022033595
0.012998997 0.00939936 -0.0024687194 -0.0032800322 0.030730853 -0.010991855 0.0038657233 0.0076173083
0.015360355 -0.012120029 -0.0030752893 0.027487513 -0.0012320365 -0.01998277 -0.006196554 -0.03133256
-0.005777067 -0.027530978 0.009949153 -0.009744493 -0.009003654 0.018491851 -0.023810167 -0.029624976
-0.016590498 0.0024759732 -0.0077499156 0.028725948 0.012647147 0.016855244 -0.013239117 -0.0209727
-0.009636422 -0.004088954 -0.017161863 0.025005361 -0.023997856 -0.0033335565 -0.0029405807 0.009315073
0.013430214 0.011748705 -0.022430029 0.013823549 -0.020294556 0.001724237 0.012228038 0.030073479
0.01043264 0.03311881 0.026755046 0.007327881 0.0010989478 -0.017479451 0.007267072 0.0068251193
-0.02300236 0.010778132 -0.0018412514 -0.015138802 -0.014381919 0.028685076 -0.03032243 0.019962342
-0.007437721 0.028604537 -0.009531381 0.01927517 -0.022751074 0.00618808 0.03218155 0.0305866
0.033437967 0.029031275 -0.01030095 -0.029719533 -0.014293391 0.032616064 -0.0024410503 0.0054075485
0.020131422 0.02975569 -0.017385243 0.005961793 0.012879523 0.0075235474 -0.02018115 -0.023428861
0.011886355 -0.013094769 0.0127823 0.01348727 0.009251645 0.0017090556 -0.009347789 -0.013423802
-0.018245522 0.019189164 -0.018158432 0.033481363 0.023538819 -0.007834285 -0.015301673 0.015422477
-0.029345779 -0.009062243 0.0030990418 0.024495373 -0.019014731 0.023731392 0.010524851 -0.02775088
-0.018191028 -0.04697554 0.009741679 -0.004158609 0.013730446 -0.003834151 -0.031875357 0.016505199
0.028145067 0.0012499774 0.016500706 -0.028499514 -0.0014748829 -0.022501595 -0.01277627 -0.020260189
-0.022701846 0.017345076 0.028513085 0.009948094 -0.012046296 -0.030356552 0.012306803 0.0006934366
-0.006408261 -0.0057873223 -0.021462513 -0.009620731 -0.010184035 0.024275376 0.022165164 -0.022558909
-0.03328043 -0.015744593 0.00072023866 0.024813855 0.010017344 0.018431166 -0.019504242 -0.014426892

bias f4 [64]
00000000: dedf b53b 3825 463c 4f44 10bd 74f4 283a
00000010: f6e7 823c 3987 b53c 862d fdbc fc4c d53c
00000020: 8a02 083d 3ff5 af3c 4994 893c 0f31 0b3c
00000030: 440b ad3c 6563 0abb 698f c9bb fff3 5dbc
00000040: e6c9 66bc ee77 c839 f7f5 8dbc 4935 bbbc
00000050: c114 b2bc bfec 073c d6a1 23bb 9a49 cebc
00000060: 9962 983c 716c 3d3c 405a 27bd 6c11 08bb
00000070: 4068 b4bc 31ca a93c fa2f 00bc fc06 03bc
00000080: 1e9d 05bd fb02 d73c 5202 583c 501d de3c
00000090: d61e 67bc 60a1 bb3c 4676 0c3d 7e8a 02bd
000000a0: 0811 d43c 2a16 90bb af75 02bc a25e 983c
000000b0: 3c8f b3bc 18ba 153c 7425 a73c f1d4 eabc
000000c0: 436d 683c a4ee 91bc 352a 5b3c 980f bdbc
000000d0: a633 c23b 6d54 ea3c fb71 763c 6c5e a63b
000000e0: e2b9 1cbc 2c2b eebb 9c8f 5c3c 02c9 79bc
000000f0: 7545 983b b814 35bd 7d9c 9e3c 6080 283d
0.0055503687 0.012093835 -0.035221394 0.0006445118 0.015979748 0.022159206 -0.030905496 0.026037686
0.033205546 0.021479247 0.01679434 0.008495583 0.021123536 -0.0021116373 -0.006151129 -0.013546943
-0.014086222 0.00038236327 -0.0173292 -0.022852557 -0.021738412 0.008296191 -0.0024968288 -0.02518158
0.018601703 0.011561499 -0.040857553 -0.0020762337 -0.022022367 0.020726295 -0.0078239385 -0.007997271
-0.03262054 0.026246538 0.013184147 0.027113587 -0.014106473 0.022904098 0.03429248 -0.031870358
0.025887027 -0.0043971734 -0.007962628 0.018599812 -0.021918885 0.0091386065 0.020403601 -0.028665992
0.014186206 -0.017813988 0.013376762 -0.023078725 0.005926567 0.02860471 0.0150418235 0.005077174
-0.009565802 -0.00726833 0.0134619735 -0.015245678 0.004646952 -0.044209212 0.019361729 0.041138053

weight f4 [10, 64]
00000000: 2d74 d23d f706 dd3b ba4e c33d 1bac 4d3c
00000010: f10e 0dbe fa6d 11be c0fb 4fbd b4e1 17bd
00000020: aa09 e1bc 1139 843d 97c3 d1bc f017 5e3c
00000030: f2e5 d4bc f687 8bbd 516a da3c 04bf 56bd
00000040: 5349 e63d 0c31 e7bd fb47 013e 6e29 a63d
00000050: a189 033e 0710 043d 9d2a 1cbc fe44 713d
00000060: d016 ddbd c144 533d 7323 013e 95e7 2cbc
00000070: 62d1 86bd c6f7 00be 84a8 ce3d a761 7d3d
00000080: 127e 5d3d 2443 943d 7d47 a6bd 85a9 01be
00000090: 5856 b13d 889f 94bd 0039 a1bd 9c12 f73d
000000a0: 85b8 6a3b d034 c83d 50ae 7b3d c53b 243d
000000b0: 6fd4 a83d 8121 e0bd ea07 c63d 659a 75bd
000000c0: ae4d 953d c40b b33c e9f6 d3bd 62f8 a43d
000000d0: 864f 2f3c 8c3f 66bd 2cad 2ebd b629 d4bd
000000e0: 02cd a63d 7d4a 853d d59e f13d d05d a53d
000000f0: aeb8 d43d 62d7 8a3d 34e3 f3bd 3e43 87bb
00000100: 16af 5e3c 95b9 0cbe d061 153e efe6 07be
00000110: 1dee bcbd 5937 243e 10b2 78bc fe22 603c
00000120: ae06 d43d 777f 6a3d eae6 9b3d c39b e43d
00000130: 56c3 dabd f2ec 1fbe aabe 0fbe dfcd be3d
00000140: 892a 73bc 748c 01be 5514 8abd bde7 2cbe
00000150: cb6a 123e ec79 b2bc d0be 34bd c41b 283d
00000160: e6e7 3c3d e0e0 753d a50d f8bd 3b05 d53d
00000170: 0d06 153d 64a6 be3d 515a 25bd afca e93d
00000180: cd17 0a3e 23d4 923d 9c1f 18be 2354 3ebd
00000190: e108 0ebe 305c afbd c75e 6e3d fb47 e53d
000001a0: 9067 87bc 082e 883c 7058 d9bd 68d7 963d
000001b0: 0eee 97bd 4905 ed3b d4e3 993d e533 a8bd
000001c0: 9562 f63d 7d6d bb3d 9016 3c3b 8086 2abe
000001d0: 46ed 33be bce2 83bd d00f b0bb 75ce eeba
000001e0: 7f50 833c 404a cebd a571 cdbd f85c 2bbe
000001f0: 6b0a d0bd e98e 81bd e609 e03c b0a8 d73c
00000200: 9423 a03d ff94 96bd 7473 07be 2993 9e3b
00000210: d465 e6bd 807a a83d 9944 27bd a117 e1bd
00000220: 1b81 77bd 9668 823d d093 23be cb52 bebd
00000230: bec8 f73d c21c b0bc 0d51 ff3d 982f 29bd
00000240: acb4 bbbd e2e1 3c3d fd0c 003e 4667 0dbc
00000250: 603c 0bbd 52b7 873d 4f28 ae3d b733 adbc
00000260: 9aa8 c13d fb4c c93c 9caf aabd a232 00be
00000270: 955f 12be acf6 cabd 9be9 713d e727 d83d
00000280: ce76 94bd 3033 b938 d5db a43d eb04 8dbd
00000290: 72a4 cb3d 02a4 e4bd 937e de3d b374 063e
000002a0: 2334 b83d 094c 24bd 5e95 09bb 9dde ca3d
000002b0: fe52 06be 4606 823d df42 65bd 7bd9 b63d
000002c0: 7df8 d43d 3d79 fdbd 0406 553d c52b d83d
000002d0: abb7 073e 043c 853d 1e26 a4bd aba8 a6bd
000002e0: ab8a f83d 9de4 283e b190 6ebc 2a74 c73d
000002f0: 9599 42bd 3738 43bd a9bc cfbd 6986 f73d
00000300: ad05 83bc 4713 e43d 0382 15be 3a26 a6bd
00000310: ffc0 6ebc 9831 903d 157b a53d 90ef 0b3c
00000320: 64b9 c3bd 81f5 ab3d b2ba 503d 8712 d9bd
00000330: ca87 293d 6adf 843d 84a4 3c39 4edc bebd
00000340: a153 ebbd 7386 613d 26d1 33bd a144 06bd
00000350: 0354 c9bd eb1e f7bd 65dd 92bd f4ee 95bd
00000360: e1c7 a33d 3c68 8ebd 68ac 78bd 6d81 39bc
00000370: e858 c63d 2de5 a7bc 7aeb 6c3a 28d7 df3d
00000380: 5c34 b03d f0f1 fa3d 34c2 b53d 57cd ec3c
00000390: 28f1 b9bd 1350 0e3e 5d15 0bbe 96b3 c63c
000003a0: 3533 92bc c574 bf3d 5dfa bcbd 2c98 8e3d
000003b0: 856a 893d ea3b c6bc c3f1 b7bd a27d e03c
000003c0: 0147 6fbd e871 20bd c6b5 413d 9df8 a6bd
000003d0: a0b8 cf3d e142 a83d 16c2 563d 23dc e6bd
000003e0: fcdd 0cbe 1317 9c3d de8f 503d 61f7 d93d
000003f0: 5e29 eb3d 4fc8 19be c35d 593d 6d23 a53d
0.10276065 0.006745215 0.095365 0.01255324 -0.13775231 -0.14202109 -0.050777197 -0.03708048
-0.027470428 0.06456197 -0.02560596 0.013555512 -0.025988553 -0.06813042 0.026662024 -0.05242826
0.11244454 -0.11288652 0.12625115 0.08113371 0.1284547 0.032241847 -0.009531644 0.058903687
-0.10795367 0.05157924 0.12611179 -0.01055326 -0.06582905 -0.12594518 0.100907356 0.061860707
0.05407531 0.072393686 -0.08119104 -0.12662323 0.08659047 -0.07256991 -0.078722 0.12064096
0.0035815549 0.09775698 0.061445534 0.040096063 0.082436435 -0.1094389 0.09669478 -0.059961695
0.07290207 0.021856196 -0.10349829 0.08055188 0.010700112 -0.056212947 -0.04264562 -0.10359518
0.08144571 0.06508348 0.11797873 0.08074534 0.10386787 0.06779362 -0.1190857 -0.004127889
0.013591548 -0.13742669 0.14588094 -0.13271688 -0.09225104 0.16036738 -0.015179172 0.013680218
0.103528365 0.057250466 0.07612403 0.11162522 -0.106817886 -0.15617731 -0.14037576 0.093166105
-0.014841684 -0.12651235 -0.06742159 -0.16885276 0.14298551 -0.021786653 -0.044127285 0.041042104
0.046119593 0.06002891 -0.121119775 0.10401388 0.036382724 0.0930908 -0.040369336 0.11415612
0.13485642 0.07169368 -0.14855808 -0.046466958 -0.13870575 -0.08562505 0.058195855 0.1119537
-0.016528875 0.016623512 -0.10612571 0.07365304 -0.07418452 0.007233296 0.07514158 -0.08213023
0.12030522 0.091517426 0.0028699972 -0.1665287 -0.17570981 -0.064397305 -0.0053729787 -0.0018219488
0.016029594 -0.10072756 -0.100314416 -0.16734684 -0.10158237 -0.06326086 0.02734847 0.026325554
0.07819286 -0.073526375 -0.13227636 0.00483932 -0.11249891 0.0822649 -0.040836904 -0.10990835
-0.06042586 0.063676044 -0.15974355 -0.09293135 0.120988354 -0.021498088 0.12466631 -0.041305155
-0.0916532 0.046113856 0.12504955 -0.008630579 -0.033993125 0.066267624 0.08503782 -0.021142824
0.09455986 0.02457284 -0.08334276 -0.12519315 -0.14294274 -0.0991033 0.059060674 0.10554486
-0.07249223 8.831022e-05 0.08049742 -0.06885704 0.09943475 -0.111640945 0.10863986 0.13130455
0.08994319 -0.040111575 -0.002099357 0.09905741 -0.13117597 0.06348853 -0.055971976 0.089282
0.10398958 -0.1237664 0.05200769 0.105552234 0.13253658 0.06505588 -0.08015083 -0.081376396
0.12135824 0.16493459 -0.014560864 0.097389534 -0.04750975 -0.047661033 -0.10143406 0.120861836
-0.015993917 0.11136489 -0.14600377 -0.0811276 -0.014572381 0.07040709 0.08080117 0.008541003
-0.09556845 0.083964355 0.050959297 -0.10599237 0.041389264 0.06487925 0.00017990364 -0.093193635
-0.1149056 0.05505986 -0.04390063 -0.032780293 -0.09830477 -0.12066444 -0.07171134 -0.07320967
0.07997108 -0.06953475 -0.060711294 -0.011322361 0.09684926 -0.020495022 0.0009037774 0.1092971
0.08603737 0.12253177 0.08874932 0.028906507 -0.090792 0.13897733 -0.13582368 0.024255555
-0.017846683 0.09348444 -0.092274405 0.06962618 0.0670977 -0.024198491 -0.08981659 0.027403656
-0.058417324 -0.03917113 0.047292493 -0.08152888 0.10142636 0.08215881 0.05243119 -0.112724565
-0.13756555 0.076215886 0.050918452 0.10642887 0.114824995 -0.15017818 0.053067934 0.080633976

bias f4 [10]
00000000: 8e72 92bd 1921 973c 82e8 4fbd ce4d 8a3d
00000010: 8d20 213c 49ba ee3c ba2c 393d 1d6b af3d
00000020: bebd 383b 0a88 873d
-0.07150756 0.0184484 -0.050758846 0.06753121 0.009834421 0.029141562 0.04520867 0.08565352
0.0028189267 0.06617744
