p27model_5.pth (torch, 588587 bytes, 10 tensors)

weight f4 [32, 3, 5, 5]
0.009435042 0.16646448 0.052373126 0.13333035 0.1329078 0.03727123 0.056831192 -0.015222267
0.061934654 0.101926625 0.019634327 -0.064713724 -0.0977594 -0.09000616 0.060066275 0.059240535
0.05629661 0.029012285 0.11407115 0.038982224 -0.108444765 0.02278988 0.03220043 0.07487059
0.073342234 -0.02447853 -0.09720941 0.013985963 0.049179208 -0.055165417 0.059966296 0.062142503
0.03523274 -0.093416855 0.0018270619 -0.066884644 -0.07167929 -0.1665368 -0.12767884 -0.04444144
-0.019003375 -0.09712243 -0.13321172 -0.052759558 -0.069907136 -0.10819826 -0.10568074 -0.15758333
0.0111651225 0.04267398 -0.040432785 0.116814554 -0.06644857 0.004766707 0.04821168 -0.07914907
0.015528592 0.14158538 0.015381449 0.07048192 0.107759066 -0.01732219 -0.121976696 -0.08997158
-0.025264606 0.03475905 0.08107423 0.05826997 0.11898699 0.04443449 0.005158596 -0.108501546
0.09007033 0.0720823 0.1233377 0.031689536 -0.022711514 -0.030923653 -0.05998235 0.058309156
0.14081 0.017892689 -0.0930587 -0.08539083 0.057164423 0.022656916 0.107205324 -0.12916036
0.09636407 0.09382653 -0.023132732 0.15399899 0.027677827 -0.0015581427 0.11639331 0.028189143
0.10515995 0.11157606 -0.026448991 -0.05276801 0.11229854 -0.12178239 -0.033779126 0.021980269
-0.0035173954 0.10875134 0.0068965806 -0.101636 -0.078555666 -0.10687406 0.059782784 0.08221813
-0.085760914 -0.14018935 0.053482626 -0.043489546 -0.03553499 0.013555662 0.10820592 0.14336608
-0.07288781 -0.044715025 0.09556767 0.037171304 0.09572254 0.078085 -0.1444802 -0.07450554
-0.093520105 -0.084528066 0.12905271 -0.1000817 -0.03978909 -0.13561946 0.03095127 0.06054244
0.045556173 -0.17684846 -0.022451777 0.0733503 -0.0991225 0.07688837 -0.056276035 -0.1104055
0.075764485 -0.04151777 0.052305285 0.056083687 -0.12006755 -0.099861376 -0.14961849 -0.13495165
-0.04732451 0.017359335 0.013294323 0.084782004 -0.051537696 -0.115877785 0.032243274 -0.10915951
0.04129057 -0.07193668 0.100079305 0.034732368 -0.13084586 -0.068986446 0.113348976 0.13787591
-0.06061594 0.0829149 -0.008080294 0.05751144 0.123157315 0.02587885 -0.070808955 -0.013155648
-0.061793387 -0.020014448 0.027146058 -0.044569083 0.083810985 -0.08032895 -0.04423731 0.038110387
-0.07823995 0.10049525 0.051869277 -0.056900486 -0.014818414 0.027783627 -0.08603431 -0.0720104
-0.012841325 0.12886128 -0.03479301 0.10025791 0.04425132 -0.0051375306 -0.05865667 0.03303207
-0.13432586 -0.012843674 0.07144851 0.045353737 -0.07134341 -0.10249691 0.07569261 0.06831788
-0.0075678173 -0.103166215 0.009153965 0.045133922 -0.032630567 -0.016791992 -0.09562929 0.08237696
0.13075781 0.06420118 -0.08382255 0.04051006 0.12516344 0.05413688 0.014417064 0.10617693
0.020650823 0.08581396 0.14550908 -0.09100359 0.09706234 -0.059344307 0.035944637 0.12115428
0.15266989 -0.055055127 -0.009956494 -0.013812712 0.13883367 -0.03638507 -0.13309178 -0.11091667
0.10100782 0.11737313 0.115848586 -0.048197094 -0.052626017 0.080734126 0.1368575 -0.05646487
-0.1672166 -0.0068394486 0.08035469 0.10924236 -0.04249309 0.043134738 -0.025310323 -0.103834845
00000000: 6f95 1a3c aa75 2a3e 3485 563d c087 083e
00000010: fb18 083e b8a9 183d d3c7 683d d166 79bc
00000020: 31af 7d3d e8be d03d 2bd8 a03c a188 84bd
00000030: 1536 c8bd 2655 b8bd 0e08 763d 34a6 723d
00000040: 4697 663d 2cab ed3c 239e e93d d3ab 1f3d
00000050: 4a18 debd d8b1 ba3c 99e4 033d c055 993d
00000060: 7434 963d 3387 c8bc ba15 c7bd 6125 653c
00000070: 2370 493d 22f5 61bd 389f 753d 2389 7e3d
00000080: 3550 103d 5651 bfbd 067a ef3a d1fa 88bd
00000090: 97cc 92bd 9f88 2abe 3ebe 02be 3a08 36bd
000000a0: f7ac 9bbc 20e8 c6bd a768 08be 681a 58bd
000000b0: 792b 8fbd 0d97 ddbd 256f d8bd 865d 21be
000000c0: ebed 363c e9ca 2e3d d99c 25bd 783c ef3d
000000d0: 3016 88bd 0932 9c3b 9c79 453d e818 a2bd
000000e0: a36b 7e3c c2fb 103e 7902 7c3c d358 903d
000000f0: c9b0 dc3d 44e7 8dbc ebce f9bd 0543 b8bd
00000100: b8f7 cebc 815f 0e3d 3f0a a63d 7eac 6e3d
00000110: 73af f33d f100 363d 7109 a93b 0f36 debd
00000120: cb76 b83d e39f 933d 7a98 fc3d e3cc 013d
00000130: 7f0d babc 9a53 fdbc 0db0 75bd 95d5 6e3d
00000140: 7f30 103e b093 923c 8f95 bebd 63e1 aebd
00000150: 3e25 6a3d ff9a b93c 778e db3d 9d42 04be
00000160: 875a c53d 2028 c03d db80 bdbc e9b1 1d3e
00000170: 9cbc e23c 983a ccba 9e5f ee3d ebec e63c
00000180: 1a5e d73d fd81 e43d 8eab d8bc 4523 58bd
00000190: c7fc e53d 0c69 f9bd fb5b 0abd f70f b43c
000001a0: 1a84 66bb 06b9 de3d b6fc e13b 8926 d0bd
000001b0: cbe1 a0bd cae0 dabd cbde 743d fb61 a83d
000001c0: 6ba3 afbd cc8d 0fbe 9910 5b3d 1822 32bd
000001d0: 238d 11bd 9118 5e3c 119b dd3d 8fce 123e
000001e0: 3446 95bd 1a27 37bd fcb8 c33d f040 183d
000001f0: 2e0a c43d 07eb 9f3d 9ef2 13be 5c96 98bd
00000200: 7887 bfbd 0d1d adbd 6526 043e a2f7 ccbd
00000210: e3f9 22bd d4df 0abe 858d fd3c 59fb 773d
00000220: 1c99 3a3d c317 35be caec b7bc af38 963d
00000230: bd00 cbbd a677 9d3d b381 66bd 471c e2bd
00000240: 692a 9b3d 8a0e 2abd 113e 563d 02b8 653d
00000250: fae5 f5bd 1f84 ccbd 9735 19be c430 0abe
00000260: 58d7 41bd 2a35 8e3c 6fd0 593c 30a2 ad3d
00000270: 3119 53bd 5551 edbd 8611 043d 058f dfbd
00000280: 4d20 293d 8a53 93bd 61f6 cc3d 8743 0e3d
00000290: 75fc 05be c448 8dbd 8223 e83d 582f 0d3e
000002a0: 6b48 78bd 49cf a93d 3663 04bc 1e91 6b3d
000002b0: e739 fc3d e2ff d33c 4904 91bd c98a 57bc
000002c0: 101b 7dbd 57f5 a3bc 6961 de3c 128e 36bd
000002d0: 18a5 ab3d 8183 a4bd 2e32 35bd a319 1c3d
000002e0: 443c a0bd 74d0 cd3d e174 543d 7c10 69bd
000002f0: efc8 72bc 7d9a e33c c232 b0bd 307a 93bd
00000300: 6c64 52bc 36f4 033e 1e83 0ebd 0554 cd3d
00000310: df40 353d bb58 a8bb fa41 70bd a34c 073d
00000320: b88c 09be 466e 52bc 9953 923d d7c4 393d
00000330: 7e1c 92bd e6e9 d1bd ba04 9b3d 3fea 8b3d
00000340: 74fb f7bb cf48 d3bd 83fa 153c 59de 383d
00000350: a1a7 05bd 5c8f 89bc 4ad9 c3bd 40b5 a83d
00000360: 60e5 053e e97b 833d 28ab abbd e0ed 253d
00000370: d82a 003e a2be 5d3d 8d35 6c3c 4a73 d93d
00000380: ea2b a93c 3bbf af3d 5500 153e 1760 babd
00000390: 9fc8 c63d 0413 73bd af3a 133d bc1f f83d
000003a0: 7f55 1c3e 7c81 61bd 9020 23bc b74e 62bc
000003b0: 6a2a 0e3e 8308 15bd 3649 08be 4728 e3bd
000003c0: 30dd ce3d 5361 f03d 0642 ed3d 516a 45bd
000003d0: 618e 57bd ef57 a53d 5f24 0c3e b547 67bd
000003e0: d43a 2bbe 741d e0bb 0091 a43d 75ba df3d
000003f0: 3c0d 2ebd 0dae 303d 9857 cfbc 5da7 d4bd

bias f4 [32]
-0.12111966 0.10542395 -0.0027006618 0.1138062 0.142699 -0.066002205 0.0062106075 0.13552153
-0.28761223 -0.016210739 0.0032517186 -0.025942056 0.0065096137 -0.2444879 -0.03103104 0.07201135
-0.14976878 -0.08085845 -0.20237513 0.033213317 0.06693075 -0.24733892 -0.0014372178 -0.16060217
-0.08451506 -0.19606619 0.010506346 -0.0061115623 -0.12659998 0.14707178 -0.15283132 -0.10176245
00000000: 960d f8bd 83e8 d73d 96fd 30bb 3a13 e93d
00000010: b01f 123e 2a2c 87bd 5a82 cb3b 28c6 0a3e
00000020: e941 93be 62cc 84bc c91a 553b 6f84 d4bc
00000030: 994e d53b 095b 7abe cf34 febc b07a 933d
00000040: fd5c 19be 1d99 a5bd 6d3b 4fbe b00a 083d
00000050: fd12 893d 6a46 7dbe 0761 bcba e574 24be
00000060: 3b16 adbd 93c5 48be cf22 2c3c 8043 c8bb
00000070: 6da3 01be fc99 163e d07f 1cbe d568 d0bd

weight f4 [32, 32, 5, 5]
0.0033954778 0.032050654 0.0094543565 -0.0276072 0.03581633 0.025092581 0.023671776 0.017264633
-0.021302084 0.03209679 0.01296733 0.02926961 -0.0063141845 -0.0035559193 0.018438743 0.009476519
-0.01490755 -0.00443146 0.03306651 0.03777914 0.0019870768 -0.017553046 -0.025893094 -0.009453749
0.019139813 0.045208294 -0.016407242 0.004184879 0.010995188 0.015707 0.015557419 0.018687563
0.04375386 0.009326623 0.051072497 0.04231211 0.050698914 0.011659845 0.015879333 -0.0038677568
-0.0035060334 0.027548898 -0.002060447 -0.015475873 -0.0067198686 0.034254 -0.005826573 0.0140577415
0.018324828 0.023226757 -0.023006758 -0.020624427 0.0027586615 0.02913473 -0.015607757 -0.0105629
-0.003563543 0.001932834 0.0025492413 0.015291233 0.0024919873 0.036549784 0.004572672 -0.0070112483
0.0017319731 0.017257208 0.039288558 0.019340085 0.023929937 -0.015139205 0.03894127 -0.01320242
0.034500953 0.044172253 -0.009788732 0.031238353 0.044324543 -0.0020492573 0.0004744107 0.027147103
0.035360675 0.027909562 0.04981701 -0.015261401 0.025457153 0.049145162 0.022222996 0.011641422
0.044089247 0.052046195 0.05650377 0.025847964 0.026411805 0.0032096677 0.038070682 0.032832388
0.016171878 0.047338422 0.04071092 -0.024477035 0.005160635 0.012132394 0.01666478 0.030694483
0.027191764 -0.01868791 0.021099959 -0.018712098 0.035085797 -0.02163059 -0.00062314584 -0.0018930407
0.04191323 0.011344861 -0.012073049 0.013606435 0.016380228 0.026001532 0.008216996 0.02172333
-0.029851357 -0.014305578 -0.009943758 0.012484985 0.028090257 0.050717965 -0.005733025 -0.0027356946
-0.0050561116 -0.0034197257 0.043110102 -0.014318871 0.03821713 0.0045443666 0.0039012246 -0.0006697397
0.008634638 0.040121403 -0.014284302 0.01867464 -0.02266752 -0.00041163524 -0.013146691 0.020735092
0.038556475 0.026504768 0.002970554 0.006639285 0.041783065 0.023162313 -0.0077013164 0.037363887
0.033668976 0.021324903 -0.013712613 0.028314628 -0.012890825 0.04057423 0.036534447 0.039461546
6.295419e-05 -0.021061275 0.0014451899 -0.028155526 -0.025543457 0.035303917 0.033186264 0.030062556
0.018018553 0.025049534 0.025759127 0.00958698 0.013150489 0.045883205 0.023639647 -0.0067312564
-0.003724236 0.022926774 0.040307388 0.03468451 0.024992738 -0.008140417 -0.0020316737 0.016769132
0.0071188547 0.023021167 0.04029141 0.034851912 0.029150672 0.029585712 0.0024522333 -0.022701617
0.021704808 0.01872144 0.0510545 -0.027006151 -0.033052024 0.021436779 0.03912494 0.01441808
0.01962133 0.023100914 0.019615315 0.004882816 0.03212324 -0.031271376 -0.01338494 -0.027378507
-0.009483715 0.025070595 -0.0031843898 -0.020186646 0.0045478 -0.042981774 0.034818836 0.02680293
-0.008560646 -0.03931758 -0.023545578 -0.005485429 -0.011834335 -0.0026792772 -0.0337495 -0.006435071
0.026257535 -0.0039605866 0.006874376 0.015945613 0.020926867 -0.032108724 0.014543124 0.007551797
0.032701947 0.028244311 -0.013269444 -0.01803991 0.01598264 0.028936734 0.04973186 0.023699492
-0.009387812 -0.013929013 0.0043695774 0.033777837 0.014323645 -0.024471113 -0.030810237 -0.007818109
-0.015153287 -0.0027970131 0.018417401 0.012849656 0.018447641 -0.01409245 -0.009754876 0.027184416
00000000: aa86 5e3b 8c47 033d 72e6 1a3c 7f28 e2bc
00000010: 25b4 123d f58e cd3c 50eb c13c 8f6e 8d3c
00000020: b581 aebc ec77 033d ed74 543c d2c6 ef3c
00000030: 38e7 cebb 6d0a 69bb d90c 973c 6743 1b3c
00000040: cc3e 74bc c835 91bb c070 073d 4dbe 1a3d
00000050: 9e39 023b 68cb 8fbc c11d d4bc e6e3 1abc
00000060: 19cb 9c3c 552c 393d 7b68 86bc 4f21 893b
00000070: 2925 343c f7ab 803c 8be4 7e3c a916 993c
00000080: 3f37 333d b1ce 183c 6531 513d 774f 2d3d
00000090: aaa9 4f3d ef08 3f3c 6015 823c 317a 7dbb
000000a0: 7bc5 65bb 3aae e13c 9008 07bb 848e 7dbc
000000b0: 5832 dcbb ec4d 0c3d d6ec bebb 7152 663c
000000c0: f31d 963c 0a46 be3c ab78 bcbc 8ff4 a8bc
000000d0: a9ca 343b f5ab ee3c adb7 7fbc 0410 2dbc
000000e0: 558a 69bb 2657 fd3a 2c11 273b 1488 7a3c
000000f0: 9c50 233b 3ab5 153d 5ad6 953b 9dbe e5bb
00000100: 6003 e33a fd5e 8d3c 0aed 203d 196f 9e3c
00000110: b708 c43c 6e0a 78bc e280 1f3d f74e 58bc
00000120: df50 0d3d f7ed 343d eb60 20bc 93e7 ff3c
00000130: a78d 353d d54c 06bb 54ba f839 9a63 de3c
00000140: 5bd6 103d 98a2 e43c ec0c 4c3d f50a 7abc
00000150: 858b d03c 704c 493d 000d b63c aabb 3e3c
00000160: ed96 343d 642e 553d 7f70 673d 1cbf d33c
00000170: 925d d83c 4a59 523b 01f0 1b3d 417b 063d
00000180: e37a 843c efe5 413d 7ec0 263d 1084 c8bc
00000190: 8b1a a93b f3c6 463c 9484 883c ff72 fb3c
000001a0: 43c1 de3c 6317 99bc d2d9 ac3c 1d4a 99bc
000001b0: 20b6 0f3d a332 b1bc 9c5a 23ba e81f f8ba
000001c0: 35ad 2b3d ccdf 393c 0ace 45bc 86ed 5e3c
000001d0: d42f 863c 2a01 d53c 94a0 063c 20f5 b13c
000001e0: d58a f4bc f161 6abc 25eb 22bc d38d 4c3c
000001f0: 8a1d e63c a4bd 4f3d 19dc bbbb 5749 33bb
00000200: bdad a5bb 7a1d 60bb 3894 303d b399 6abc
00000210: 9189 1c3d e9e8 943b b0ab 7f3b 7891 2fba
00000220: 4c78 0d3c 5756 243d b408 6abc 8ffb 983c
00000230: 3cb1 b9bc bfd0 d7b9 3865 57bc a4dc a93c
00000240: 65ed 1d3d 8720 d93c a0ad 423b 5c8e d93b
00000250: b824 2b3d e4be bd3c 535b fcbb e00a 193d
00000260: 7be8 093d 90b1 ae3c deaa 60bc 14f4 e73c
00000270: 0a34 53bc 2a31 263d 25a5 153d 6ea2 213d
00000280: 4606 8438 b288 acbc 876c bd3a 6ba6 e6bc
00000290: 8340 d1bc d79a 103d 52ee 073d c045 f63c
000002a0: a59b 933c ae34 cd3c ce04 d33c b512 1d3c
000002b0: 2675 573c 07f0 3b3d efa7 c13c df91 dcbb
000002c0: 5012 74bb eed0 bb3c 5c19 253d 5811 0e3d
000002d0: 92bd cc3c 625f 05bc d425 05bb 6b5f 893c
000002e0: 4845 e93b e396 bc3c 9b08 253d e1c0 0e3d
000002f0: 64cd ee3c bc5d f23c a6b5 203b bef8 b9bc
00000300: 48ce b13c b55d 993c 861e 513d 013c ddbc
00000310: 8f61 07bd 2f9c af3c 7941 203d d039 6c3c
00000320: e9bc a03c 213e bd3c 4cb0 a03c 0800 a03b
00000330: a993 033d 6a16 00bd 824c 5bbc e448 e0bc
00000340: 9561 1bbc d960 cd3c 32b1 50bb 775e a5bc
00000350: b605 953b a80d 30bd 329e 0e3d d191 db3c
00000360: f441 0cbc 790b 21bd a8e2 c0bc 1dbf b3bb
00000370: cce4 41bc d096 2fbb ea3c 0abd 4add d2bb
00000380: 0b1a d73c cfc7 81bb 7242 e13b 60a0 823c
00000390: d26e ab3c 7084 03bd 4846 6e3c 1175 f73b
000003a0: 7af2 053d 9d60 e73c 1568 59bc 6fc8 93bc
000003b0: 07ee 823c bb0c ed3c a3b3 4b3d 7025 c23c
000003c0: 56cf 19bc 8436 64bc ac2e 8f3b a15a 0a3d
000003d0: b9ad 6a3c a577 c8bc c065 fcbc 8717 00bc
000003e0: 7e45 78bc 184e 37bb 17e0 963c 5d87 523c
000003f0: 821f 973c 05e4 66bc ead2 1fbc dab1 de3c

bias f4 [32]
0.017539814 -0.047278974 -0.09668848 0.00025098585 0.0030848682 0.043396845 0.012803386 -0.06168109
-0.06558838 0.07604724 0.02404588 -0.013058615 0.020703938 -0.025119824 -0.005857955 -0.0041635917
-0.004019418 -0.0782118 0.062648594 -0.056827683 0.007730068 -0.043910425 0.0035835674 0.0685193
0.029825533 -0.027498448 0.0024800866 -0.1032064 -0.005601363 -0.020919586 0.0022995688 -0.04030735
00000000: a8af 8f3c 99a7 41bd 9c04 c6bd c096 8339
00000010: 802b 4a3b e4c0 313d 4bc5 513c 50a5 7cbd
00000020: 3353 86bd a8be 9b3d defb c43c cdf3 55bc
00000030: 4e9b a93c 17c8 cdbc 17f4 bfbb bd6e 88bb
00000040: 52b5 83bb 822d a0bd e84d 803d 25c4 68bd
00000050: 834c fd3b 6bdb 33bd 49da 6a3b d953 8c3d
00000060: ad54 f43c 6d44 e1bc f388 223b e15d d3bd
00000070: a38b b7bb 8d5f abbc 5db4 163b 5219 25bd

weight f4 [64, 32, 5, 5]
-0.006269227 0.016070558 -0.004838713 -0.029907657 -0.027323266 -0.028037516 0.015587467 -0.017245542
-0.03471161 0.016194943 -0.017129848 -0.015464451 0.027445687 -0.003538395 0.021853268 -0.003462772
0.029370211 -0.034756176 -0.03245992 0.0024779276 -0.029320043 -0.013668033 0.013922069 -0.032772753
0.023393515 -0.025291676 0.00028471928 -0.024848308 0.0061934213 -0.0028414673 0.008078463 -0.010649061
-0.0071873846 -0.032416433 -0.03640473 0.02184473 -0.024422552 0.016589284 0.008457358 -0.024554854
-0.026399579 0.04849251 0.04359672 -0.013907509 0.022674363 0.019970328 -0.030242799 -0.012063736
0.033168085 -0.026632804 0.0007364582 0.00125762 0.012954361 0.021330127 -0.04191168 -0.05268917
-0.02560122 0.023318313 0.008851602 -0.036638208 -0.021544836 0.021763973 0.049342573 0.020434065
-0.026143655 0.013361359 -0.037094884 0.0022318233 -0.015572195 -0.05190097 0.030036021 0.018613618
0.04361912 -0.0007507647 0.012906994 -0.03530253 -0.0026264247 -0.025874576 0.0025823708 -0.03769689
0.013229157 -0.0037796514 -0.031398166 -0.039008167 -0.0030806698 0.011937944 0.0059574535 -0.0021406203
0.008633527 -0.0028551344 0.018126639 -0.023709735 -0.013561381 0.017982656 0.021777647 0.025552904
0.017548015 -6.960146e-05 -0.011722276 0.019149624 0.006065306 -0.0033784113 0.02633855 -0.023638336
0.025348103 -0.057929438 -0.0013027496 0.019543715 -0.034687147 -0.0025874902 0.023901299 0.045561396
0.051065132 0.048928753 0.04210314 0.016522672 -0.030306373 -0.03896499 0.007322923 -0.031242462
-0.024071453 -0.018486828 -0.02446343 0.029718366 0.018812822 -0.012686737 -0.0066327816 -0.033461865
-0.0044136588 0.0009840755 0.005136873 -0.03230128 0.020083003 0.018898198 -0.03390172 -0.0028912944
0.015456519 -0.027008984 0.026051717 0.008021947 0.027292963 0.0028085266 0.038560074 0.023273122
0.0037336652 0.016791139 -0.010362187 -0.03281206 -0.029182483 0.020828942 0.019433517 -0.0063749813
-0.023440467 0.02647623 -0.0051785167 0.0037857785 0.016000835 0.031581677 0.0026183643 -0.012241695
0.01849094 -0.03360981 -0.022374611 -0.014038943 -0.013503313 -0.041707404 -0.008190774 -0.022263462
-0.031128813 0.00022292884 0.008684438 -0.013728714 0.015046204 0.030656662 -0.035820503 -0.012257825
0.01373422 -0.01395835 -0.032433596 -0.007458299 0.013951379 0.00948237 0.012467737 0.023931587
-0.036549516 0.022507528 0.019049197 0.028919391 0.024173526 -0.041933145 -0.041756164 -0.014363077
-0.022123259 0.009426596 -0.0071346136 -0.011104758 0.000473131 0.03676655 -0.016439445 -0.018789886
-0.03167562 0.009430779 -0.034139197 -0.019587725 0.02262014 -0.03283798 0.0177161 0.009823106
0.014139373 -0.006709357 0.01050812 0.020940356 0.026547346 0.022407439 -0.0042787944 -0.032330573
-0.037075676 0.016679006 0.02874073 -0.03230069 -0.009403857 -0.0057466207 -0.021458019 -0.017185729
0.0029423747 -0.023383891 -0.02883984 -0.029957756 -0.013234574 -0.014559716 -0.030659718 0.0010089962
-0.0056334147 0.02414201 0.024396326 -0.03838011 -0.03061776 0.01972767 0.014273885 0.007074808
-0.031327825 0.02390529 0.020966647 0.024611566 -0.007994918 -0.039588038 -0.00918536 0.018423606
-0.008852827 -0.026224522 0.021029398 0.028009236 -0.011118801 -0.012456888 0.010274018 -0.0067214994
00000000: 166e cdbb 67a6 833c 118e 9ebb e700 f5bc
00000010: 0bd5 dfbc efae e5bc 9362 7f3c 8646 8dbc
00000020: c32d 0ebd 42ab 843c e553 8cbc 9c5e 7dbc
00000030: c7d5 e03c 6be4 67bb a005 b33c acef 62bb
00000040: cc99 f03c 7e5c 0ebd b1f4 04bd ba64 223b
00000050: 9630 f0bc e3ef 5fbc 6419 643c b93c 06bd
00000060: c2a3 bf3c 7d30 cfbc 6046 9539 ae8e cbbc
00000070: 2ff2 ca3b e937 3abb 885b 043c 6679 2ebc
00000080: 2784 ebbb 18c7 04bd 201d 15bd b8f3 b23c
00000090: ce11 c8bc 40e6 873c bb90 0a3c 4327 c9bc
000000a0: ee43 d8bc 15a0 463d 7992 323d 52dc 63bc
000000b0: 96bf b93c d098 a33c bfbf f7bc faa6 45bc
000000c0: 42db 073d 0a2d dabc e00e 413a bad6 a43a
000000d0: 873e 543c 85bc ae3c 95ab 2bbd 99d0 57bd
000000e0: a6b9 d1bc 0c06 bf3c 4f06 113c f211 16bd
000000f0: cc7e b0bc 5c4a b23c 701b 4a3d 5765 a73c
00000100: 382b d6bc 9ae9 5a3c cef0 17bd c843 123b
00000110: 8522 7fbc 1d96 54bd 1a0e f63c 967b 983c
00000120: f6a9 323d f7ce 44ba db77 533c 6399 10bd
00000130: 1820 2cbb ebf6 d3bc fe3c 293b 0e68 1abd
00000140: 1bbf 583c 07b4 77bb 5d9b 00bd 07c7 1fbd
00000150: 10e5 49bb 5e97 433c be36 c33b a649 0cbb
00000160: a373 0d3c 351d 3bbb 517e 943c eb3a c2bc
00000170: 8e30 5ebc 5d50 933c 0967 b23c 5354 d13c
00000180: dbc0 8f3c 00f7 91b8 ca0e 40bc acdf 9c3c
00000190: 79bf c63b 5668 5dbb f1c3 d73c 2fa5 c1bc
000001a0: d3a6 cf3c 6b47 6dbd 06c1 aaba 241a a03c
000001b0: 1c14 0ebd e292 29bb a8cc c33c 969e 3a3d
000001c0: ac29 513d 8469 483d 5874 2c3d 8e5a 873c
000001d0: 1245 f8bc c199 1fbd 21f5 ef3b 31f0 ffbc
000001e0: 7f31 c5bc b071 97bc 8867 c8bc ee73 f33c
000001f0: 591d 9a3c 08dc 4fbc ce57 d9bb 4f0f 09bd
00000200: 74a0 90bb 18fc 803a 3753 a83b 594e 04bd
00000210: 1c85 a43c 65d0 9a3c 88dc 0abd df7b 3dbb
00000220: 573d 7d3c f241 ddbc 696a d53c 7c6e 033c
00000230: 7e95 df3c 420f 383b 2bf1 1d3d 46a7 be3c
00000240: 82b0 743b 928d 893c 2ac6 29bc f065 06bd
00000250: 1a10 efbc 75a1 aa3c 0a33 9f3c 38e5 d0bb
00000260: 3906 c0bc aee4 d83c 8cb0 a9bb d31a 783b
00000270: 2f14 833c ca5b 013d dd98 2b3b 6491 48bc
00000280: 507a 973c 71aa 09bd f64a b7bc 9803 66bc
00000290: 003d 5dbc 62d5 2abd 9932 06bc dd61 b6bc
000002a0: da01 ffbc 01c2 6939 2c49 0e3c 66ee 60bc
000002b0: 5b84 763c ae23 fb3c 85b8 12bd 0bd5 48bc
000002c0: 7e05 613c 90b1 64bc 17d9 04bd bf64 f4bb
000002d0: 5394 643c f15b 1b3c 7b45 4c3c 2d0c c43c
000002e0: f2b4 15bd b561 b83c 100d 9c3c 5ce8 ec3c
000002f0: 8f07 c63c 17c2 2bbd 8308 2bbd 1c53 6bbc
00000300: d63b b5bc 0272 1a3c 7ac9 e9bb bbf0 35bc
00000310: 910e f839 8698 163d 04ac 86bc 3fed 99bc
00000320: 4bbe 01bd 8e83 1a3c 8bd5 0bbd 7076 a0bc
00000330: df4d b93c 1e81 06bd 5b21 913c 18f1 203c
00000340: d4a8 673c 2ada dbbb 402a 2c3c 1c8b ab3c
00000350: d279 d93c ce8f b73c 2135 8cbb 106d 04bd
00000360: aadc 17bd 69a2 883c ae71 eb3c ba4d 04bd
00000370: a312 1abc 264e bcbb bac8 afbc 16c9 8cbc
00000380: dbd4 403b 938f bfbc 8741 ecbc f869 f5bc
00000390: d4d5 58bc e08b 6ebc 172a fbbc 4b40 843a
000003a0: 8298 b8bb 77c5 c53c ceda c73c 7634 1dbd
000003b0: 19d2 fabc ec9b a13c 03dd 693c cad3 e73b
000003c0: 9b51 00bd 07d5 c33c 3fc2 ab3c 329e c93c
000003d0: 1efd 02bc 1127 22bd 317e 16bc 1aed 963c
000003e0: 730b 11bc cfd4 d6bc d845 ac3c a073 e53c
000003f0: a22b 36bc fa17 4cbc 5b54 283c 0640 dcbb

bias f4 [64]
-0.0077487105 -0.02234761 -0.041012626 -0.043664873 -0.02659277 0.011641909 0.023554433 -0.011986955
0.0021930877 0.016899291 -0.032613304 0.014324649 -0.026980164 -0.043645654 -0.04302371 0.038357936
-0.03362632 -0.047157817 0.037533116 0.027361842 -0.010547278 -0.007949487 0.0052899527 -0.012593313
0.045278758 0.016186643 0.011235914 -0.025712712 0.0051029585 0.030260753 -0.019140847 -0.015728604
-0.07033832 -0.01762988 -0.03476207 -0.018865164 -0.008773803 -0.019247716 -0.045048814 0.007133451
-0.04746984 -0.04335628 0.015203632 0.010560133 0.047204122 -0.022924379 0.012098044 -0.013252011
-0.024812644 -0.0285493 -0.0061622886 -0.020558443 -0.020517096 0.044785377 -0.02617104 -0.019318363
-0.0015633786 0.021653652 -0.037638094 -0.037392233 -0.005681881 0.01151449 -0.0071106134 -0.043710303
00000000: e5e8 fdbb 5612 b7bc dbfc 27bd f0d9 32bd
00000010: 15d9 d9bc b5bd 3e3c 3af5 c03c ef64 44bc
00000020: e8b9 0f3b 6270 8a3c 8795 05bd efb1 6a3c
00000030: 8105 ddbc c9c5 32bd a139 30bd 361d 1d3d
00000040: c1bb 09bd 8e28 41bd 53bc 193d f125 e03c
00000050: 7ece 2cbc 913e 02bc 5757 ad3b 2f54 4ebc
00000060: 3876 393d da99 843c d716 383c 77a3 d2bc
00000070: b836 a73b 66e5 f73c 44cd 9cbc 46d9 80bc
00000080: 8a0d 90bd 8a6c 90bc ac62 0ebd 1e8b 9abc
00000090: ffbf 0fbc 63ad 9dbc 1b85 38bd b9bf e93b
000000a0: bc6f 42bd 5b96 31bd a818 793c 6804 2d3c
000000b0: 1c59 413d e8cb bbbc e036 463c f61e 59bc
000000c0: e343 cbbc 39e0 e9bc 06ed c9bb 2e6a a8bc
000000d0: 7813 a8bc df70 373d a664 d6bc 8b41 9ebc
000000e0: 48ea ccba 0063 b13c 672a 1abd 9928 19bd
000000f0: 132f babb 45a7 3c3c 2600 e9bb 9309 33bd

weight f4 [64, 1024]
-0.020891411 -0.03374367 -0.00031870982 -0.021818543 0.018432096 -0.01924285 -0.0023260668 0.016073957
0.020949047 0.023814902 -0.038397647 -0.0046284813 -0.015215274 -0.020355955 -0.018808527 -0.029018132
0.019547012 0.013432155 0.012883797 0.022815121 0.02924337 0.0018070634 0.005074096 0.010160842
-0.021067046 -0.022377715 -0.003464632 -0.012788787 -0.014113519 0.028808316 -0.03503738 0.046072036
0.018610414 -0.017281005 0.016959418 -0.016115477 -0.0042178417 -0.0309167 0.025959441 -0.025868565
0.008069923 0.02917946 0.0048191077 0.018951364 -0.019179165 -0.030514527 -0.02500554 0.028569331
-0.00012767277 0.023650154 0.027504044 0.015379907 0.014431374 -0.031912442 0.013203067 0.017430814
0.020309681 -0.0072991624 -0.0006631457 0.011451576 0.005662934 0.014700088 -0.02111188 0.043565027
0.023669759 -0.002748076 0.0015651932 0.031911217 -0.013422753 0.010523315 0.021251172 -0.025002971
0.017605487 -0.00599394 -0.030932095 -0.031648204 0.034064326 -0.023348011 0.021500453 -0.021352492
-0.0009085441 -0.00988481 -0.003613756 -0.02462813 0.028707862 -0.006482865 -0.033919044 0.024603695
0.0061310856 -0.027137067 -0.0037209764 0.049901016 0.046060666 -0.037475638 0.023881331 0.016331347
-0.009809546 -0.027925793 -0.026721682 -0.045509927 -0.020542324 0.012611309 0.027393805 -0.0069715353
0.006976561 0.007365724 -0.006519999 -0.015551167 0.021849085 -0.012630783 -0.0042918944 -0.01756715
0.020865045 -0.02015889 0.00057277776 0.036843065 0.0040462078 -0.02057864 0.001567636 -0.031006299
0.00032205292 -0.032739647 -0.006952027 -0.015748147 -0.0029306659 0.022246 -0.021498384 -0.025327167
-0.017221503 -0.0010134093 -0.010253916 0.026428724 0.012337463 0.01832678 -0.014121749 -0.010916351
-0.017511364 -0.003914686 -0.017197814 0.026501447 -0.020076972 -0.0033681581 -0.0027249535 0.009335374
0.014622036 0.005351937 -0.028573552 0.014387032 -0.019280588 0.0022316503 0.01379356 0.037122976
0.008222176 0.03249781 0.028625952 0.010474123 -0.0067388634 -0.021566788 0.0057193795 0.004843713
-0.014004241 0.01722787 0.0011420883 -0.013650352 -0.005233841 0.035148483 -0.028434671 0.029646188
-0.0016724997 0.037628602 -0.0042104833 0.024232134 -0.024555178 0.00014344169 0.03007611 0.03515405
0.030056406 0.029579272 -0.015609838 -0.037049107 -0.012802694 0.033623576 -0.007900811 0.0043474254
0.027151626 0.0332835 -0.021995414 0.013311905 0.016689176 0.01899801 -0.019670906 -0.022860061
0.008020955 -0.008312108 0.014425731 0.008271874 0.008083613 -0.004191034 -0.0085977875 -0.016296905
-0.023835568 0.018338181 -0.021318916 0.031951986 0.029341659 0.0018058599 -0.01419379 0.013209611
-0.018882528 -0.01554538 0.0037448015 0.031982478 -0.014266923 0.034935348 0.006272942 -0.038581725
-6.1556624e-05 -0.054254133 0.015621336 0.013019148 0.01839448 -0.006895871 -0.04141859 0.020587036
0.031556793 0.0038518854 0.014924651 -0.030499514 0.0062393127 -0.015772875 -0.011071729 -0.013701762
-0.015121915 0.013402213 0.023593208 0.011703718 -0.007303605 -0.037527107 0.012667565 -0.0076121264
-0.0017658144 -0.01323066 -0.028203018 -0.0069236183 -0.0014779763 0.021919185 0.025806617 -0.011983901
-0.023798048 -0.007217619 0.005671611 0.033716083 0.0135535225 0.019825019 -0.015922865 -0.012907398
00000000: 7724 abbc cd36 0abd 8218 a7b9 cdbc b2bc
00000010: e8fe 963c 2ea3 9dbc ed70 18bb 88ad 833c
00000020: 569d ab3c 7817 c33c da46 1dbd 84aa 97bb
00000030: 7c49 79bc 88c1 a6bc 5714 9abc 6fb7 edbc
00000040: 0e21 a03c 8b12 5c3c 9016 533c c7e6 ba3c
00000050: cb8f ef3c fcda ec3a 9a44 a63b a979 263c
00000060: cc94 acbc 7851 b7bc e10e 63bb 0f88 51bc
00000070: 643c 67bc 6bff eb3c 5b83 0fbd 08b6 3c3d
00000080: de74 983c e590 8dbc 7aee 8a3c 9b04 84bc
00000090: d235 8abb 0545 fdbc e5a8 d43c 50ea d3bc
000000a0: b637 043c c309 ef3c 9be9 9d3b e43f 9b3c
000000b0: a01d 9dbc 9af9 f9bc 6bd8 ccbc 3b0a ea3c
000000c0: e6df 05b9 f8bd c13c 2950 e13c 01fc 7b3c
000000d0: 9271 6c3c 9fb6 02bd ad51 583c 11cb 8e3c
000000e0: 7d60 a63c d02d efbb f4d6 2dba 649f 3b3c
000000f0: 2290 b93b a3d8 703c d2f2 acbc 3e71 323d
00000100: 15e7 c13c 1119 34bb 2b27 cd3a 56b5 023d
00000110: 1beb 5bbc fb69 2c3c f016 ae3c 08d3 ccbc
00000120: 6239 903c d068 c4bb 4e65 fdbc 8ca1 01bd
00000130: 0987 0b3d 5444 bfbc b821 b03c 6ceb aebc
00000140: 5d2b 6eba e6f3 21bc c4d4 6cbb efc0 c9bc
00000150: c02c eb3c 376e d4bb b2ee 0abd b08d c93c
00000160: 46e7 c83b 8e4e debc a0db 73bb 0265 4c3d
00000170: 1caa 3c3d 0e80 19bd c8a2 c33c 51c9 853c
00000180: 38b8 20bc a2c4 e4bc 6ee7 dabc 9e68 3abd
00000190: 6048 a8bc aa9f 4e3c f968 e03c 7a71 e4bb
000001a0: a39b e43b 2c5c f13b b7a5 d5bb 52ca 7ebc
000001b0: dafc b23c 58f1 4ebc 05a3 8cbb fce8 8fbc
000001c0: 2ced aa3c 4224 a5bc 7726 163a c1e8 163d
000001d0: 0d96 843b 8994 a8bc 2379 cd3a ec00 febc
000001e0: 36d9 a839 021a 06bd d4cd e3bb 4202 81bc
000001f0: 6a10 40bb 3e3d b63c 611d b0bc eb7a cfbc
00000200: 1c14 8dbc 60d4 84ba 0a00 28bc 0d81 d83c
00000210: 1223 4a3c 0b22 963c e95e 67bc 7fda 32bc
00000220: fe73 8fbc c446 80bb 6ee2 8cbc 9019 d93c
00000230: 7678 a4bc 51bc 5cbb 2295 32bb 66f3 183c
00000240: 4491 6f3c 4d5f af3b 1513 eabc 96b7 6b3c
00000250: 53f2 9dbc e140 123b 62fe 613c 430e 183d
00000260: 4eb6 063c 6c1c 053d f980 ea3c a89b 2b3c
00000270: afd1 dcbb d5ac b0bc a269 bb3b 02b8 9e3b
00000280: 0b72 65bc 7621 8d3c 20b2 953a baa5 5fbc
00000290: a480 abbb dbf7 0f3d d4ef e8bc 90dc f23c
000002a0: c737 dbba 7320 1a3d 18f8 89bb 7882 c63c
000002b0: f127 c9bc d668 1639 2d62 f63c b1fd 0f3d
000002c0: da38 f63c 3b50 f23c 68c0 7fbc cec0 17bd
000002d0: 64c2 51bc e0b8 093d 6772 01bc d974 8e3b
000002e0: 166d de3c 4754 083d ba2f b4bc 2d1a 5a3c
000002f0: bdb7 883c b7a1 9b3c e124 a1bc 0645 bbbc
00000300: 536a 033c 822f 08bc e759 6c3c c186 073c
00000310: 2171 043c f154 89bb bcdd 0cbc 1681 85bc
00000320: cf42 c3bc f439 963c 02a5 aebc 16e0 023d
00000330: eb5d f03c 9ab2 ec3a 128d 68bc 206d 583c
00000340: 88af 9abc 0db2 7ebc 586b 753b 0f00 033d
00000350: d0bf 69bc 5e18 0f3d 408d cd3b df07 1ebd
00000360: f617 81b8 9539 5ebd a2f0 7f3c 444e 553c
00000370: 05b0 963c c2f6 e1bb 8aa6 29bd 25a6 a83c
00000380: b241 013d ea6f 7c3b 8686 743c 1eda f9bc
00000390: 2673 cc3b 1e36 81bc 3266 35bc 5b7d 60bc
000003a0: e9c1 77bc f594 5b3c 8b46 c13c f4c0 3f3c
000003b0: 1453 efbb 06b6 19bd 9e8b 4f3c 256f f9bb
000003c0: e672 e7ba 69c5 58bc 040a e7bc 85df e2bb
000003d0: a8b8 c1ba dd8f b33c 6668 d33c 2058 44bc
000003e0: 20f4 c2bc c781 ecbb ecd8 b93b e019 0a3d
000003f0: 980f 5e3c 1468 a23c ab70 82bc 8d79 53bc

bias f4 [64]
0.009031924 0.025585998 -0.041803773 0.0011639865 0.031386506 0.02716937 -0.030743744 0.022959834
0.031269323 0.017191755 0.021691255 -0.0032099276 0.019244118 0.021867465 -0.0043483907 -0.011365927
-0.01747422 0.018181466 -0.022592021 -0.0362286 -0.03678282 -0.0074377903 -0.004731159 -0.021663046
0.032802317 -0.008517713 -0.037434623 0.004378255 -0.019951193 0.025091467 -0.027172435 -0.00041005612
-0.03876728 0.01824748 0.021036256 0.047706082 -0.025037175 0.02177332 0.043664955 -0.039962556
0.022980463 -0.012058066 -0.0026930172 0.012857309 -0.031729598 0.0029304894 -0.0015418408 -0.026886629
-6.060471e-05 -0.019808147 0.030678412 -0.032969333 0.017482843 0.03349031 0.027363371 -0.0016422437
-0.02473559 -0.0015343569 0.020465614 -0.013273692 0.016228298 -0.04020291 0.043933693 0.060043834
00000000: a3fa 133c ba99 d13c 6f3a 2bbd e890 983a
00000010: 238f 003d 4c92 de3c 4eda fbbc 4316 bc3c
00000020: 4314 003d b9d5 8c3c dcb1 b13c a65d 52bb
00000030: d7a5 9d3c 6623 b33c f27c 8ebb 2738 3abc
00000040: 1826 8fbc 4cf1 943c e712 b9bc 7164 14bd
00000050: 95a9 16bd b5b8 f3bb d707 9bbb b376 b1bc
00000060: b95b 063d e18d 0bbc 0c55 19bd 7777 8f3b
00000070: af70 a3bc 9f8c cd3c ba98 debc cdfc d6b9
00000080: 70ca 1ebd bd7b 953c 3a54 ac3c 7467 433d
00000090: c31a cdbc f65d b23c 06da 323d c7af 23bd
000000a0: 8641 bc3c 328f 45bc 557d 30bb 76a7 523c
000000b0: e5f6 01bd 740d 403b 9817 caba 5941 dcbc
000000c0: d031 7eb8 b244 a2bc 4b51 fb3c da0a 07bd
000000d0: 2e38 8f3c 232d 093d 2629 e03c 8e40 d7ba
000000e0: 4ba2 cabc 791c c9ba 81a7 a73c e679 59bc
000000f0: 35f1 843c ceab 24bd d1f3 333d 86f0 753d

weight f4 [10, 64]
0.14719673 -0.0065360274 0.13658488 0.003574947 -0.16456015 -0.18667023 -0.09124802 -0.056063566
-0.00865923 0.05609082 -0.05441356 0.025191613 -0.06730419 -0.08359202 0.045227952 -0.0060754553
0.15224308 -0.14340346 0.16828983 0.0879629 0.16682267 0.006313698 -0.035299372 0.067403205
-0.121358566 0.049553886 0.16832638 0.021129368 -0.0862861 -0.1778533 0.07720401 0.10880741
0.09210715 0.09040388 -0.11565546 -0.15545371 0.07945929 -0.109297596 -0.10250615 0.16677621
0.016874699 0.11424939 0.0657884 0.037223138 0.07058792 -0.14661072 0.13547048 -0.077276886
0.081314534 0.051389452 -0.121160366 0.08703209 0.01348643 -0.086222455 -0.05150723 -0.12443706
0.07208498 0.071881965 0.15396622 0.07248808 0.119599305 0.110236846 -0.11148267 0.012188622
-0.0016289506 -0.16815735 0.21309392 -0.1655981 -0.09402817 0.22879992 -0.046368692 -0.02217116
0.12557985 0.07843311 0.07570693 0.19048637 -0.13033776 -0.20857915 -0.15993479 0.13071136
-0.0058530327 -0.1830547 -0.06904704 -0.21827711 0.19746311 -0.06734225 -0.048485998 0.04424351
0.03134803 0.06947426 -0.11960249 0.12746595 0.022544736 0.12860061 -0.067838244 0.16552609
0.20881684 0.08954184 -0.2173895 -0.03535723 -0.17332293 -0.09309369 0.062248886 0.14599945
-0.05676896 0.019915245 -0.11325688 0.054345474 -0.123665735 -0.026091205 0.093158565 -0.07954462
0.13638455 0.14160171 -0.013854425 -0.21735957 -0.2460528 -0.13558336 0.021588326 0.02269931
-0.003875704 -0.122910306 -0.13220027 -0.22843127 -0.10983673 0.01555492 0.087106094 0.04427166
0.07806809 -0.089614585 -0.16956018 0.005582122 -0.1462584 0.09813282 -0.044394042 -0.13094617
-0.0874243 0.07650925 -0.18511908 -0.1289224 0.13479275 -0.03236888 0.14890015 -0.045108497
-0.13823758 0.02532308 0.1264068 0.007189419 -0.05733108 0.06435427 0.100057155 -0.03261683
0.12502645 0.029420631 -0.089435324 -0.14607288 -0.15083082 -0.103509456 0.067463 0.11175029
-0.09166643 0.021974873 0.105514444 -0.07535548 0.1233551 -0.09397178 0.09374948 0.13582207
0.10269744 -0.036386255 -0.014490259 0.122845545 -0.14787191 0.08806797 -0.06897224 0.122898825
0.11810043 -0.14847416 0.04484619 0.106667995 0.14495513 0.095514804 -0.08899345 -0.08097752
0.11904039 0.18717538 -0.015159847 0.11190681 -0.06084805 -0.08764033 -0.12498545 0.12779817
-0.028445559 0.12541595 -0.20007353 -0.059590336 -0.049957242 0.087097056 0.08791295 0.016894763
-0.11882612 0.10465008 0.041871157 -0.15300357 0.06178413 0.07448252 0.02474703 -0.1209755
-0.12764665 0.061767615 -0.07424136 -0.032736868 -0.11368529 -0.11202304 -0.06217074 -0.10370185
0.06737101 -0.06307906 -0.10581726 -0.010545537 0.11743828 -0.026510952 0.008433806 0.09199123
0.08062053 0.14762604 0.10674361 0.012853263 -0.072982796 0.1501693 -0.14861113 -0.0020335142
0.002069329 0.11096476 -0.1275477 0.092155576 0.0731067 -0.0023885872 -0.09248552 0.019372322
-0.056493185 -0.07038143 0.061679494 -0.063860305 0.11384581 0.12531564 0.05594483 -0.12366156
-0.14471331 0.100640394 0.04900295 0.12610842 0.11361613 -0.23125762 0.039485257 0.072516374
00000000: bdba 163e 2c2c d6bb e8dc 0b3e a849 6a3b
00000010: 7582 28be 7b26 3fbe 3ee0 babd e9a2 65bd
00000020: 71df 0dbc 7dbf 653d c1e0 5ebd a45e ce3c
00000030: c7d6 89bd 4b32 abbd f240 393d 9d14 c7bb
00000040: 9ce5 1b3e 5bd8 12be 2b54 2c3e e525 b43d
00000050: 90d3 2a3e 23e3 ce3b 1396 10bd b10a 8a3d
00000060: d78a f8bd 04f9 4a3d c05d 2c3e 7f17 ad3c
00000070: c4b6 b0bd 2d1f 36be 231d 9e3d 6bd6 de3d
00000080: aca2 bc3d ab25 b93d c5dc ecbd 422f 1fbe
00000090: 8dbb a23d 6bd7 dfbd bfee d1bd 62c7 2a3e
000000a0: cf3c 8a3c 96fb e93d 12bc 863d 4a77 183d
000000b0: 6690 903d 1f21 16be c6b8 0a3e 5843 9ebd
000000c0: 3c88 a63d bf7d 523d ed22 f8bd e13d b23d
000000d0: 30f6 5c3c 6695 b0bd 3ff9 52bd dbd8 febd
000000e0: 4aa1 933d da36 933d 52a9 1d3e a174 943d
000000f0: 7bf0 f43d dbc3 e13d 0751 e4bd c9b2 473c
00000100: 8382 d5ba 7131 2cbe 4b35 5a3e 8c92 29be
00000110: d791 c0bd 874a 6a3e 19ed 3dbd 4ba0 b5bc
00000120: 0198 003e 8aa1 a03d 3c0c 9b3d dc0e 433e
00000130: 4377 05be c695 55be f2c5 23be 33d9 053e
00000140: ccca bfbb b172 3bbe 8968 8dbd 0984 5fbe
00000150: c533 4a3e bcea 89bd 4199 46bd af38 353d
00000160: cb66 003d 8548 8e3d 26f2 f4bd 6f86 023e
00000170: bdaf b83c e1af 033e c7ee 8abd ac7f 293e
00000180: 15d4 553e b661 b73d 5a9b 5ebe bed2 10bd
00000190: 917b 31be e8a7 bebd b0f8 7e3d e180 153e
000001a0: 9286 68bd 4c25 a33c 39f3 e7bd 5c99 5e3d
000001b0: 7644 fdbd 39bd d5bc ebc9 be3d 4ae8 a2bd
000001c0: 64a8 0b3e 0a00 113e acfd 62bc 8293 5ebe
000001d0: 44f5 7bbe 5dd6 0abe 00da b03c e7f3 b93c
000001e0: 86ff 7dbb 66b8 fbbd 825f 07be e3e9 69be
000001f0: 14f2 e0bd 10da 7e3c ae64 b23d 3356 353d
00000200: 2ae2 9f3d da87 b7bd 2fa1 2dbe 3cea b63b
00000210: c3c4 15be dcf9 c83d 87d6 35bd c116 06be
00000220: 830b b3bd e2b0 9c3d db8f 3dbe 3c04 04be
00000230: 1c07 0a3e 3b95 04bd 4879 183e b0c3 38bd
00000240: 278e 0dbe 5972 cf3c c970 013e 3895 eb3b
00000250: ffd3 6abd 2ccc 833d c4ea cc3d 3a99 05bd
00000260: ef06 003e 8903 f13c de29 b7bd 2194 15be
00000270: 6573 1abe c4fc d3bd 0b2a 8a3d 56dd e43d
00000280: 9cbb bbbd a604 b43c f517 d83d f953 9abd
00000290: 99a1 fc3d 4774 c0bd baff bf3d f114 0b3e
000002a0: 0953 d23d c109 15bd 8d68 6dbc 7296 fb3d
000002b0: bc6b 17be fb5c b43d 5141 8dbd 61b2 fb3d
000002c0: a3de f13d 9c09 18be a3b0 373d c074 da3d
000002d0: 1e6f 143e 449d c33d 3342 b6bd 8bd7 a5bd
000002e0: 73cb f33d e7aa 3f3e 0261 78bc 662f e53d
000002f0: ce3b 79bd c67c b3bd 5ff8 ffbd 86dd 023e
00000300: a906 e9bc 0a6d 003e 13e0 4cbe ff14 74bd
00000310: f79f 4cbd f15f b23d b40b b43d e366 8a3c
00000320: 1c5b f3bd c852 d63d 1781 2b3d f8ac 1cbe
00000330: 5b11 7d3d 4b8a 983d 49ba ca3c 01c2 f7bd
00000340: ceb5 02be 0a00 7d3d db0b 98bd 1817 06bd
00000350: d5d3 e8bd 566c e5bd bfa6 7ebd a361 d4bd
00000360: d0f9 893d 982f 81bd b8b6 d8bd 30c7 2cbc
00000370: 7b83 f03d 7f2d d9bc f22d 0a3c e665 bc3d
00000380: 601c a53d 482b 173e 659c da3d 7e96 523c
00000390: 0178 95bd fbc5 193e 842d 18be b544 05bb
000003a0: 949d 073b 7e41 e33d dd9b 02be 10bc bc3d
000003b0: f7b8 953d d889 1cbb 0c69 bdbd b4b2 9e3c
000003c0: 6665 67bd 2424 90bd a3a3 7c3d 31c9 82bd
000003d0: fe27 e93d be52 003e 6826 653d 4642 fdbd
000003e0: ba2f 14be 8d1c ce3d 51b7 483d 9122 013e
000003f0: 93af e83d ccce 6cbe 4bbb 213d 7783 943d

bias f4 [10]
-0.12891188 0.0037430138 -0.047586802 0.09375902 0.062117465 -0.01929379 0.079691365 0.06633275
0.027753878 0.06494305
00000000: 7a01 04be 5a4d 753b 61ea 42bd bb04 c03d
00000010: e26e 7e3d 030e 9ebc 3a35 a33d 77d9 873d
00000020: 1a5c e33c dd00 853d
