p27model_9.pth (torch, 588587 bytes, 10 tensors)

weight f4 [32, 3, 5, 5]
0.019622568 0.18023376 0.054460686 0.13530092 0.14321525 0.05093342 0.067747265 -0.023236958
0.058388606 0.11145621 0.025438363 -0.065242164 -0.11234133 -0.09094382 0.07153805 0.06249359
0.048213188 0.012271483 0.118374825 0.054867532 -0.10656658 0.018856274 0.02239944 0.07895858
0.08217247 -0.031324588 -0.10212963 -0.0025641923 0.034130182 -0.058427602 0.057056054 0.054945283
0.0088282395 -0.11469454 -0.0028714675 -0.07507019 -0.08829019 -0.19850738 -0.14572784 -0.046183985
-0.027489081 -0.119575754 -0.16597697 -0.06323093 -0.065219544 -0.11739976 -0.122759804 -0.18174447
0.0023244724 0.041638665 -0.04541741 0.11584362 -0.075219855 -0.0016572014 0.05325737 -0.07564568
0.018420257 0.13043153 0.009665495 0.07888836 0.11330325 -0.015745023 -0.13062526 -0.08605561
-0.008819053 0.04552201 0.08244324 0.052922163 0.1338288 0.07069969 0.015949093 -0.101661354
0.092667684 0.08842854 0.14501038 0.03919743 -0.046806436 -0.047971096 -0.06394245 0.053879667
0.1725655 0.01732744 -0.12729245 -0.10633587 0.053538777 0.029180372 0.113686316 -0.17289492
0.07495511 0.10249978 -0.052732274 0.15516281 0.015993018 -0.012518438 0.1254516 -0.0016383708
0.10055108 0.12190416 -0.042610817 -0.072448745 0.1384419 -0.13200025 -0.03927492 0.03230699
0.006336888 0.1550933 0.018022254 -0.12531516 -0.08676282 -0.09774503 0.07474527 0.095712714
-0.122545965 -0.1523849 0.0723268 -0.067405164 -0.030559171 0.005300475 0.10316106 0.15983905
-0.09853482 -0.048290752 0.10578328 0.02363725 0.08044304 0.101250924 -0.15571888 -0.07811318
-0.08198583 -0.077333815 0.16974518 -0.09256436 -0.061853137 -0.14241764 0.036485992 0.07167469
0.054314073 -0.21459086 -0.036657687 0.085142896 -0.121058874 0.080029115 -0.06698462 -0.1194683
0.08445519 -0.060451087 0.050909583 0.06591888 -0.1333279 -0.11640408 -0.17853595 -0.16365483
-0.057499986 0.019167515 0.008713627 0.08021616 -0.06937802 -0.13381127 0.02380896 -0.13208766
0.043470167 -0.0715911 0.09068768 0.018040985 -0.1560765 -0.071154594 0.1315616 0.15233916
-0.062619835 0.07942381 -0.002253884 0.07476123 0.13589908 0.030925967 -0.06750743 -0.029381378
-0.07607817 -0.015649933 0.04096422 -0.03857842 0.09212992 -0.083538555 -0.047577597 0.042324655
-0.089439176 0.11285472 0.063266195 -0.055770483 -0.021542411 0.012636482 -0.082926184 -0.048614535
0.006631074 0.13215706 -0.032337073 0.10561535 0.060264565 0.0069676936 -0.05408819 0.036242694
-0.1508232 -0.025686564 0.07578096 0.055927474 -0.06980471 -0.09512673 0.07324036 0.06491578
-0.005685697 -0.116870634 0.019606344 0.05472083 -0.034177635 -0.027350102 -0.114506856 0.08401854
0.15065296 0.07851682 -0.08584371 0.037320737 0.12895273 0.06690093 0.022213355 0.10654463
0.018793542 0.057066485 0.1574964 -0.09627206 0.0701894 -0.08432565 0.0018598363 0.1562012
0.16606146 -0.10165437 -0.034615576 -0.048176967 0.18519613 -0.016511919 -0.1931687 -0.13623454
0.07673505 0.15303232 0.12085278 -0.11391988 -0.07684478 0.06776472 0.15639597 -0.07060219
-0.22795399 -0.034023415 0.06594263 0.13406071 -0.03843193 0.0237776 -0.040557433 -0.12295253
00000000: 82bf a03c 338f 383e 2b12 5f3d 538c 0a3e
00000010: 05a7 123e 909f 503d 14bf 8a3d 6f5b bebc
00000020: e428 6f3d 2743 e43d 1d64 d03c af9d 85bd
00000030: 3613 e6bd c140 babd 8b82 923d 47f9 7f3d
00000040: 317b 453d 550e 493c 806e f23d c7bc 603d
00000050: 943f dabd 7978 9a3c 087f b73c 09b5 a13d
00000060: 0a4a a83d 364e 00bd 5729 d1bd 020c 28bb
00000070: 17cc 0b3d c851 6fbd 9cb3 693d 4e0e 613d
00000080: 52a4 103c f9e4 eabd 3b2f 3cbb 66be 99bd
00000090: 7dd1 b4bd 8545 4bbe ae39 15be 6b2b 3dbd
000000a0: c830 e1bc 22e4 f4bd def5 29be 387f 81bd
000000b0: d391 85bd 496f f0bd 7e69 fbbd 391b 3abe
000000c0: 2d56 183b 4e8d 2a3d 9b07 3abd 6b3f ed3d
000000d0: de0c 9abd 7436 d9ba 6624 5a3d 1fec 9abd
000000e0: 14e6 963c d88f 053e 065c 1e3c 3890 a13d
000000f0: 890b e83d b5fb 80bc a1c2 05be ec3d b0bd
00000100: ca7d 10bc 4a75 3a3d 00d8 a83d e9c4 583d
00000110: 6b0a 093e 00cb 903d aca7 823c d433 d0bd
00000120: 8ec8 bd3d 061a b53d 9a7d 143e 7c8d 203d
00000130: 1bb8 3fbd 577d 44bd 42f4 82bd edb0 5c3d
00000140: 03b5 303e 47f2 8d3c f458 02be 9fc6 d9bd
00000150: 7a4b 5b3d ad0b ef3c 5fd4 e83d 5e0b 31be
00000160: 1182 993d 68eb d13d ccfd 57bd 00e3 1e3e
00000170: ca03 833c 221a 4dbc 6276 003e 9abe d6ba
00000180: baed cd3d e3a8 f93d ae88 2ebd 0260 94bd
00000190: b7c3 0d3e 132b 07be bdde 20bd 5654 043d
000001a0: aba5 cf3b c7d0 1e3e 68a3 933c 9e52 00be
000001b0: b5b0 b1bd 8c2e c8bd 0c14 993d 0705 c43d
000001c0: 61f9 fabd ca0a 1cbe 1320 943d b80b 8abd
000001d0: 3a57 fabc 9baf ad3b 1b46 d33d d9ac 233e
000001e0: a0cc c9bd 86cc 45bd e8a4 d83d e8a2 c13c
000001f0: 52bf a43d a55c cf3d c574 1fbe cef9 9fbd
00000200: 30e8 a7bd 3161 9ebd aed1 2d3e 6292 bdbd
00000210: b759 7dbd eed5 11be 5672 153d 2eca 923d
00000220: 6f78 5e3d b5bd 5bbe 5f26 16bd 665f ae3d
00000230: b7ed f7bd 4ee6 a33d 3c2f 89bd ccab f4bd
00000240: d8f6 ac3d 8f9b 77bd 9186 503d 7a00 873d
00000250: 1c87 08be 4365 eebd 21d2 36be 2295 27be
00000260: 1b85 6bbd 3105 9d3c 9ac3 0e3c 5f48 a43d
00000270: 1016 8ebd d205 09be 020b c33c fd41 07be
00000280: c60d 323d 5b9e 92bd 76ba b93d b0ca 933c
00000290: 85d2 1fbe 80b9 91bd 16b8 063e ccfe 1b3e
000002a0: d43e 80bd f3a8 a23d e6b5 13bb 6a1c 993d
000002b0: 2129 0b3e 7458 fd3c 5641 8abd 37b1 f0bc
000002c0: dfce 9bbd 4a34 80bc 19ca 273d 6804 1ebd
000002d0: 9dae bc3d 4316 abbd bae0 42bd 9e5c 2d3d
000002e0: e32b b7bd 6020 e73d b591 813d 976f 64bd
000002f0: b679 b0bc 3f09 4f3c 34d5 a9bd 0920 47bd
00000300: 7b49 d93b 2e54 073e e173 04bd dc4c d83d
00000310: fad7 763d 4051 e43b 948b 5dbd 3873 143d
00000320: 6671 1abe a16c d2bc 0c33 9b3d 3514 653d
00000330: c6f5 8ebd ced1 c2bd 0bff 953d 91f2 843d
00000340: 154f babb df59 efbd 7c9d a03c f322 603d
00000350: d9fd 0bbd 520d e0bc 9282 eabd ea11 ac3d
00000360: c544 1a3e 6dcd a03d d4ce afbd a1dd 183d
00000370: 2f0c 043e 5b03 893d c8f8 b53c 1234 da3d
00000380: eaf4 993c 8cbe 693d bc46 213e 492a c5bd
00000390: 76bf 8f3d edb2 acbd c0c5 f33a 35f3 1f3e
000003a0: 040c 2a3e 2b30 d0bd 10c9 0dbd 3655 45bd
000003b0: 0ea4 3d3e 0144 87bc 04ce 45be 1181 0bbe
000003c0: 4427 9d3d 81b4 1c3e aa81 f73d d34e e9bd
000003d0: cc60 9dbd 3bc8 8a3d 4426 203e e297 90bd
000003e0: c56c 69be 235c 0bbd ee0c 873d 3647 093e
000003f0: cd6a 1dbd 3ec9 c23c 8d1f 26bd 89ce fbbd

bias f4 [32]
-0.14714727 0.12841342 0.013943241 0.122930646 0.19294132 -0.0946903 0.038897377 0.14190632
-0.32889193 0.009573635 0.035192173 -0.04569225 0.012002244 -0.28075072 -0.07572516 0.08057318
-0.20199853 -0.079560526 -0.21576999 0.033060383 0.09917991 -0.28794423 -0.0063246936 -0.24506639
-0.07879176 -0.21458387 0.02220746 0.027389584 -0.1025473 0.20053542 -0.12917034 -0.048639797
00000000: c6ad 16be cf7e 033e 3172 643c 10c3 fb3d
00000010: 6992 453e fdec c1bd db52 1f3d e44f 113e
00000020: 8664 a8be bcda 1c3c ab25 103d cc27 3bbd
00000030: 0fa5 443c 8fbe 8fbe cb15 9bbd 8d03 a53d
00000040: b4d8 4ebe a1f0 a2bd cff2 5cbe 536a 073d
00000050: d61e cb3d 6d6d 93be 603f cfbb aff2 7abe
00000060: 935d a1bd e0bb 5bbe 6bec b53c 1f60 e03c
00000070: 5204 d2bd 2859 4d3e 3b45 04be 863a 47bd

weight f4 [32, 32, 5, 5]
-0.0003954147 0.03347575 0.010718068 -0.028509166 0.028773097 0.022270273 0.027967053 0.019948335
-0.018656231 0.028112935 0.011666985 0.03371624 -0.0020558273 0.0027873283 0.016516086 0.0071208244
-0.013770783 -0.0015505684 0.039623626 0.03855682 0.0008949473 -0.016743144 -0.024164863 -0.00010296086
0.023649424 0.038262755 -0.021850228 -0.0029299606 0.0063316287 0.014153692 0.012852798 0.020978073
0.036818907 0.0038060092 0.049523648 0.037767597 0.055890817 0.00937194 0.014509144 -0.0061889947
-0.011516213 0.026770547 -0.0053992365 -0.0173832 -0.01303511 0.024284936 -0.0064886883 0.012770494
0.018522091 0.01939976 -0.022554133 -0.024431478 -0.0012235751 0.029240256 -0.010627604 -0.008297453
-0.0063633043 -0.004087737 -0.00023795673 0.017006712 0.008534534 0.03715566 0.0047819153 -0.011184116
0.0022017497 0.024229819 0.04373092 0.021872768 0.018349668 -0.017870309 0.036991954 -0.013915025
0.035386335 0.039947074 -0.012552079 0.03439326 0.041490823 -0.013184865 -0.009363663 0.02967834
0.048340753 0.031784922 0.043603305 -0.01927376 0.03391385 0.06607018 0.028014027 0.016364116
0.041839704 0.061352283 0.063939795 0.02682766 0.03471609 -0.00515612 0.038256116 0.03511311
0.018158738 0.057773124 0.031180983 -0.032017384 0.004271089 0.010523332 0.02140906 0.03354772
0.029709643 -0.018596068 0.02144871 -0.012073923 0.03897802 -0.018853957 -0.0008291707 -0.0010931097
0.04582145 0.012778957 -0.010502873 0.01310084 0.015464273 0.029613096 0.011219914 0.023623047
-0.03005037 -0.01467357 -0.0045195543 0.016046565 0.031027107 0.054633383 -0.008613278 -0.00064814126
-0.0043152124 -0.0029443726 0.04834048 -0.015115845 0.045045555 0.0067417216 0.005826482 0.003017314
0.008197377 0.047302157 -0.012458568 0.020938778 -0.022374203 -0.0013332623 -0.00842799 0.02169667
0.03938901 0.024433533 0.0008966348 0.009428625 0.040613193 0.022051327 -0.007024584 0.03708686
0.030642862 0.020867832 -0.009007374 0.028661225 -0.008834102 0.038724 0.031272832 0.040682115
0.0015655443 -0.012383413 0.0068811835 -0.029941598 -0.025280315 0.039104 0.04438036 0.038983602
0.021304674 0.023354782 0.020246888 0.015217801 0.0200699 0.051473647 0.023672175 -0.016133517
-0.004531488 0.02739358 0.03789231 0.026678827 0.017444026 -0.0050499523 0.0045217345 0.01925889
0.00011806734 0.0149567 0.041971933 0.03942201 0.03552423 0.023030553 -0.0082363915 -0.025978576
0.023925683 0.023555353 0.046892803 -0.03773657 -0.040027432 0.021620607 0.041702796 0.01353992
0.022055607 0.022444576 0.0197368 0.011868647 0.041184768 -0.031317975 -0.018224096 -0.031181483
-0.004898458 0.033483185 0.0030666587 -0.01941376 0.001207387 -0.042855687 0.03970986 0.041351732
0.00239592 -0.034284215 -0.017272219 0.002598973 -0.004589534 0.00063315127 -0.032617897 -0.0052421964
0.028265977 -0.011721642 0.0036089588 0.016523462 0.017765393 -0.037923627 0.010471844 0.004712657
0.02975399 0.025853531 -0.016029062 -0.018457945 0.014703813 0.02810851 0.05467553 0.027347425
-0.015878487 -0.01859631 0.0032473628 0.037104167 0.018064266 -0.023013042 -0.02947634 -0.0039019817
-0.009069335 0.002678624 0.019032737 0.015910845 0.015919743 -0.023048598 -0.01688458 0.0268943
00000000: aa4f cfb9 de1d 093d d69a 2f3c 0e8c e9bc
00000010: 8fb5 eb3c 2670 b63c 291b e53c b16a a33c
00000020: f4d4 98bc 194d e63c e226 3f3c 0a1a 0a3d
00000030: 0fbb 06bb 9cab 363b be4c 873c ce55 e93b
00000040: da9e 61bc 713c cbba 624c 223d c2ed 1d3d
00000050: e69a 6a3a eb28 89bc 64f5 c5bc b1ec d7b8
00000060: 70bc c13c 68b9 1c3d 40ff b2bc 9504 40bb
00000070: 8d79 cf3b e3e4 673c 8b94 523c 35da ab3c
00000080: 6ccf 163d 3d6e 793b 4fd9 4a3d 32b2 1a3d
00000090: c5ed 643d c48c 193c c3b7 6d3c 0dcd cabb
000000a0: 80ae 3cbc e84d db3c 14ec b0bb 3667 8ebc
000000b0: 3791 55bc 34f1 c63c 109f d4bb 563b 513c
000000c0: a4bb 973c 3fec 9e3c 72c3 b8bc 8624 c8bc
000000d0: 5e60 a0ba 4389 ef3c 671f 2ebc 0af2 07bc
000000e0: 4483 d0bb 6cf2 85bb 0684 79b9 a951 8b3c
000000f0: 6ed4 0b3c 8930 183d 9db1 9c3b 953d 37bc
00000100: 3b4b 103b 9d7d c63c 311f 333d 852e b33c
00000110: 0b52 963c c164 92bc e084 173d d8fb 63bc
00000120: 43f1 103d 8b9f 233d 3ca7 4dbc f2df 0c3d
00000130: 48f2 293d 5505 58bc 0d6a 19bc fd1f f33c
00000140: f400 463d e830 023d 6199 323d 01e4 9dbc
00000150: 40e9 0a3d cd4f 873d ac7d e53c 0a0e 863c
00000160: 1c60 2b3d 884c 7b3d def2 823d aec5 db3c
00000170: 7532 0e3d abf4 a8bb 72b2 1c3d c4d2 0f3d
00000180: a2c1 943c 83a3 6c3d 436f ff3c a924 03bd
00000190: 7ef4 8b3b 0e6a 2c3c 0e62 af3c 5669 093d
000001a0: a361 f33c c856 98bc 34b5 af3c b4d1 45bc
000001b0: 6ba7 1f3d 9d73 9abc b45c 59ba ad46 8fba
000001c0: 46af 3b3d d55e 513c 3e14 2cbc e8a4 563c
000001d0: dd5d 7d3c 2a97 f23c bbd3 373c 1f85 c13c
000001e0: 322c f6bc 6a69 70bc c518 94bb 1674 833c
000001f0: 8f2c fe3c 41c7 5f3d b51e 0dbc 06e8 29ba
00000200: a066 8dbb 60f6 40bb ab00 463d 73a8 77bc
00000210: b081 383d a9e9 dc3b 13ec be3b 21be 453b
00000220: 4b4e 063c e8bf 413d 061f 4cbc cd87 ab3c
00000230: 1b4a b7bc dcc0 aeba 8d15 0abc 37bd b13c
00000240: 5f56 213d d528 c83c 250c 6b3a 857a 1a3c
00000250: 055a 263d fca4 b43c 7b2e e6bb 64e8 173d
00000260: bd06 fb3c 04f3 aa3c aa93 13bc f2ca ea3c
00000270: e9bc 10bc 0f9d 1e3d f117 003d 4aa2 263d
00000280: f332 cd3a cce3 4abc 8d7b e13b 1548 f5bc
00000290: aa18 cfbc 842b 203d 2ec8 353d 45ad 1f3d
000002a0: 2487 ae3c 8752 bf3c cddc a53c 1554 793c
000002b0: a269 a43c 08d6 523d 26ec c13c 702a 84bc
000002c0: e07c 94bb 8068 e03c f834 1b3d 8e8d da3c
000002d0: c6e6 8e3c 127a a5bb 0f2b 943b d2c4 9d3c
000002e0: ec9a f738 f20c 753c c3ea 2b3d f978 213d
000002f0: db81 113d 92aa bc3c eef1 06bc 06d1 d4bc
00000300: cbff c33c 28f7 c03c ab12 403d a991 1abd
00000310: cef3 23bd b31d b13c 8dd0 2a3d 8ad6 5d3c
00000320: f6ad b43c b0dd b73c 12af a13c b774 423c
00000330: 5cb1 283d 4747 00bd b34a 95bc 4f70 ffbc
00000340: 3e83 a0bb aa25 093d fff9 483b 9b09 9fbc
00000350: 2f41 9e3a 7289 2fbd cea6 223d 6f60 293d
00000360: de04 1d3b 9b6d 0cbd 787e 8dbc 8853 2a3b
00000370: cd63 96bb 10fa 253a 589a 05bd bbc6 abbb
00000380: 0d8e e73c 210c 40bc 4884 6c3b 365c 873c
00000390: bb88 913c ce55 1bbd 1992 2b3c a26c 9a3b
000003a0: a4be f33c c9ca d33c 614f 83bc 1e35 97bc
000003b0: 43e8 703c d143 e63c 73f3 5f3d b507 e03c
000003c0: 9a13 82bc 4a57 98bc b5d1 543b 8afa 173d
000003d0: 83fb 933c d985 bcbc 5e78 f1bc 64b8 7fbb
000003e0: 8c97 14bc da8b 2f3b 8bea 9b3c 7657 823c
000003f0: 1f6a 823c 6ad0 bcbc 8851 8abc 6f51 dc3c

bias f4 [32]
0.004938024 -0.046708085 -0.09528178 -0.017790424 -0.0034792384 0.055956274 -0.0131094055 -0.091507934
-0.086295485 0.06895529 0.026736282 -0.030198192 0.029485906 -0.034639534 -0.013498221 0.020147817
-0.028786086 -0.10508248 0.07068641 -0.077495344 0.004171782 -0.0769864 0.027304845 0.084456645
0.022915514 -0.04548054 0.004949859 -0.15407902 -0.0061269742 -0.02091959 -0.013968345 -0.051100574
00000000: 26cf a13b fa50 3fbd 1823 c3bd 39bd 91bc
00000010: ef03 64bb 6832 653d d5c8 56bc 8368 bbbd
00000020: b0bb b0bd 6e38 8d3d 0c06 db3c 3362 f7bc
00000030: 6d8c f13c 2fe2 0dbd a427 5dbc 090d a53c
00000040: ccd0 ebbc 7c35 d7bd 09c4 903d e1b5 9ebd
00000050: 72b3 883b 0cab 9dbd 69ae df3c 9bf7 ac3d
00000060: 51b9 bb3c cd49 3abd 6d32 a23b e4c6 1dbe
00000070: c9c4 c8bb 8f5f abbc 7cdb 64bc d64e 51bd

weight f4 [64, 32, 5, 5]
0.003846181 0.020244978 -0.0023183308 -0.0364257 -0.027043633 -0.02248911 0.013279221 -0.015584206
-0.036609326 0.018764555 -0.016617645 -0.017766692 0.023946159 -0.0026170705 0.025217531 -0.00902994
0.025320923 -0.044432405 -0.03616987 0.008269074 -0.027233474 -0.013544869 0.012654642 -0.028793402
0.034746557 -0.018285692 0.010179843 -0.025195435 0.0016860709 -0.0054379473 0.01114845 -0.0055943807
-0.008920854 -0.033277303 -0.041018017 0.034721058 -0.011544601 0.022887783 0.00907135 -0.03363948
-0.025763497 0.055765297 0.042926595 -0.018431226 0.01737977 0.03178556 -0.021851175 -0.006334008
0.04750913 -0.010783481 0.008353602 0.0058506425 0.012101056 0.023320368 -0.03717823 -0.05483194
-0.018904775 0.034722745 0.016578496 -0.037466243 -0.016688606 0.03992505 0.06490563 0.024676278
-0.021718327 0.025685672 -0.031328645 0.0016282375 -0.017387856 -0.052847397 0.031937696 0.02395699
0.053140044 -0.0005081785 0.009710161 -0.03964191 -0.0075215185 -0.031668946 -0.006085907 -0.046870135
0.014581799 0.002750429 -0.028625723 -0.04140719 -0.009215382 0.010988113 0.010587802 -0.0022260386
0.009900202 -0.0012719287 0.02401672 -0.01996481 -0.011413961 0.017620085 0.018604793 0.025811128
0.020985961 0.005120229 -0.007508966 0.020240182 0.019637283 0.006920451 0.026255196 -0.025094252
0.025925756 -0.06460169 -0.0067682983 0.020571114 -0.028368969 -0.0033628286 0.02755512 0.05688222
0.05678635 0.052984457 0.046314962 0.022161888 -0.02782078 -0.050239038 -0.00035865087 -0.031845592
-0.025037693 -0.018853566 -0.014924025 0.037983354 0.021444289 -0.014596535 -0.0052745417 -0.037816215
-0.0034382613 0.003051291 0.007413078 -0.029148716 0.015281697 0.020814437 -0.032845803 -0.005412021
0.012891113 -0.03029298 0.028225766 0.00644141 0.02092075 -0.0003566095 0.032404736 0.0189862
-0.00062828 0.015135244 -0.013147734 -0.035847176 -0.027874405 0.026110165 0.021659171 -0.0060575623
-0.02288492 0.02390547 -0.0046593933 0.006518431 0.017201398 0.036575537 0.0015265414 -0.011505203
0.015735762 -0.03645826 -0.023829592 -0.017246528 -0.0136879375 -0.051879864 -0.01908557 -0.03376919
-0.037146773 -0.0014585152 -0.0035892238 -0.026265053 0.003771019 0.027719168 -0.036407672 -0.013278667
0.012560642 -0.0145737715 -0.032627333 -0.009785044 0.009638992 0.015659317 0.01042922 0.02752205
-0.037522335 0.013857457 0.022084108 0.019945674 0.014220546 -0.04276861 -0.048986617 -0.023504116
-0.027736899 0.0003849644 -0.007936213 -0.019271428 -0.0058849975 0.03638065 -0.026422821 -0.026171993
-0.027622035 0.013705059 -0.031180022 -0.012258273 0.024569849 -0.038261157 0.01827404 0.016907262
0.025093462 -0.0033351756 0.010127221 0.027217882 0.031608444 0.028070075 9.749907e-05 -0.029554384
-0.039814226 0.01483733 0.031579994 -0.0328337 -0.013650384 -0.007964324 -0.017678667 -0.015533926
0.0021527524 -0.02643842 -0.029271858 -0.030560583 -0.008919286 -0.00743378 -0.025605304 1.611252e-05
-0.007941067 0.027000006 0.032775518 -0.041406523 -0.039835487 0.018517155 0.02628183 0.0133777885
-0.04252268 0.018022556 0.012372146 0.021978807 -0.006700471 -0.043864362 -0.0140637485 0.008741697
-0.01011807 -0.016219877 0.021276023 0.02720192 -0.0130592855 -0.016073534 0.008418337 -0.0068648024
00000000: 3610 7c3b ccd8 a53c 23ef 17bb 1d33 15bd
00000010: 9c8a ddbc 153b b8bc 1791 593c e654 7fbc
00000020: a9f3 15bd 20b8 993c ba21 88bc 748b 91bc
00000030: bc2a c43c 2883 2bbb ff94 ce3c 50f2 13bc
00000040: d36d cf3c c1fe 35bd dc26 14bd 037b 073c
00000050: bc18 dfbc 4ceb 5dbc 6a55 4f3c 24e0 ebbc
00000060: 6852 0e3d e0cb 95bc 5bc9 263c a866 cebc
00000070: 27ff dc3a cf30 b2bb fda7 363c 1151 b7bb
00000080: c628 12bc c84d 08bd 8202 28bd ab37 0e3d
00000090: 9125 3dbc 297f bb3c 00a0 143c 8dc9 09bd
000000a0: f80d d3bc 276a 643d ccd3 2f3d 15fd 96bc
000000b0: 0560 8e3c 9331 023d 3c01 b3bc 838d cfbb
000000c0: ef98 423d 33ad 30bc 8cdd 083c bfb6 bf3b
000000d0: 8243 463c 5b0a bf3c 3348 18bd 7597 60bd
000000e0: 30de 9abc 7039 0e3d a0cf 873c 3476 19bd
000000f0: 8bb6 88bc 7388 233d 3eed 843d e825 ca3c
00000100: a2ea b1bc c26a d23c 7752 00bd 966a d53a
00000110: fa70 8ebc 8376 58bd 1ad1 023d 7341 c43c
00000120: 60a9 593d 4837 05ba 5e17 1f3c 8e5f 22bd
00000130: 1277 f6bb 4cb7 01bd 4a6c c7bb e6fa 3fbd
00000140: 7fe8 6e3c 8b40 343b 7e80 eabc 969a 29bd
00000150: 1dfc 16bc 7c07 343c 7678 2d3c bbe2 11bb
00000160: 7534 223c d8b6 a6ba b6be c43c 3e8d a3bc
00000170: 9f01 3bbc ff57 903c 1469 983c dc71 d33c
00000180: c0ea ab3c 98c7 a73b c60d f6bb bdce a53c
00000190: 5ede a03c f3c4 e23b 2315 d73c 7692 cdbc
000001a0: 4062 d43c e44d 84bd 9ac8 ddbb c184 a83c
000001b0: 0a66 e8bc e762 5cbb 46bb e13c 55fd 683d
000001c0: ce98 683d 3b06 593d c2b4 3d3d d98c b53c
000001d0: 68e8 e3bc 73c7 4dbd 4e09 bcb9 8670 02bd
000001e0: d91b cdbc cb72 9abc e683 74bc 6f94 1b3d
000001f0: efab af3c 4e26 6fbc 10d6 acbb 2de5 1abd
00000200: 7454 61bb 2bf8 473b 68e9 f23b 4ac9 eebc
00000210: 1560 7a3c 0a83 aa3c 5289 06bd 5357 b1bb
00000220: 3f35 533c fc28 f8bc b939 e73c 7712 d33b
00000230: fe61 ab3c 51f7 bab9 d4ba 043d f388 9b3c
00000240: 28b3 24ba d0f9 773c 9869 57bc 7dd4 12bd
00000250: dd58 e4bc fce4 d53c 936e b13c 847e c6bb
00000260: 2879 bbbc 67d5 c33c d3ad 98bb 9098 d53b
00000270: f2e9 8c3c 3bd0 153d 3b16 c83a 5280 3cbc
00000280: 49e8 803c 4255 15bd 4736 c3bc 9748 8dbc
00000290: 5f43 60bc fb7f 54bd 5759 9cbc 9051 0abd
000002a0: 3727 18bd a62b bfba 2f39 6bbb cf29 d7bc
000002b0: 3323 773b 4f13 e33c 3620 15bd c48e 59bc
000002c0: 27cb 4d3c d4c6 6ebc 3da4 05bd 7351 20bc
000002d0: ddec 1d3c f847 803c 52df 2a3c ec75 e13c
000002e0: 05b1 19bd 630a 633c bbe9 b43c 1c65 a33c
000002f0: 4bfd 683c 232e 2fbd 31a6 48bd b48b c0bc
00000300: 7e38 e3bc 0cd5 c939 e406 02bc 1ddf 9dbc
00000310: f0d6 c0bb e003 153d ac74 d8bc a666 d6bc
00000320: 9b47 e2bc 2f8b 603c 3f6d ffbc ecd6 48bc
00000330: b546 c93c bbb7 1cbd 71b3 953c 1981 8a3c
00000340: ce90 cd3c f692 5abb a5ec 253c 09f8 de3c
00000350: db77 013d 37f3 e53c 6a78 cc38 091c f2bc
00000360: 3e14 23bd 4618 733c 065a 013d a17c 06bd
00000370: dca5 5fbc cc7c 02bc dad2 90bc 0282 7ebc
00000380: 3115 0d3b 6395 d8bc 89cb efbc 305a fabc
00000390: 3222 12bc 1197 f3bb 37c2 d1bc 6029 8737
000003a0: 401b 02bc 1e2f dd3c 9f3f 063d e399 29bd
000003b0: 892a 23bd 4ab1 973c fe4c d73c 832e 5b3c
000003c0: 432c 2ebd 0aa4 933c 8bb4 4a3c e60c b43c
000003d0: a08f dbbb 1eab 33bd a36b 66bc 5639 0f3c
000003e0: 43c6 25bc 8cdf 84bc 0e4b ae3c 90d6 de3c
000003f0: 9df6 55bc a5ac 83bc 11ed 093c 23f2 e0bb

bias f4 [64]
-0.013267325 -0.030993728 -0.060242128 -0.058365885 -0.04010974 -0.009313242 5.1494455e-05 -0.026399069
0.0029759654 0.014620489 -0.04656367 -0.00069624017 -0.030308818 -0.046112433 -0.06399657 0.042432196
-0.040206075 -0.054881066 0.044570636 0.02717614 -0.027993334 -0.016091982 -0.0019378776 -0.030790875
0.04154116 0.008361014 0.001795705 -0.043357052 0.012249222 0.028472273 -0.022608753 -0.023702905
-0.08663351 -0.02686553 -0.040431917 -0.023616664 -0.0238527 -0.051043253 -0.061442055 -0.0022909807
-0.06867571 -0.06788943 0.014680593 -0.014653639 0.041013155 -0.036740057 0.009077329 -0.020406242
-0.03998996 -0.026615486 -0.008010829 -0.052628417 -0.03548768 0.04230259 -0.02970569 -0.033939227
-0.008625246 0.00787377 -0.05271534 -0.05089895 -0.02036264 0.010083382 -0.016770665 -0.044167917
00000000: 325f 59bc 8fe6 fdbc 73c0 76bd 1111 6fbd
00000010: 1c4a 24bd 9196 18bc c0fb 5738 dc42 d8bc
00000020: 6a08 433b c78a 6f3c 8cb9 3ebd e383 36ba
00000030: 334a f8bc 64e0 3cbd a210 83bd 62cd 2d3d
00000040: 20af 24bd f8ca 60bd b38f 363d 7fa0 de3c
00000050: 4752 e5bc 55d3 83bc 6200 feba 253d fcbc
00000060: 1027 2a3d a2fc 083c dc5d eb3a 2a97 31bd
00000070: f6b0 483c af3e e93c fe35 b9bc 982c c2bc
00000080: e96c b1bd 1a15 dcbc f09b 25bd bc77 c1bc
00000090: bd66 c3bc bb12 51bd aaaa 7bbd 4724 16bb
000000a0: daa5 8cbd 9d09 8bbd df86 703c d115 70bc
000000b0: 69fd 273d be7c 16bd 14b9 143c fe2a a7bc
000000c0: 83cc 23bd b808 dabc da3f 03bc e590 57bd
000000d0: 885b 11bd 7b45 2d3d 5959 f3bc dc03 0bbd
000000e0: e750 0dbc fc00 013c 0aec 57bd 6b7b 50bd
000000f0: 8dcf a6bc c534 253c a262 89bc 6be9 34bd

weight f4 [64, 1024]
-0.020102879 -0.048941437 -0.006840268 -0.019287238 0.023970367 -0.008502909 -0.0070744846 0.02171036
0.026530614 0.024392217 -0.050230186 -0.0068658423 -0.008561451 -0.014545186 -0.020004198 -0.025824815
0.03223587 0.025899846 0.015125459 0.0244116 0.030943936 -0.004988483 -0.007933866 0.009740621
-0.017109876 -0.024785897 0.0041770977 -0.0039834115 -0.010002438 0.021315487 -0.050202176 0.057293784
0.031032447 -0.012849329 0.01953778 -0.016421013 -0.0025812974 -0.028357267 0.022174671 -0.03241526
0.012451641 0.029850714 0.010802473 0.023802316 -0.01685592 -0.033357017 -0.026253361 0.03165819
0.0026094909 0.022925735 0.033916447 0.02255312 0.026712695 -0.034186743 0.01571247 0.020386577
0.01489995 -0.015724976 -0.00093058037 0.007565079 0.0077140084 0.014972748 -0.021703836 0.046242896
0.010063544 0.00029749167 0.0010705435 0.03269024 -0.015658684 0.011478472 0.024040267 -0.024373788
0.017228493 -0.0061114635 -0.028053705 -0.04016983 0.03949907 -0.025881121 0.016574958 -0.027888702
0.0051710512 -0.01146276 -0.0064440444 -0.023611333 0.028983321 -0.009245502 -0.042694245 0.033917498
0.009098108 -0.030616645 -0.008987409 0.05265896 0.0471627 -0.02763014 0.022286152 0.013676783
-0.0030411265 -0.031545214 -0.033715837 -0.053880718 -0.021274908 0.016929517 0.029178685 -0.009466993
-0.0007236904 0.021456841 0.0085013425 -0.011683238 0.016653627 -0.014002515 0.015822139 -0.03722679
0.02437589 -0.019983085 0.007221839 0.049420938 0.010529743 -0.015289361 0.0037562954 -0.018140506
0.0038837562 -0.04063284 -0.015217429 -0.026626758 0.0027932944 0.035774857 -0.021448648 -0.031168066
-0.013488923 -0.0069011915 -0.02622009 0.018161507 0.008049689 0.025617277 -0.009486701 -0.009329901
-0.018983833 -0.011013297 -0.024116196 0.029817795 -0.01853391 -0.013482585 -0.012169127 0.013334058
0.016947301 -0.01127287 -0.035600502 0.0138722425 -0.016015112 0.004587158 0.012528613 0.04368881
-0.00013575505 0.033690635 0.02599794 0.009122831 -0.012898693 -0.023917478 0.0028436945 0.003117877
-0.006957735 0.013439538 -0.0020377692 -0.015816702 0.0023574866 0.038936 -0.022840831 0.03370272
0.007130795 0.04250616 -0.0049395054 0.029019997 -0.03109233 -0.007946478 0.028742675 0.037165575
0.036364757 0.036096856 -0.01530459 -0.04039816 -0.00018350329 0.033361766 -0.0134502845 0.006475537
0.041903943 0.043355476 -0.012945874 0.02186842 0.021376688 0.012920917 -0.028374318 -0.024460793
0.0049414 -0.008606863 0.0092944335 0.0020895633 0.004771032 -0.005308202 -0.007950071 -0.01866936
-0.02114936 0.023797657 -0.008873616 0.03559842 0.03194314 0.0003475267 -0.010810963 0.0105099445
-0.015516379 -0.023561008 -0.0023344646 0.029401978 -0.012610271 0.027569253 -0.0071907174 -0.041036062
0.009846375 -0.05122332 0.021606117 0.019900877 0.022636848 -0.014827027 -0.055410985 0.026326878
0.03444343 0.010119625 0.018648157 -0.027492898 0.0025632908 -0.014727353 0.002612516 -0.018622598
-0.014529824 0.015292105 0.015372824 0.0030498698 -0.0020066602 -0.040239077 0.008476511 -0.013503601
0.005204661 -0.01174108 -0.02736229 -0.0037767272 0.0052340026 0.010799178 0.025907574 -0.0057529407
-0.010538782 -0.005090951 -0.0069280327 0.042824384 0.019677388 0.019961098 -0.016569978 -0.01259538
00000000: cbae a4bc d176 48bd 5424 e0bb 4500 9ebc
00000010: 815d c43c c94f 0bbc 14d1 e7bb edd9 b13c
00000020: bb56 d93c 30d2 c73c 2bbe 4dbd dcfa e0bb
00000030: 5445 0cbc ef4e 6ebc d8df a3bc 908e d3bc
00000040: c209 043d ea2b d43c c6d0 773c d6fa c73c
00000050: 237e fd3c 6e76 a3bb 0cfd 01bc 2097 1f3c
00000060: 032a 8cbc cb0b cbbc 09e0 883b 4787 82bb
00000070: 44e1 23bc d19d ae3c cca0 4dbd e3ac 6a3d
00000080: c237 fe3c fe85 52bc b20d a03c 5c85 86bc
00000090: fc2a 29bb 804d e8bc a8a7 b53c ddc5 04bd
000000a0: f801 4c3c 7c89 f43c dbfc 303c 13fd c23c
000000b0: 6d15 8abc 5ea1 08bd 4a11 d7bc 05ac 013d
000000c0: fe03 2b3b c0ce bb3c f9eb 0a3d 52c1 b83c
000000d0: 95d4 da3c 6607 0cbd 70b7 803c c001 a73c
000000e0: eb1e 743c aad1 80bc 31f2 73ba 7be4 f73b
000000f0: cbc5 fc3b 4250 753c 3ecc b1bc 3169 3d3d
00000100: 90e1 243c a8f8 9b39 7b51 8c3a 33e6 053d
00000110: a446 80bc 3310 3c3c 18f0 c43c 8aab c7bc
00000120: c522 8d3c ac42 c8bb e2d0 e5bc 1f89 24bd
00000130: c7c9 213d a504 d4bc 35c8 873c d976 e4bc
00000140: ec71 a93b 4dce 3bbc 9028 d3bb 8e6c c1bc
00000150: 6e6e ed3c 727a 17bc 29e0 2ebd 13ed 0a3d
00000160: 3b10 153c c2cf fabc ed3f 13bc ecb0 573d
00000170: ad2d 413d 9a58 e2bc 7391 b63c 9614 603c
00000180: a34d 47bb 8e35 01bd 9e19 0abd 07b2 5cbd
00000190: b748 aebc c5af 8a3c 2308 ef3c 721b 1bbc
000001a0: 0ab6 3dba 42c6 af3c 3749 0b3c 0d6b 3fbc
000001b0: 306d 883c ce6a 65bc 6e9d 813c 1e7b 18bd
000001c0: f2af c73c 91b3 a3bc 2da5 ec3b 9c6d 4a3d
000001d0: f184 2c3c 3a80 7abc 2e2c 763b 669b 94bc
000001e0: 9e86 7e3b 9f6e 26bd 8652 79bc 5c20 dabc
000001f0: b40f 373b a888 123d 13b5 afbc 2c54 ffbc
00000200: a500 5dbc 6423 e2bb 84cb d6bc 71c7 943c
00000210: d8e2 033c 53db d13c 1c6e 1bbc 71dc 18bc
00000220: fc83 9bbc 1e71 34bc 548f c5bc 7344 f43c
00000230: 6dd4 97bc 0fe6 5cbc 0561 47bc 1877 5a3c
00000240: 11d5 8a3c d8b1 38bc d5d1 11bd 6748 633c
00000250: 2032 83bc df4f 963b d044 4d3c 0af3 323d
00000260: 7859 0eb9 31ff 093d a2f9 d43c ed77 153c
00000270: 0a55 53bc 96ee c3bc 475d 3a3b 4c55 4c3b
00000280: b6fd e3bb 8231 5c3c 188c 05bb 0792 81bc
00000290: 1080 1a3b 5b7b 1f3d b21c bbbc dd0b 0a3d
000002a0: 72a9 e93b f01a 2e3d 93db a1bb 58bb ed3c
000002b0: 58b5 febc f231 02bc c275 eb3c ee3a 183d
000002c0: 36f3 143d 4cda 133d 1ac0 7abc 8b78 25bd
000002d0: ca6a 40b9 59a6 083d 955e 5cbc be30 d43b
000002e0: 78a3 2b3d 8395 313d ee1a 54bc 6725 b33c
000002f0: 2a1e af3c 41b2 533c 4271 e8bc 0062 c8bc
00000300: 78eb a13b cd03 0dbc ae47 183c 0ef1 083b
00000310: 5156 9c3b 6df0 adbb 0441 02bc 7cf0 98bc
00000320: 6c41 adbc 4ef3 c23c a562 11bc a6cf 113d
00000330: cfd6 023d 3e34 b639 7720 31bc e731 2c3c
00000340: 6938 7ebc 0403 c1bc d1fd 18bb 6bdc f03c
00000350: 4f9b 4ebc ead8 e13c 1ca0 ebbb 6e15 28bd
00000360: b152 213c 8bcf 51bd 50ff b03c 2a07 a33c
00000370: e970 b93c 0fed 72bc a1f6 62bd 77ab d73c
00000380: 8e14 0d3d c9cc 253c 05c4 983c c938 e1bc
00000390: e2fc 273b ff4a 71bc bf36 2b3b 6b8e 98bc
000003a0: 800e 6ebc bd8b 7a3c 4cde 7b3c 53e0 473b
000003b0: 2c82 03bb bbd1 24bd 10e1 0a3c 353e 5dbc
000003c0: dc8b aa3b a95d 40bc e226 e0bc f882 77bb
000003d0: ff81 ab3b 09ef 303c 1f3c d43c 2a83 bcbb
000003e0: dbaa 2cbc fed1 a6bb 8d04 e3bb 9f68 2f3d
000003f0: 7932 a13c 7585 a33c c3bd 87bc da5c 4ebc

bias f4 [64]
0.015662057 0.035194825 -0.03717395 0.00410671 0.03534088 0.019532954 -0.033724103 0.029375745
0.03696119 0.011529227 0.029384969 -0.0070958245 0.012252474 0.033836324 -0.005540588 -0.011996849
-0.007936991 0.022965241 -0.021370394 -0.041168947 -0.034735475 -0.011188127 -0.0059482916 -0.011693687
0.03297165 -0.016913746 -0.033409275 0.01186674 -0.018823247 0.029301405 -0.03624423 -0.0030406476
-0.044717297 0.01387307 0.01893587 0.05821854 -0.029631548 0.016183916 0.051975295 -0.046183836
0.02208706 -0.013641236 0.0027015132 0.011168455 -0.031460363 -0.0060284096 -0.006981801 -0.036845256
-0.0028410451 -0.016909279 0.034092993 -0.037789214 0.01633161 0.035908733 0.034335956 -0.0075244284
-0.029403685 -0.002145893 0.028601024 -0.013516554 0.025802908 -0.038178675 0.05419998 0.06390055
00000000: b74d 803c 7328 103d b643 18bd 9591 863b
00000010: 99c1 103d 9303 a03c 4922 0abd 67a5 f03c
00000020: 9e64 173d 15e5 3c3c bfb8 f03c 1784 e8bb
00000030: 9abe 483c f597 0a3d d28d b5bb 6f8e 44bc
00000040: 270a 02bc 9a21 bc3c f710 afbc c5a0 28bd
00000050: c946 0ebd 684e 37bc e3e9 c2bb e196 3fbc
00000060: 480d 073d b28e 8abc 2ad8 08bd b76c 423c
00000070: 3633 9abc 8009 f03c d474 14bd 9a45 47bb
00000080: 7c29 37bd df4b 633c 661f 9b3c 9076 6e3d
00000090: dcbd f2bc 2294 843c 0ce4 543d 432b 3dbd
000000a0: ecef b43c 7e7f 5fbc df0b 313b e5fb 363c
000000b0: 95dc 00bd f789 c5bb 97c7 e4bb 0deb 16bd
000000c0: d430 3abb 5485 8abc 18a5 0b3d ddc8 1abd
000000d0: dec9 853c 0915 133d dca3 0c3d 7b8f f6bb
000000e0: ffdf f0bc 1ca2 0cbb b24c ea3c 8974 5dbc
000000f0: 9f60 d33c 3e61 1cbd cc00 5e3d 4bde 823d

weight f4 [10, 64]
0.14669792 -0.022826571 0.1355767 0.0054124915 -0.19515479 -0.2104444 -0.1263632 -0.07662491
-0.009779239 0.06350388 -0.08550426 0.015978534 -0.056665774 -0.10288231 0.07221111 0.009382736
0.15881436 -0.15216306 0.17828648 0.0974839 0.18396306 0.021164985 -0.046312325 0.05565775
-0.10879772 0.03604983 0.18915492 0.006148881 -0.12896553 -0.23881058 0.088299476 0.1549272
0.109828845 0.11968375 -0.12670141 -0.1946276 0.09243139 -0.11537685 -0.12087798 0.17641635
0.034300327 0.11761242 0.06865219 0.03559691 0.11016636 -0.1518672 0.17846683 -0.06210389
0.102680765 0.060534485 -0.10711503 0.11518234 0.021619754 -0.114593014 -0.079244904 -0.12054677
0.07499956 0.07035261 0.19061032 0.10053645 0.10664828 0.11035853 -0.1436238 0.0032252728
0.012898237 -0.19375099 0.22581184 -0.1862721 -0.108952895 0.26812026 -0.05213292 -0.018505825
0.1490058 0.08303543 0.09108845 0.20297526 -0.14843267 -0.23463951 -0.18162355 0.15402
-0.024550017 -0.23040621 -0.08726366 -0.27242348 0.2259975 -0.088023335 -0.060507976 0.045737393
0.04060079 0.06782335 -0.15561861 0.16184583 0.019058023 0.16188717 -0.07766097 0.17684421
0.23568909 0.098625444 -0.24174136 -0.01611538 -0.19433203 -0.0848034 0.0944947 0.14897987
-0.05490066 0.017427567 -0.13464634 0.04827049 -0.14468029 -0.025332896 0.09622181 -0.086768165
0.16270357 0.16436896 -0.015910901 -0.2630605 -0.30098963 -0.13712151 0.031204334 0.027566284
-0.032348026 -0.1436284 -0.14305541 -0.27114496 -0.13418013 0.0005238571 0.10240342 0.05509662
0.07492937 -0.105709314 -0.1809256 0.024615172 -0.16501912 0.11299521 -0.049743395 -0.1723733
-0.11018598 0.08256076 -0.23406212 -0.1513394 0.12652887 -0.027117193 0.16731842 -0.039795693
-0.17058903 0.026851563 0.13794367 0.0036640891 -0.07689266 0.06061882 0.11142077 -0.03452711
0.15108618 0.02247315 -0.07920349 -0.14763625 -0.16630593 -0.12648718 0.04831896 0.13779235
-0.09958877 0.011624624 0.12904292 -0.090360366 0.15241708 -0.10633659 0.10810543 0.15370058
0.10716998 -0.052137967 -0.022660706 0.11038039 -0.18388867 0.088736005 -0.09155554 0.1566538
0.11362287 -0.16669413 0.049717627 0.13812971 0.176405 0.10392503 -0.1059245 -0.07909926
0.14016585 0.21395844 -0.0018726615 0.12255681 -0.061707485 -0.08265599 -0.12418196 0.15389532
-0.03782773 0.1450291 -0.20441271 -0.058248382 -0.059379913 0.09053065 0.0918387 0.019946039
-0.123106256 0.12207583 0.05284541 -0.15399049 0.07504064 0.07544103 0.025183182 -0.1295389
-0.11210641 0.06770394 -0.084704205 -0.020145174 -0.120134935 -0.12645663 -0.07166798 -0.11814066
0.040839564 -0.064184435 -0.095497 -0.0034960622 0.13834259 -0.048658248 0.015867224 0.086179465
0.10549154 0.15440539 0.09682016 -0.0008445631 -0.07753438 0.1600088 -0.17230268 0.014150679
-0.001962701 0.13487457 -0.15130144 0.07673306 0.093276955 -0.011688738 -0.07650274 0.015199611
-0.07203711 -0.078232266 0.06201101 -0.056069463 0.1208146 0.108548254 0.06036506 -0.13018405
-0.15574935 0.09309093 0.05213257 0.13080809 0.123580374 -0.24807389 0.03557607 0.071822755
00000000: fb37 163e cafe babc 9ed4 0a3e 455b b13b
00000010: a8d6 47be bd7e 57be 5b65 01be 85ed 9cbd
00000020: 1a39 20bc 520e 823d dc1c afbd 6ae5 823c
00000030: 5f1a 68bd f6b3 d2bd 6be3 933d 0cba 193c
00000040: 3ba0 223e a2d0 1bbe bb90 363e a4a5 c73d
00000050: d060 3c3e 3162 ad3c feb1 3dbd 62f9 633d
00000060: 57d1 debd fda8 133d d4b1 413e 8d7c c93b
00000070: 8a0f 04be c38a 74be 5bd6 b43d 3ca5 1e3e
00000080: f2ed e03d c11c f53d 04be 01be 754c 47be
00000090: ab4c bd3d b34a ecbd e08e f7bd 7da6 343e
000000a0: 807e 0c3d c8de f03d 8599 8c3d 11ce 113d
000000b0: e79e e13d 1383 1bbe 02c0 363e a660 7ebd
000000c0: 4b4a d23d 02f3 773d 205f dbbd b8e4 eb3d
000000d0: e91b b13c beaf eabd 274b a2bd 3ae1 f6bd
000000e0: 5f99 993d 0715 903d 5a2f 433e 0ee6 cd3d
000000f0: 6a6a da3d a703 e23d 1e12 13be 195f 533b
00000100: 2153 533c a966 46be 383b 673e 1dbe 3ebe
00000110: b222 dfbd 0f47 893e 5489 55bd 8799 97bc
00000120: fa94 183e 7b0e aa3d 958c ba3d bfd8 4f3e
00000130: bcfe 17be 5745 70be 86fb 39be 6bb7 1d3e
00000140: 1e1d c9bc 9bef 6bbe 4ab7 b2bd 177b 8bbe
00000150: e36b 673e 9445 b4bd 36d7 77bd 2257 3b3d
00000160: 044d 263d f8e6 8a3d 7c5a 1fbe eaba 253e
00000170: 921f 9c3c c0c5 253e b70c 9fbd a616 353e
00000180: 7b58 713e 23fc c93d 0c8b 77be 6704 84bc
00000190: fafe 46be 68ad adbd 7086 c13d 2e8e 183e
000001a0: 84df 60bd 42c4 8e3c bbe0 09be 47b7 453d
000001b0: 1227 14be ef86 cfbc f10f c53d 82b3 b1bd
000001c0: c49b 263e 5650 283e 9457 82bc deaf 86be
000001d0: 501b 9abe 9569 0cbe 3ba0 ff3c b0d2 e13c
000001e0: 5d7f 04bd 5313 13be 1e7d 12be 83d3 8abe
000001f0: 8466 09be 7453 093a e2b8 d13d feac 613d
00000200: 9274 993d 207e d8bd 8f44 39be c2a5 c93c
00000210: c6fa 28be 086a e73d bbbf 4bbd a082 30be
00000220: 30a9 e1bd 9e15 a93d fbad 6fbe b7f8 1abe
00000230: c990 013e e024 debc 8555 2b3e cf00 23bd
00000240: e4ae 2ebe cff7 db3c 1b41 0d3e 3721 703b
00000250: e679 9dbd 714b 783d 9330 e43d 4d6c 0dbd
00000260: 56b6 1a3e 9d19 b83c 7035 a2bd f52d 17be
00000270: 1a4c 2abe db85 01be 1aea 453d 7019 0d3e
00000280: 32f5 cbbd 3575 3e3c d423 043e db0e b9bd
00000290: 3913 1c3e 00c7 d9bd 6166 dd3d af63 1d3e
000002a0: ef7b db3d 9f8e 55bd f2a2 b9bc 1d0f e23d
000002b0: 504d 3cbe 39bb b53d 7981 bbbd db69 203e
000002c0: 1bb3 e83d deb1 2abe b6a4 4b3d e071 0d3e
000002d0: 83a3 343e a5d6 d43d f2ee d8bd cbfe a1bd
000002e0: a387 0f3e ec17 5b3e 1874 f5ba 11ff fa3d
000002f0: fdc0 7cbd 8b47 a9bd 1d53 febd bc96 1d3e
00000300: 40f1 1abd 8282 143e 9151 51be db95 6ebd
00000310: 5a38 73bd 2268 b93d ee15 bc3d e065 a33c
00000320: 221f fcbd e502 fa3d 6e74 583d afaf 1dbe
00000330: e8ae 993d d480 9a3d f64c ce3c d8a5 04be
00000340: 0c98 e5bd 5da8 8a3d 6679 adbd 7e07 a5bc
00000350: 4e09 f6bd d97d 01be a9c6 92bd bbf3 f1bd
00000360: 6347 273d 2173 83bd ee93 c3bd 311e 65bb
00000370: aea9 0d3e df4d 47bd fbfb 813c dc7e b03d
00000380: f30b d83d 721c 1e3e a649 c63d ac65 5dba
00000390: 58ca 9ebd 59d9 233e 1d70 30be 40d8 673c
000003a0: a9a0 00bb 8f1c 0a3e c4ee 1abe 3926 9d3d
000003b0: fd07 bf3d 1f82 3fbc 78ad 9cbd ca07 793c
000003c0: 3188 93bd 3d38 a0bd 42ff 7d3d 18a9 65bd
000003d0: a56d f73d 8c4e de3d 5a41 773d f84e 05be
000003e0: c27c 1fbe 75a6 be3d f688 553d 8ef2 053e
000003f0: b517 fd3d 1507 7ebe 37b8 113d cf17 933d

bias f4 [10]
-0.13425398 0.0013654559 -0.0706232 0.08920162 0.10181212 -0.033299416 0.093825415 0.06527899
0.029219365 0.06002184
00000000: e079 09be 19f9 b23a e5a2 90bd 57af b63d
00000010: df82 d03d f864 08bd 8a27 c03d feb0 853d
00000020: 735d ef3c 76d9 753d
