p27model_6.pth (torch, 588587 bytes, 10 tensors)

weight f4 [32, 3, 5, 5]
000000 c9 98 3b 3c c5 77 2d 3e 28 ec 60 3d 17 db 0a 3e
       0.011450001 0.1694022 0.054912716 0.13560139
000010 3a ed 0a 3e 88 db 23 3d 68 7d 70 3d ff d4 81 bc
       0.13567057 0.040004283 0.058713347 -0.015848635
000020 19 22 7f 3d 1d b7 d4 3d 9f ab a3 3c 4a ce 86 bd
       0.062288377 0.103864886 0.019979296 -0.06582315
000030 a0 79 cc bd 5e 48 b6 bd ce f6 80 3d a3 28 6f 3d
       -0.09984136 -0.08900522 0.06297074 0.058388364
000040 0f bb 58 3d 25 dc d2 3c 32 9c ec 3d 90 8b 30 3d
       0.052912768 0.025739739 0.115532294 0.043101847
000050 5b f4 df bd fa 75 ab 3c 2c b3 f9 3c d8 39 9c 3d
       -0.10935279 0.020930279 0.030480944 0.0762822
000060 ca 96 9b 3d 79 24 db bc ca af ca bd 11 1d 42 3c
       0.0759712 -0.02675079 -0.0989681 0.01184775
000070 89 70 40 3d 3d f7 65 bd c2 a6 6f 3d fe 3e 73 3d
       0.046982322 -0.056143988 0.058508642 0.059386246
000080 bf 44 f4 3c a3 94 c8 bd a3 38 e9 b9 b9 4c 90 bd
       0.029817937 -0.09793975 -0.0004448342 -0.07045884
000090 19 5b 9e bd b6 d1 31 be 27 18 07 be 5b 77 3c bd
       -0.07732219 -0.17365155 -0.13192807 -0.046012264
0000a0 58 9c c3 bc 24 8c d7 bd 78 35 11 be 15 af 67 bd
       -0.023878261 -0.105247766 -0.14180553 -0.056563456
0000b0 13 ed 8f bd 95 01 e8 bd 3b f0 e5 bd ed 66 28 be
       -0.0702764 -0.11328427 -0.11227461 -0.16445513
0000c0 15 47 f7 3b a1 b8 27 3d c9 cc 2e bd f0 9c ec 3d
       0.0075463154 0.04094756 -0.042675767 0.11553371
0000d0 5f f8 89 bd 91 cd 87 3b 6f 0d 48 3d 0b 56 a2 bd
       -0.06736826 0.0041443785 0.048840936 -0.07926568
0000e0 59 80 75 3c ea d0 0e 3e de 3a 6b 3c 06 04 92 3d
       0.014984214 0.13946882 0.014357297 0.07129674
0000f0 61 d7 dc 3d 39 ef 95 bc 53 ad fc bd bb 99 b5 bd
       0.10783268 -0.018302547 -0.123377465 -0.088672124
000100 e3 4c b4 bc 6e c5 10 3d 20 a0 a2 3d 44 c3 68 3d
       -0.022009319 0.035344534 0.07940698 0.056826845
000110 8b 00 fa 3d f7 cb 4d 3d 45 3e bd 3b 6c 33 de bd
       0.12207135 0.050243344 0.0057752454 -0.10849652
000120 15 06 b9 3d ea 6e 9a 3d 97 28 03 3e c4 90 08 3d
       0.09034363 0.075406864 0.12808453 0.033341184
000130 57 c9 e0 bc 95 b2 0d bd 97 c4 7b bd c6 3b 6b 3d
       -0.027439756 -0.034594137 -0.06146678 0.05743005
000140 a7 68 16 3e 61 71 90 3c 81 e3 ce bd 88 0b bb bd
       0.14688359 0.017632188 -0.10101987 -0.09133059
000150 c4 12 64 3d 09 a1 bc 3c e0 45 de 3d c3 ff 0d be
       0.05568196 0.023026006 0.10853171 -0.13867097
000160 0d cf b9 3d 74 26 c3 3d dd f5 f1 bc 3d c1 1e 3e
       0.09072695 0.09528819 -0.029536182 0.15503402
000170 2f 0c cf 3c fb 44 99 bb 28 d6 f2 3d 66 3f b1 3c
       0.025274364 -0.0046774126 0.11857253 0.021636676
000180 e8 80 d6 3d ec 82 e7 3d 1f f7 00 bd 42 08 6b bd
       0.10473806 0.11304268 -0.031485673 -0.057380922
000190 b9 1b f1 3d 36 b2 fd bd 22 75 10 bd 73 a7 c0 3c
       0.11772866 -0.12387507 -0.035267957 0.023517346
0001a0 70 fa b4 ba ce c7 f0 3d 38 bb 0c 3c 13 c2 dc bd
       -0.0013807546 0.1175686 0.008589558 -0.10779204
0001b0 04 c3 a7 bd 4f 74 d8 bd 83 10 7b 3d 60 54 ac 3d
       -0.08191493 -0.10569059 0.061295044 0.08414531
0001c0 62 a2 c1 bd a2 a8 13 be 29 f6 68 3d a5 7b 4b bd
       -0.094548 -0.14419797 0.05687538 -0.049678463
0001d0 b7 0e 0f bd cb 5a 31 3c b7 a1 d8 3d 25 2c 16 3e
       -0.034926143 0.010824869 0.1057772 0.14665277
0001e0 40 33 a3 bd 7c 4e 3d bd 7a 53 c4 3d bb ea 02 3d
       -0.079687595 -0.046217427 0.095862344 0.031962138
0001f0 5a 34 bb 3d 2b 03 ab 3d 90 be 15 be 23 c2 99 bd
       0.09140845 0.083502136 -0.14623475 -0.07507732
000200 fa a3 ba bd 5e 06 a9 bd c2 cb 0c 3e e3 99 c9 bd
       -0.09113307 -0.082531676 0.13749602 -0.09843805
000210 fc fa 37 bd 00 32 0d be 4c 00 03 3d 39 12 7e 3d
       -0.04491709 -0.13788605 0.031982705 0.062029097
000220 b4 d1 40 3d c3 c1 3d be 8b 7f d6 bc 11 3a 9b 3d
       0.04707499 -0.18530945 -0.026183864 0.07579435
000230 9f e8 d4 bd a6 38 9f 3d 16 63 71 bd af 48 e7 bd
       -0.103959315 0.07774477 -0.058932386 -0.1129316
000240 8f b3 9f 3d 66 c0 3a bd 26 f9 55 3d 5b 92 6a 3d
       0.0779792 -0.04559364 0.05223956 0.05726848
000250 e3 25 fe bd f5 e9 d3 bd 08 e4 1f be f0 75 11 be
       -0.1240957 -0.10347358 -0.15614331 -0.14205146
000260 3d 34 4b bd 7b 3f 92 3c 39 ce 33 3c d5 a6 aa 3d
       -0.049610365 0.017852535 0.01097446 0.08332602
000270 06 07 67 bd a0 3a f6 bd 3b ff f2 3c e3 63 ee bd
       -0.056403182 -0.120229006 0.029662719 -0.11640146
000280 a7 e3 29 3d b2 8a 94 bd b6 94 c8 3d 98 1b fa 3c
       0.04147687 -0.072530165 0.09793989 0.030530736
000290 6c ad 0d be 29 a8 8d bd 06 e5 ef 3d 77 9f 10 3e
       -0.13835686 -0.0691684 0.11713605 0.14123331
0002a0 b7 03 7b bd 22 46 a5 3d 8c d5 c4 bb 82 bb 7c 3d
       -0.06128284 0.080700174 -0.006006902 0.06170226
0002b0 40 4e 01 3e 27 64 d9 3c 86 d2 91 bd e9 55 82 bc
       0.12627506 0.026537014 -0.07120232 -0.015910106
0002c0 96 71 84 bd 9f d2 93 bc 73 24 00 3d 48 73 32 bd
       -0.06466977 -0.018044768 0.03128476 -0.043566972
0002d0 45 5e b0 3d c5 ec a5 bd e8 49 36 bd bf 60 20 3d
       0.086117305 -0.08101801 -0.044504076 0.039154764
0002e0 ad e3 a7 bd 34 31 d4 3d 90 b4 5e 3d 9f 2e 66 bd
       -0.081977226 0.10360947 0.054371417 -0.056196805
0002f0 32 72 85 bc 8d 34 be 3c c3 b1 ad bd a5 02 89 bd
       -0.016289804 0.023218418 -0.08481171 -0.066899575
000300 82 40 08 bc 90 93 04 3e 39 c2 10 bd 0f fa d0 3d
       -0.008316161 0.12946916 -0.035341475 0.10203945
000310 e4 2a 44 3d 7b 65 26 bb c3 46 6f bd c5 2f 05 3d
       0.047892466 -0.0025390077 -0.058417093 0.03251626
000320 0d 3b 0c be 55 e5 77 bc 01 fa 96 3d 41 15 49 3d
       -0.13694401 -0.015130361 0.07371903 0.049092535
000330 10 05 91 bd fc bd cc bd 7c d6 9a 3d 0f 2a 8c 3d
       -0.07081044 -0.09997174 0.07560441 0.068439595
000340 e4 a6 d6 bb 2a 7f da bd 1f 90 4a 3c ff 3c 43 3d
       -0.0065506566 -0.10668786 0.012363463 0.047665592
000350 7a 97 03 bd 8f 25 98 bc 3e 43 cd bd 30 d1 ab 3d
       -0.03212688 -0.018572597 -0.10022591 0.08389509
000360 44 db 0a 3e 1b 93 8b 3d 45 42 ab bd 19 5d 22 3d
       0.13560206 0.068151675 -0.08362249 0.039639566
000370 c9 59 02 3e 84 47 6c 3d b2 bb 89 3c 75 fd d9 3d
       0.12729563 0.05768539 0.016813133 0.10644046
000380 79 79 a4 3c f2 8b a8 3d 1f e1 18 3e 29 aa bb bd
       0.020077454 0.082298175 0.14929627 -0.09163315
000390 3d db bc 3d e4 69 83 bd 5e fc fa 3c 4e fa 05 3e
       0.09221504 -0.064166814 0.030637916 0.13083765
0003a0 28 c1 20 3e 22 e9 85 bd d7 eb 7c bc 62 a0 9b bc
       0.15698683 -0.06538607 -0.015437088 -0.018997375
0003b0 cf 60 1a 3e 6f a0 00 bd 5b 46 17 be 70 1c f0 bd
       0.15075992 -0.031403 -0.14772932 -0.11724174
0003c0 f4 f7 c7 3d a9 68 00 3e 7a d1 ee 3d fe eb 82 bd
       0.0976409 0.12539925 0.11661048 -0.06392668
0003d0 2e 6a 6e bd 96 d4 a3 3d 42 97 10 3e 7c f9 76 bd
       -0.05820673 0.07999532 0.141202 -0.06029652
0003e0 07 58 3a be 68 27 5c bc 59 98 a2 3d 2d 63 eb 3d
       -0.18197642 -0.01343713 0.07939214 0.11493526
0003f0 4b a6 2b bd dc 6e 22 3d 59 01 e8 bc c6 98 d9 bd
       -0.041906636 0.039656505 -0.028320955 -0.10624842

bias f4 [32]
000000 c3 05 05 be f1 3d e8 3d b9 45 1e 3b df 01 f2 3d
       -0.12990479 0.113399394 0.0024150445 0.11816763
000010 4f 0a 26 3e c6 46 9a bd 20 7f 96 3c 55 78 0e 3e
       0.1621487 -0.0753303 0.018371165 0.1391309
000020 e4 f0 9a be bb 91 d8 bb 4d 30 7f 3c f8 7e 04 bd
       -0.3026191 -0.0066091693 0.015575481 -0.03234765
000030 21 d8 bf 3b af ed 82 be 4b 60 3b bd 26 0e 9b 3d
       0.005854622 -0.25571963 -0.04574613 0.07571058
000040 75 6e 2f be 6a 7a aa bd 04 dc 56 be df 3e 11 3d
       -0.1713198 -0.0832413 -0.20982367 0.03546035
000050 48 d0 9f 3d 7f 5e 87 be 56 47 c4 ba 4c d5 42 be
       0.07803398 -0.26439282 -0.0014974873 -0.19026679
000060 c5 de 9d bd dd 55 54 be 72 07 7e 3c b6 50 2b 3c
       -0.077085055 -0.20735879 0.015504705 0.010456255
000070 47 06 f5 bd ad 39 2d 3e d0 1a 15 be c6 4f ae bd
       -0.11964088 0.16916533 -0.1456101 -0.08511309

weight f4 [32, 32, 5, 5]
000000 21 37 34 3b d3 25 03 3d 6e b4 22 3c 53 be e1 bc
       0.002749868 0.032018494 0.009930713 -0.027556574
000010 fb f7 0b 3d 50 b5 c6 3c df dc c6 3c 21 d2 93 3c
       0.03417204 0.024256378 0.024275241 0.018044533
000020 66 7e a8 bc 48 74 00 3d 0e e9 4b 3c c7 57 f4 3c
       -0.020568084 0.031360894 0.012445701 0.029827012
000030 8d cf b2 bb e9 cc 02 bb 74 95 95 3c 81 e3 11 3c
       -0.005456871 -0.0019958562 0.018259741 0.008904339
000040 81 46 74 bc 5b 08 5a bb b7 08 10 3d 4f bd 1c 3d
       -0.014909388 -0.003326914 0.03516456 0.038266476
000050 42 0c d2 3a f4 7f 8e bc e0 86 ce bc 92 23 f9 bb
       0.0016025382 -0.017394997 -0.025210798 -0.0076031173
000060 6e 3a a5 3c 1e cc 30 3d 7c 90 95 bc 57 0d 34 3b
       0.020169463 0.04316341 -0.018257372 0.0027473771
000070 02 c0 27 3c 61 31 7b 3c 26 a6 6c 3c fd ee 9e 3c
       0.010238649 0.015331597 0.01444391 0.019401068
000080 e3 72 30 3d 2a 88 0a 3c fb 3d 51 3d 07 11 28 3d
       0.043078315 0.008455316 0.0510845 0.041031864
000090 f1 bc 54 3d fc c0 38 3c 1a 27 7c 3c 27 cb 90 bb
       0.051938 0.01127648 0.015390182 -0.004418749
0000a0 83 35 b6 bb 08 20 de 3c 0a 68 5f bb 80 1a 89 bc
       -0.0055605783 0.027114883 -0.0034089112 -0.016736269
0000b0 75 37 14 bc d8 78 01 3d ce 11 c5 bb de 17 60 3c
       -0.009046425 0.031609386 -0.0060140854 0.013677565
0000c0 e2 fa 91 3c b6 eb b1 3c 3a f8 bc bc 9e 8f b1 bc
       0.017819826 0.021718841 -0.023067582 -0.021674927
0000d0 0b a6 77 3a 0a 5f e5 3c dd b8 74 bc 83 09 19 bc
       0.00094470446 0.02799942 -0.014936653 -0.009340647
0000e0 c4 8c 7c bb 8e c2 2c 3a 6f 1a 00 3b 27 57 83 3c
       -0.0038536051 0.000659027 0.0019547006 0.016032768
0000f0 04 17 89 3b 3f 7b 15 3d a5 1c 81 3b 84 a8 0c bc
       0.004183652 0.03649449 0.0039401823 -0.008585099
000100 9f a4 d1 3a 38 ea 9c 3c ce cd 24 3d 7a 68 9f 3c
       0.0015994495 0.019154653 0.040235333 0.019458998
000110 49 58 b5 3c 3e 13 85 bc f9 3b 1f 3d 53 55 54 bc
       0.022136824 -0.016244527 0.038875554 -0.012959796
000120 a6 76 0f 3d c3 5a 32 3d 58 a6 28 bc ec c3 00 3d
       0.03502526 0.04354359 -0.010293566 0.031436846
000130 28 e2 38 3d 2f 40 4f bb 7a ab ad ba 76 30 e8 3c
       0.045137554 -0.003162395 -0.0013249957 0.02834342
000140 fb 48 1d 3d 59 41 f7 3c cf 9e 4a 3d 82 84 82 bc
       0.038399678 0.030182527 0.049467858 -0.015932325
000150 8a 02 e6 3c 71 cf 59 3d 0a d8 c8 3c d4 ed 56 3c
       0.028077383 0.053176347 0.024517078 0.013118226
000160 1d 1e 32 3d 2e 32 5e 3d 40 2b 6f 3d 61 66 da 3c
       0.04348575 0.054247074 0.058390856 0.026660146
000170 68 5a e5 3c 84 6b 7f 3a b5 4c 1a 3d a3 7f 0a 3d
       0.02799721 0.0009743499 0.03767081 0.03381313
000180 c6 2d 8d 3c cb cf 49 3d d9 4d 1e 3d 2d 14 d4 bc
       0.01723374 0.049270432 0.03864846 -0.025888527
000190 33 9d 89 3b 95 76 29 3c 75 85 88 3c 97 64 fb 3c
       0.004199648 0.010343214 0.0166652 0.030687613
0001a0 e7 bf dd 3c cb a8 9f bc 57 dc a5 3c c3 13 90 bc
       0.027069045 -0.019489666 0.020246668 -0.017587548
0001b0 99 d2 12 3d 46 12 ae bc 06 21 ac ba 11 1d 0d bb
       0.035845373 -0.021248948 -0.00131324 -0.0021532218
0001c0 a6 03 31 3d 51 28 46 3c 1f 7a 3d bc 66 3c 4c 3c
       0.04321637 0.012094573 -0.0115647605 0.012465572
0001d0 bc 1b 7a 3c 05 f9 da 3c c2 ba 0e 3c 26 28 b0 3c
       0.015265401 0.02673007 0.008711519 0.02150352
0001e0 6e 35 fd bc 7a dc 74 bc f9 12 0e bc 89 94 58 3c
       -0.030909266 -0.014945144 -0.008671516 0.013219007
0001f0 79 11 e9 3c a7 31 55 3d ed cc bb bb 37 88 13 bb
       0.028450714 0.052049305 -0.005731216 -0.002251161
000200 e9 71 a0 bb ef 1e 51 bb 70 5d 36 3d eb f4 6a bc
       -0.0048963916 -0.0031909307 0.044522703 -0.01434062
000210 68 e7 21 3d 30 49 a9 3b b5 0e 93 3b fc 5a b6 39
       0.039527327 0.0051661953 0.004487837 0.00034781534
000220 9f bf 0e 3c 50 1c 2c 3d ae ce 5e bc 89 52 9f 3c
       0.008712678 0.04201919 -0.013599081 0.019448536
000230 76 8a b7 bc 30 17 0e ba 98 9e 46 bc 6a 49 ac 3c
       -0.02240489 -0.00054203253 -0.012122773 0.0210311
000240 9d 6b 1f 3d 24 38 d6 3c a1 5c 19 3b 68 b8 ec 3b
       0.038920987 0.026149817 0.0023401158 0.0072241314
000250 1c 2d 2b 3d 25 f6 bd 3c 84 82 03 bc ae 31 18 3d
       0.041791067 0.02318866 -0.008026723 0.037156753
000260 f8 4d 06 3d 27 f2 a8 3c 57 8b 58 bc 63 63 e7 3c
       0.0327892 0.02062328 -0.013216815 0.028245633
000270 23 6a 42 bc 16 a0 25 3d a4 39 11 3d a4 ca 21 3d
       -0.011866125 0.040435873 0.03545536 0.039499894
000280 73 d0 92 b9 70 46 a0 bc c9 3b 02 3b c9 3b f1 bc
       -0.00028002597 -0.019564837 0.001987206 -0.029447453
000290 ed 00 d8 bc a6 5d 13 3d 58 e1 12 3d 23 d0 01 3d
       -0.026367629 0.035977982 0.035859436 0.031692635
0002a0 13 8d 97 3c 33 a6 c3 3c b5 94 c6 3c 97 6c 3a 3c
       0.018499887 0.02388296 0.02424083 0.011378429
0002b0 a2 c2 75 3c af 98 42 3d fc 74 c2 3c 7c 59 0f bc
       0.015000017 0.04750889 0.023737423 -0.008749362
0002c0 b1 50 9b bb 1e c1 c6 3c 1e cd 25 3d b2 c0 07 3d
       -0.004739844 0.024262007 0.040478818 0.033142753
0002d0 8d ec bd 3c 70 b5 04 bc 48 11 5d 38 8b 18 93 3c
       0.023184085 -0.008099899 5.27066e-05 0.017956039
0002e0 aa 78 c5 3b 9f ed a8 3c 86 2e 24 3d 63 6f 14 3d
       0.006026347 0.020621119 0.04008343 0.03623904
0002f0 3a 5c fe 3c 42 4b e8 3c 00 ff 8d ba 4e 12 c7 bc
       0.031049836 0.028356198 -0.0010833442 -0.02430072
000300 90 79 b6 3c e8 6b a3 3c de 43 4e 3d 16 10 fb bc
       0.022274762 0.019948915 0.050357692 -0.030647319
000310 bd 87 11 bd 38 91 b2 3c 41 01 22 3d 93 1b 6a 3c
       -0.03552984 0.021797761 0.039551977 0.014288801
000320 cf 6f a7 3c 3e 5a b9 3c 62 41 96 3c 10 ea a4 3b
       0.020439057 0.022626039 0.018341724 0.0050327852
000330 39 ef 08 3d 12 b1 fa bc 32 57 71 bc 2f fe f0 bc
       0.033431266 -0.030602012 -0.014730262 -0.02941808
000340 26 c3 15 bc 0c 18 dd 3c 97 c5 4d ba 35 12 a3 bc
       -0.009140765 0.026989006 -0.00078495726 -0.019906143
000350 aa 4e 69 3b d2 4a 2f bd af 1e 15 3d 4a 76 fe 3c
       0.0035599866 -0.042795964 0.036406215 0.031062264
000360 7a 18 c7 bb fb 49 1e bd 5d cb b6 bc 17 87 57 bb
       -0.006075916 -0.038644772 -0.022313768 -0.0032886916
000370 45 1c 15 bc 58 7e cc ba b0 40 09 bd 15 99 c1 bb
       -0.009100978 -0.0015601618 -0.033508956 -0.0059081414
000380 43 7a dd 3c 2b 7d bf bb f0 e6 cb 3b 56 42 87 3c
       0.027035838 -0.0058437786 0.0062225983 0.016511124
000390 19 90 a7 3c f4 bb 08 bd a1 89 58 3c a4 f3 ec 3b
       0.020454453 -0.03338237 0.013216407 0.0072311927
0003a0 8e da 04 3d e3 ce e1 3c 8e d4 68 bc 08 b7 95 bc
       0.032434992 0.027564472 -0.014210833 -0.018275753
0003b0 dd f4 85 3c c7 b0 f0 3c 8c 84 52 3d 5a bb cf 3c
       0.016352111 0.029381169 0.051395938 0.02535789
0003c0 24 d9 32 bc fa b5 71 bc bc de 9c 3b d8 e9 0e 3d
       -0.010916028 -0.014752859 0.004787294 0.03489098
0003d0 8a 30 7d 3c 4e 4b c7 bc f2 44 f9 bc 4a 6d eb bb
       0.015453467 -0.0243279 -0.030428383 -0.007184659
0003e0 3c b0 6c bc 2d 8c 02 bb 20 a0 90 3c e4 b7 61 3c
       -0.014446314 -0.0019919977 0.017654479 0.013776753
0003f0 cb e0 94 3c ff e6 85 bc 0c bb 46 bc b1 ee d7 3c
       0.018173596 -0.0163455 -0.012129556 0.026358934

bias f4 [32]
000000 34 7c 79 3c fb 56 3e bd bf b3 ca bd 61 e1 81 bb
       0.015227366 -0.04646967 -0.09897565 -0.003963635
000010 65 be 0f 3b a6 75 44 3d ff a7 99 3b 2f 5a 92 bd
       0.0021933552 0.04796376 0.004689216 -0.071461074
000020 5a d4 92 bd e8 d3 a2 3d 28 48 ce 3c 45 80 82 bc
       -0.07169409 0.07950574 0.025180891 -0.015930304
000030 28 7c cb 3c 8f 29 de bc 18 cd bb bb 18 a4 31 3a
       0.024839476 -0.027119426 -0.005731236 0.0006776466
000040 61 1c 15 bc ca b8 ac bd ee b1 85 3d e2 af 7b bd
       -0.009101004 -0.08433683 0.06528078 -0.06144703
000050 4c 00 c4 3b 8d 98 53 bd 1a 70 54 3c a4 0e 9a 3d
       0.0059814807 -0.051659156 0.01296618 0.07522324
000060 aa b4 e7 3c 35 3b 09 bd 2d 7b c1 3b e3 8b eb bd
       0.02828439 -0.03350373 0.0059045763 -0.11501291
000070 d6 47 04 bc 67 2e b0 bc 16 d1 92 39 31 3f 37 bd
       -0.008073768 -0.021506501 0.0002800307 -0.044738

weight f4 [64, 32, 5, 5]
000000 66 10 59 bb e3 6b 8e 3c 49 09 92 bb b1 75 fe bc
       -0.0033121346 0.017385429 -0.0044566733 -0.031061979
000010 79 60 e1 bc db f9 db bc 62 55 7c 3c 54 c6 8a bc
       -0.027511822 -0.026852539 0.015401216 -0.016940273
000020 d5 2b 0d bd 60 79 8c 3c c9 ca 8b bc c0 8a 7f bc
       -0.03446563 0.01714772 -0.017064469 -0.015597045
000030 79 86 de 3c 30 a3 3d bb 54 b0 c2 3c 1b e2 a4 bb
       0.027163731 -0.0028936379 0.02376572 -0.0050318367
000040 70 e5 e3 3c 03 6e 17 bd fe 5e 0a bd 3d b7 40 3b
       0.027819365 -0.03697015 -0.033781998 0.0029406094
000050 17 99 e9 bc 63 a5 5e bc 81 ae 5a 3c 98 75 01 bd
       -0.028515382 -0.013589236 0.013347269 -0.031606287
000060 20 c7 d0 3c ab 0c c2 bc 29 31 18 3b d9 73 cc bc
       0.025485575 -0.023687681 0.002322266 -0.024957584
000070 12 3c 92 3b 75 f8 83 bb fa 9a 11 3c 8a 33 19 bc
       0.0044627273 -0.004027421 0.008887047 -0.009350667
000080 a6 8e 00 bc 67 f3 07 bd e1 5f 19 bd ae 77 cd 3c
       -0.00784651 -0.03319111 -0.037444953 0.025081482
000090 06 fd ac bc cb 1c 95 3c ce 4d 10 3c 84 f2 d0 bc
       -0.021116745 0.018202206 0.008807613 -0.025506265
0000a0 7f d0 dc bc 33 0f 49 3d e2 8c 2d 3d 4d bd 80 bc
       -0.026954887 0.04908676 0.042370684 -0.015715266
0000b0 f5 cc af 3c be a9 b1 3c 28 93 eb bc 0c 3b 3a bc
       0.021460036 0.021687385 -0.028756693 -0.011366617
0000c0 d0 b9 12 3d 27 72 bb bc 67 dc 58 3b 58 f3 75 3b
       0.035821736 -0.02288158 0.0033090354 0.0037529077
0000d0 ed 54 63 3c 86 46 b4 3c d1 7b 26 bd c2 12 61 bd
       0.013875228 0.022006284 -0.040645424 -0.05494953
0000e0 87 e4 d0 bc 04 34 c3 3c d8 81 05 3c e7 1d 1d bd
       -0.025499595 0.023828514 0.008148633 -0.038358595
0000f0 64 f3 a2 bc 97 5e d9 3c d7 32 5b 3d 52 2f b4 3c
       -0.019891448 0.026534362 0.05351528 0.02199522
000100 b4 64 cf bc ae 43 72 3c c1 f0 16 bd 71 18 77 3a
       -0.025316574 0.014786644 -0.036850695 0.00094259443
000110 d4 d0 8f bc 79 79 5c bd 79 e1 00 3d 50 a1 ab 3c
       -0.017555632 -0.053826783 0.031465027 0.020950943
000120 d2 38 3c 3d 20 1c 70 ba ff ca 4e 3c 53 82 13 bd
       0.045952626 -0.00091594644 0.01262164 -0.03601296
000130 ca 62 5c bb d3 f0 dc bc 16 31 3c 39 c9 60 24 bd
       -0.0033628219 -0.026970303 0.00017947363 -0.040131364
000140 15 b1 4d 3c 00 eb 5f bb 4f a6 00 bd d7 2b 25 bd
       0.012554427 -0.003416717 -0.031408604 -0.040325012
000150 6e 51 8d bb 41 90 49 3c b3 a0 f1 3b c2 e1 97 ba
       -0.0043126857 0.012302459 0.007373893 -0.0011587667
000160 72 a0 17 3c 27 42 04 bb 92 d4 9b 3c b0 ff bf bc
       0.009254562 -0.0020181031 0.01902226 -0.023437351
000170 54 2d 5b bc d6 43 90 3c 37 83 ac 3c f8 e1 d8 3c
       -0.013377506 0.017610472 0.021058662 0.026474938
000180 ed e1 98 3c 7a bc bf 3a c7 fe 2e bc af c8 a1 3c
       0.018662417 0.0014628314 -0.010680861 0.019749014
000190 18 af 2d 3c 38 cf fc 38 d1 ca df 3c c2 1b b8 bc
       0.010600828 0.00012054894 0.02731839 -0.022474173
0001a0 fb bf df 3c 9b e5 77 bd c3 13 8b bb f6 c7 8e 3c
       0.027313223 -0.060521703 -0.004244299 0.017429333
0001b0 b9 c5 0f bd 9f c7 51 bb 8b 38 cf 3c 28 84 47 3d
       -0.035100672 -0.0032009853 0.025295516 0.04871002
0001c0 cf 74 5a 3d 2a 00 51 3d 3d ce 35 3d 0b 10 83 3c
       0.053334054 0.051025547 0.044386137 0.01599886
0001d0 18 da fc bc 1b 3f 2e bd 2f 8e 83 3b bb a9 08 bd
       -0.030865714 -0.04254065 0.0040147523 -0.033364993
0001e0 5d ae bd bc 27 13 89 bc e4 36 ae bc 9c d5 04 3d
       -0.023154432 -0.016732765 -0.021266408 0.032430276
0001f0 02 4d aa 3c 1a 53 59 bc 45 de eb bb 2a 2b 0f bd
       0.020788673 -0.013264442 -0.0071981275 -0.034953274
000200 68 15 99 bb d8 cb ce 3a 10 c4 ac 3b 18 9d 01 bd
       -0.0046717413 0.0015777303 0.005272396 -0.031643957
000210 00 d9 99 3c b3 1c 9c 3c 21 86 07 bd 0b 41 6a bb
       0.018780231 0.019056654 -0.0330869 -0.0035744335
000220 22 8a 76 3c 51 05 e4 bc 63 68 da 3c e0 1e 06 3c
       0.015047582 -0.027834566 0.026661104 0.008186072
000230 be 71 d0 3c 54 91 dc 3a fc 9a 17 3d 60 d8 b6 3c
       0.025444862 0.0016827979 0.03701304 0.022319973
000240 b7 27 53 3b 07 7b 7e 3c 22 e2 3b bc 5b 4b 0a bd
       0.0032219717 0.015532262 -0.0114674885 -0.03376327
000250 e8 a6 ed bc 07 45 b3 3c 38 6f 95 3c 9c d9 f9 bb
       -0.029010251 0.0218835 0.01824151 -0.007624818
000260 b6 53 c7 bc 5b 6f d0 3c 75 85 d7 bb b2 67 4f 3b
       -0.024331909 0.025443723 -0.0065771886 0.00316475
000270 33 c0 79 3c 9e 51 02 3d 47 48 2f 3b 2a 5b 52 bc
       0.015243578 0.031816117 0.0026745962 -0.012839118
000280 ff b1 8e 3c fb 68 0e bd e0 c3 b9 bc af 68 66 bc
       0.01741886 -0.034768086 -0.022676408 -0.014063044
000290 6e d7 5b bc 73 25 34 bd cd b6 31 bc d2 a2 c7 bc
       -0.013418062 -0.043981027 -0.010846806 -0.024369631
0002a0 10 30 03 bd d7 5a fd b9 4e f1 c2 3b b6 62 8c bc
       -0.032028258 -0.000483236 0.005949176 -0.017136913
0002b0 75 64 4a 3c be d8 f2 3c f2 f2 16 bd 82 b3 4c bc
       0.012353052 0.029644366 -0.036852784 -0.01249397
0002c0 40 bb 58 3c 89 f5 74 bc fe a3 08 bd 31 0a 0f bc
       0.013228238 -0.014951118 -0.03335952 -0.008730457
0002d0 17 03 43 3c c4 78 21 3c 53 51 36 3c 24 9e bd 3c
       0.011902592 0.009855453 0.011127788 0.023146696
0002e0 eb b6 1c bd 75 e4 a2 3c e3 05 a1 3c 51 cf df 3c
       -0.03826038 0.019884327 0.019656127 0.027320536
0002f0 ad ed b2 3c ef a4 31 bd 65 e3 32 bd 4c 4b 83 bc
       0.021841848 -0.043370184 -0.04367389 -0.016027115
000300 c9 ea c0 bc 84 4c f1 3b c8 b4 06 bc b5 61 55 bc
       -0.023549454 0.0073638577 -0.008221813 -0.013023783
000310 20 cd 54 ba f0 57 14 3d f1 c8 9b bc d2 b2 aa bc
       -0.0008117724 0.036216676 -0.019016715 -0.020837221
000320 eb 24 02 bd 9d 0a 22 3c 9e 4d 0a bd 43 a5 95 bc
       -0.03177349 0.009890226 -0.033765428 -0.01826728
000330 0e 82 be 3c 2d 69 0e bd fe fb 8b 3c 8e 44 31 3c
       0.023255374 -0.034768272 0.017087933 0.010819567
000340 79 f7 84 3c b6 ae bc bb 13 83 23 3c 24 6f b0 3c
       0.016231285 -0.005758132 0.009979981 0.021537371
000350 b1 04 e2 3c 82 e9 c3 3c 6c 23 66 bb 45 c0 05 bd
       0.027590128 0.023915056 -0.0035116328 -0.032654066
000360 dc 7c 1d bd 35 15 84 3c da 83 ec 3c 2d ac 06 bd
       -0.038449153 0.016123394 0.028871465 -0.032879043
000370 d5 7b 2c bc fa 78 d0 bb 24 7d ab bc df 98 8b bc
       -0.010527571 -0.006362078 -0.020933695 -0.017040668
000380 e1 e7 4a 3b 18 61 c3 bc 45 7c f5 bc fd 35 ff bc
       0.0030960965 -0.023850009 -0.029966483 -0.031153673
000390 34 49 45 bc a3 a3 42 bc b1 bc f2 bc 5e ec ac 3a
       -0.012041379 -0.011879834 -0.02963099 0.0013193002
0003a0 1d 19 bf bb e8 0b d2 3c f1 76 e6 3c ad 8e 20 bd
       -0.005831851 0.025640443 0.028132888 -0.039198566
0003b0 73 56 03 bd 7c ce 99 3c 34 9e 87 3c 70 2f 1f 3c
       -0.032064866 0.018775217 0.01655493 0.0097159
0003c0 25 d5 0c bd cc 2d b3 3c 90 cb 97 3c c7 07 c5 3c
       -0.034382958 0.021872424 0.018529683 0.02405156
0003d0 5d b7 f5 bb bc 55 2a bd 59 4c 2e bc 74 0e 82 3c
       -0.0074986652 -0.04158567 -0.01063832 0.015876032
0003e0 53 00 14 bc 36 9f cb bc 08 d0 ae 3c 6f 06 e6 3c
       -0.00903328 -0.024856191 0.021339431 0.02807924
0003f0 e7 9a 3b bc da 5d 5a bc 54 56 20 3c 93 9b cf bb
       -0.011450506 -0.01332804 0.009786207 -0.0063356846

bias f4 [64]
000000 f8 57 0c bc 63 8b d0 bc b7 29 3d bd 13 f0 46 bd
       -0.008565895 -0.02545709 -0.04618236 -0.048568796
000010 67 00 f2 bc 4d 6b d9 3b a6 bf 95 3c 86 af 6d bc
       -0.029541207 0.0066351057 0.018279862 -0.01450718
000020 9a c5 65 3b 17 83 8a 3c 10 2d 17 bd b9 5e 2e 3c
       0.0035060407 0.016908212 -0.03690821 0.010642701
000030 06 f0 e5 bc a0 67 37 bd 17 5d 49 bd 46 51 23 3d
       -0.028068554 -0.04477656 -0.049161043 0.03987243
000040 03 ef 13 bd b5 48 4b bd ac 38 26 3d 8a 95 e9 3c
       -0.03611661 -0.049629886 0.04058139 0.028513689
000050 30 50 74 bc 72 59 1f bc e3 60 95 3b 7f d5 82 bc
       -0.014911696 -0.009725915 0.004558669 -0.015970943
000060 42 a6 3c 3d 15 5b 7d 3c a9 5d 30 3c c2 42 f3 bc
       0.046056993 0.01546361 0.010764518 -0.029694919
000070 10 cf e1 3b 88 1a fd 3c 15 df a5 bc 91 96 98 bc
       0.006891139 0.03089644 -0.020247975 -0.018626483
000080 ea a9 9a bd f7 40 a4 bc 4e d6 1a bd c4 36 9b bc
       -0.0755194 -0.020050509 -0.037802033 -0.018947013
000090 db cf 54 bc c5 e4 e8 bc 8f 05 4d bd ca 7f a1 3b
       -0.01298901 -0.028429398 -0.05005413 0.0049285637
0000a0 7b 73 5b bd 58 63 46 bd 60 41 80 3c e0 d8 94 3b
       -0.053576928 -0.048434585 0.015656173 0.004542455
0000b0 5f e7 3e 3d 8e 8b d5 bc 87 5d 3a 3c 18 cc 61 bc
       0.04660737 -0.026067521 0.011374838 -0.01378157
0000c0 c3 dc e9 bc 20 ed ec bc e7 23 cc bb 64 a7 e9 bc
       -0.02854765 -0.028921664 -0.006229866 -0.0285222
0000d0 2d 87 c7 bc 84 54 38 3d 00 ff e1 bc d4 c3 bc bc
       -0.024356449 0.045002475 -0.027587414 -0.023042597
0000e0 e6 b7 65 bb e7 59 96 3c 5e 0c 2b bd 1b d7 26 bd
       -0.003505224 0.018353416 -0.04175984 -0.040732484
0000f0 91 9f 1e bc 69 f4 2d 3c 12 a5 2d bc 8b fb 31 bd
       -0.009681598 0.010617354 -0.010598438 -0.04345278

weight f4 [64, 1024]
000000 e5 0a af bc 13 28 18 bd 1c 2f e6 ba 1b e8 aa bc
       -0.0213675 -0.037147593 -0.0017561647 -0.02086263
000010 29 eb a0 3c 13 4b 89 bc 4f 9a 85 bb b1 24 8b 3c
       0.019643383 -0.016759431 -0.004077233 0.01698527
000020 05 ed b7 3c f0 6d c8 3c eb fe 24 bd 43 2c 94 bb
       0.022451887 0.024466485 -0.04028217 -0.004521878
000030 d7 c9 62 bc b1 b9 a0 bc c6 cb 9d bc 40 87 e9 bc
       -0.013842068 -0.019619795 -0.019262206 -0.028506875
000040 de 7a b7 3c 41 28 85 3c 3b b6 5e 3c 74 21 c1 3c
       0.022397455 0.016254546 0.013593252 0.023575522
000050 84 06 f4 3c 7d a8 47 3a b5 4d 51 3b 83 32 3b 3c
       0.029788263 0.0007616354 0.0031937186 0.011425617
000060 b1 c2 a9 bc dd 44 bb bc 1a 0a 0b bb 75 43 2c bc
       -0.020722719 -0.022859985 -0.0021215738 -0.01051413
000070 7f e5 57 bc 53 0a e5 3c 7e 91 1c bd cc 3c 48 3d
       -0.013177275 0.027959025 -0.03822469 0.048886105
000080 ea 98 ac 3c 23 f0 75 bc 92 f2 97 3c 1d 5e 8a bc
       0.021069009 -0.015010866 0.018548284 -0.01689058
000090 44 70 89 bb e2 fc f2 bc 3b 23 d3 3c 36 2b e4 bc
       -0.0041942913 -0.0296616 0.025773635 -0.027852636
0000a0 8f 1f ff 3b 2f 12 ed 3c 74 f9 d9 3b 0c 5b a7 3c
       0.0077857445 0.028939335 0.0066520516 0.020429157
0000b0 fd c0 9f bc eb 85 02 bd a3 38 ca bc 07 6b ee 3c
       -0.019501204 -0.031865995 -0.02468521 0.029103769
0000c0 84 18 6d 3a ca 66 bc 3c 2e 83 ea 3c fd f9 8a 3c
       0.00090444856 0.022998232 0.028627004 0.016964907
0000d0 d1 9b 8e 3c da 78 09 bd a5 20 5c 3c 3f c7 9a 3c
       0.017408283 -0.03356252 0.013435517 0.018893836
0000e0 3e 38 9a 3c 2e d5 19 bc f4 43 fd b9 d0 03 2d 3c
       0.018825646 -0.009389205 -0.0004830655 0.010559991
0000f0 a7 89 d0 3b b5 e8 71 3c a7 e4 a8 bc c4 74 36 3d
       0.0063640657 0.014764954 -0.020616842 0.04454495
000100 84 52 ac 3c a1 f1 71 ba b2 8a 3f 3b 9e 39 06 3d
       0.02103544 -0.0009229426 0.0029226956 0.03276979
000110 b4 c7 53 bc 29 a7 30 3c b5 7a b6 3c 45 e9 c9 bc
       -0.012926031 0.010782042 0.022275308 -0.024647364
000120 58 5b 8d 3c c0 fc d3 bb 57 26 f3 bc b7 5d 09 bd
       0.01725547 -0.006469339 -0.029681368 -0.03353664
000130 b1 45 11 3d 21 3d ba bc 8b 80 ae 3c 8c c0 b4 bc
       0.035466854 -0.022734227 0.021301528 -0.02206447
000140 4c eb c1 39 8c e7 27 bc 72 cb 86 bb 10 4e c8 bc
       0.00036987138 -0.010248076 -0.004113608 -0.024451286
000150 5d 9f e9 3c a3 63 e6 bb 4a e9 0e bd c1 69 dd 3c
       0.028518373 -0.0070309206 -0.03489045 0.027027966
000160 76 a5 d9 3b d4 79 e0 bc 81 a7 98 bb 5f 51 4d 3d
       0.006642039 -0.027401842 -0.00465864 0.05012643
000170 5e 15 3f 3d 00 d2 0f bd 27 8d be 3c 80 15 80 3c
       0.046651237 -0.03511238 0.023260666 0.015635252
000180 78 f7 1c bc aa 50 e0 bc c1 26 e3 bc 95 e9 49 bd
       -0.0095804855 -0.027382214 -0.02772844 -0.049295027
000190 af 55 b4 bc aa c4 6c 3c dc a1 ee 3c 7a 9c 01 bc
       -0.022013513 0.014451185 0.029129915 -0.007910842
0001a0 8d 51 98 3b d4 ce 3d 3c ec 1c df ba d4 2a 78 bc
       0.0046483935 0.011584956 -0.0017022169 -0.01514693
0001b0 5c 6b 99 3c 85 fc 5a bc 59 c0 9d 3a 53 2e c6 bc
       0.01872795 -0.013365869 0.0012035473 -0.024192011
0001c0 d6 76 b0 3c e3 37 a9 bc 80 f4 3e 3b 4e 3a 27 3d
       0.02154104 -0.020656532 0.0029137433 0.040827088
0001d0 7c 85 ce 3b 35 63 9a bc ba a0 28 3b 71 e1 e6 bc
       0.0063025337 -0.018846134 0.0025730566 -0.02818367
0001e0 f1 e9 d4 3a 02 59 0b bd 5a cc 17 bc cc 16 9b bc
       0.0016244036 -0.03402043 -0.00926503 -0.018931769
0001f0 43 16 98 ba 02 c0 d2 3c cb 33 af bc 4e a8 d3 bc
       -0.0011603314 0.025726322 -0.021387001 -0.02583709
000200 3d b2 89 bc c0 49 25 bb bb e1 61 bc f9 e8 c8 3c
       -0.016808623 -0.002522096 -0.0137867285 0.024525153
000210 79 4e 3d 3c 60 5f a7 3c f8 c8 44 bc 59 2a 1c bc
       0.011554354 0.02043122 -0.012010805 -0.009531581
000220 fb f1 92 bc 38 80 c4 bb 02 88 95 bc c5 49 e3 3c
       -0.01793765 -0.00599673 -0.01825333 0.027745137
000230 e0 0b a0 bc e4 2f c7 bb 00 a5 a4 bb 25 e4 1e 3c
       -0.019536912 -0.006078707 -0.0050245523 0.009697949
000240 5a f8 75 3c 80 9b 13 3b ab 0d f7 bc df d5 74 3c
       0.015012825 0.0022523105 -0.030157885 0.014943569
000250 28 60 96 bc ec fc 42 3b dc 83 5e 3c a1 13 21 3d
       -0.018356398 0.0029752804 0.013581242 0.03932536
000260 27 9f dc 3b 74 55 05 3d fc 2a eb 3c 64 6e 35 3c
       0.0067328396 0.032552198 0.02870702 0.011073682
000270 e2 ee 0a bc f2 36 b5 bc 12 45 a8 3b 01 cd 9b 3b
       -0.008479806 -0.022120927 0.005135187 0.004754663
000280 7d 3b 47 bc 87 d6 8c 3c 43 85 04 3a 74 63 69 bc
       -0.012160179 0.017192138 0.0005055258 -0.014244903
000290 5f 63 58 bb f3 43 13 3d 47 de e1 bc e6 51 fd 3c
       -0.0033018214 0.035953473 -0.02757181 0.030922841
0002a0 b1 7b 4f 3a 5f 04 22 3d fa 41 99 bb ee c6 ce 3c
       0.0007914855 0.03955495 -0.0046770545 0.025241341
0002b0 80 e8 d6 bc 17 84 e2 ba d4 ad f1 3c be 29 0e 3d
       -0.026233912 -0.0017281797 0.029501833 0.034707777
0002c0 9d 82 01 3d 62 24 fa 3c 16 11 84 bc 76 08 1c bd
       0.031618703 0.030534927 -0.016121428 -0.038094006
0002d0 90 e3 1f bc 2e 29 09 3d 9d 4a 0b bc 57 cc a6 3b
       -0.009758845 0.033486538 -0.008501676 0.005090277
0002e0 26 84 fc 3c 3b 5f 10 3d 95 1e a6 bc 6f 38 80 3c
       0.030824732 0.03524707 -0.020278255 0.01565191
0002f0 9b 88 91 3c ad 28 99 3c cc 3c ab bc a3 5b bc bc
       0.017765334 0.018696154 -0.020903014 -0.022992915
000300 03 6f df 3b 8d 44 03 bc ba f3 5b 3c 55 8b c4 3b
       0.0068186535 -0.008011949 0.013424808 0.005998055
000310 33 88 fb 3b 1e 2a 83 bb 35 07 fb bb af 9e 8a bc
       0.0076761483 -0.0040028235 -0.0076607713 -0.01692137
000320 42 29 be bc ea 2d 98 3c 4e 69 97 bc 52 3f 06 3d
       -0.023213033 0.018576581 -0.01848283 0.03277523
000330 ef 26 f8 3c 3e cf 0e 3b e4 93 61 bc 83 dd 4d 3c
       0.030292002 0.0021791006 -0.01376817 0.01256502
000340 96 61 98 bc 88 26 8f bc 21 8e 4c 3b ca 4d fe 3c
       -0.01860122 -0.017474428 0.0031212645 0.031042952
000350 e4 cd 50 bc 15 b1 0e 3d 3e a3 78 3b eb 87 22 bd
       -0.012744401 0.034836847 0.0037939097 -0.039680403
000360 1d 3c 5c 3b 35 7c 53 bd 14 26 92 3c 89 e2 6f 3c
       0.0033605166 -0.051632125 0.017840423 0.0146414125
000370 cd f1 9e 3c bf 2d 10 bc b8 dd 38 bd fd c5 b2 3c
       0.019402409 -0.008799969 -0.045133322 0.021822924
000380 28 94 03 3d 3c c7 c0 3b 6b 8c 85 3c b5 2c ff bc
       0.032123715 0.0058831256 0.016302308 -0.031149248
000390 49 bf b5 3b 36 d2 7c bc c3 fb 02 bc 4b 5a 70 bc
       0.0055464846 -0.015430978 -0.007994595 -0.014669965
0003a0 54 4b 80 bc da b4 53 3c 33 99 a8 3c 69 22 1d 3c
       -0.01566092 0.012921536 0.020580864 0.009590724
0003b0 07 49 c5 bb cc ca 1f bd 81 03 45 3c 5b 45 1f bc
       -0.0060206684 -0.03901176 0.012024761 -0.0097211255
0003c0 74 23 39 39 4f 9b 52 bc 65 4c e7 bc 79 64 c0 bb
       0.00017656182 -0.012854411 -0.02823467 -0.0058713523
0003d0 53 02 47 b8 29 05 9d 3c 11 56 d0 3c fe cb 24 bc
       -4.7447462e-05 0.0191675 0.025431665 -0.010058401
0003e0 2e 96 a6 bc 3c b0 c1 bb 42 7e 6c 3b f8 b8 15 3d
       -0.020335283 -0.0059109014 0.0036085998 0.036553353
0003f0 5d ef 76 3c da fe a4 3c 54 89 84 bc 84 2d 4d bc
       0.015071717 0.020141054 -0.016178764 -0.012523059

bias f4 [64]
000000 f0 95 32 3c 62 7f ec 3c 9d c8 28 bd b5 8d db 3a
       0.010900006 0.028869335 -0.041206945 0.0016750606
000010 09 a2 07 3d 14 18 d3 3c f6 b6 00 bd ca 3a c7 3c
       0.033113513 0.025768317 -0.031424485 0.024320025
000020 4c 12 05 3d 03 ac 7f 3c b3 6c c4 3c d0 9b 96 bb
       0.032488152 0.015604976 0.023977613 -0.004596211
000030 04 9e 8f 3c 05 e7 d4 3c 44 b3 91 bb 78 de 43 bc
       0.017531402 0.025989065 -0.004446419 -0.011954896
000040 07 be 7d bc ff 35 a6 3c 0e bd b8 bc 28 d6 1a bd
       -0.015487201 0.02028942 -0.022551086 -0.03780189
000050 8e aa 17 bd 89 78 17 bc a0 e4 9c bb bb 3e 9b bc
       -0.037027888 -0.009245046 -0.0047879964 -0.01895081
000060 2f d6 08 3d f3 ae 38 bc bf 74 14 bd e1 b7 c8 3b
       0.033407386 -0.01127218 -0.03624415 0.0061254357
000070 c4 af 9e bc 21 a1 d9 3c 16 b0 f6 bc ac f7 93 ba
       -0.019370921 0.02656609 -0.030113261 -0.0011289022
000080 58 e4 26 bd 24 a1 89 3c 4c 84 ab 3c 20 2b 52 3d
       -0.04074511 0.01680047 0.020937108 0.05131066
000090 ff ad dc bc 62 b2 a9 3c 77 30 3d 3d b0 57 2b bd
       -0.026938437 0.020714942 0.046188798 -0.041831672
0000a0 41 a4 b7 3c 0b a1 4d bc c7 6a 9d ba cd ae 48 3c
       0.02241719 -0.012550603 -0.0012009972 0.012248707
0000b0 5c f2 03 bd 92 0d 10 3a f4 55 83 bb fa c6 f0 bc
       -0.032213554 0.0005495186 -0.004008049 -0.029391754
0000c0 80 4f ac ba 62 8c 9d bc 96 b8 03 3d aa 3a 0e bd
       -0.0013146251 -0.019231979 0.032158457 -0.034723915
0000d0 d7 b5 91 3c 96 e1 0d 3d b1 ee f5 3c 22 71 60 bb
       0.017786903 0.034638964 0.030021043 -0.003424712
0000e0 ae c3 da bc 6b 56 94 ba be bd b8 3c 23 60 5a bc
       -0.026704635 -0.0011317258 0.022551414 -0.013328585
0000f0 3a 40 9d 3c b1 97 22 bd 38 43 43 3d 40 44 7d 3d
       0.019195665 -0.039695445 0.047671527 0.061832666

weight f4 [10, 64]
000000 b4 92 17 3e 18 58 5b bc 38 57 0b 3e 95 47 97 3b
       0.14802057 -0.013387702 0.1360749 0.0046166875
000010 6b 28 32 be dc 33 46 be de 71 cc bd 3e 7d 7b bd
       -0.1739823 -0.1935572 -0.09982656 -0.061398737
000020 62 5a 19 bc b4 b9 72 3d 34 5c 85 bd bc 4f a0 3c
       -0.009359928 0.05925913 -0.06511727 0.01956927
000030 56 fb 85 bd 86 fc b2 bd 6b 50 55 3d e3 b2 44 3b
       -0.06542079 -0.08739571 0.052078646 0.0030013851
000040 a6 bb 1d 3e 56 32 16 be 54 92 2e 3e 0c 93 b4 3d
       0.15403613 -0.14667639 0.17048007 0.088171095
000050 78 1f 2e 3e 8c c6 0a 3c 14 b7 2c bd fe cc 81 3d
       0.17004192 0.008470189 -0.042166784 0.06337927
000060 31 26 ef bd fc 0f 2d 3d e4 e0 2f 3e 41 cf af 3c
       -0.11677206 0.042251572 0.17175633 0.021461131
000070 14 cd c9 bd c6 b2 47 be 65 70 9b 3d f5 fa 00 3e
       -0.09853569 -0.1950179 0.07589797 0.12595733
000080 fb a7 ca 3d f6 69 c9 3d df c6 ef bd b1 57 29 be
       0.09895321 0.098346636 -0.117078535 -0.16537358
000090 33 12 a8 3d 3a 70 e7 bd 59 9d db bd 8c 99 2f 3e
       0.08206596 -0.113007024 -0.10723371 0.17148417
0000a0 77 55 bc 3c 8d 44 e8 3d 78 a9 84 3d 78 04 13 3d
       0.022989972 0.113412 0.06477636 0.035892934
0000b0 03 e1 a1 3d fd 9e 17 be f4 58 15 3e 34 91 93 bd
       0.07904246 -0.14806743 0.14584714 -0.0720543
0000c0 54 88 ac 3d 26 5f 58 3d cb 68 eb bd 8f 7d c0 3d
       0.0842444 0.052825116 -0.11494597 0.093989484
0000d0 78 f2 88 3c fd 00 c3 bd 4d 8d 7b bd b7 fa fe bd
       0.01671718 -0.09521673 -0.06141405 -0.12450164
0000e0 bf 6d 93 3d a0 1d 94 3d 99 37 29 3e 79 eb a3 3d
       0.07198667 0.07232213 0.16525115 0.08003897
0000f0 78 a1 f0 3d 16 66 e2 3d b8 84 f2 bd 96 7c 66 3c
       0.11749548 0.110546276 -0.1184172 0.01406779
000100 8c 44 9f b9 7d eb 34 be 43 d6 5d 3e b3 62 2f be
       -0.00030377915 -0.17667957 0.21663766 -0.17127495
000110 8f 63 c6 bd 27 24 7a 3e 28 0e 4c bd 32 9e cd bc
       -0.09686958 0.24427854 -0.049818188 -0.025099847
000120 68 79 04 3e 18 00 a8 3d e9 38 a3 3d 9c 86 48 3e
       0.12936938 0.08203143 0.07969839 0.195826
000130 4a 5f 06 be 58 69 5e be d6 ec 26 be 83 dc 0a 3e
       -0.13122287 -0.21719873 -0.16301283 0.13560681
000140 0a 37 68 bc 37 b5 48 be 82 79 9a bd e4 cc 6c be
       -0.014173279 -0.19600378 -0.07542707 -0.23125035
000150 5a 71 51 3e 30 93 98 bd c8 70 4a bd 11 11 2d 3d
       0.20453396 -0.07449949 -0.049423963 0.042252604
000160 cd 04 0c 3d d5 7e 87 3d 4a 10 02 be 2b 92 07 3e
       0.034184266 0.06615988 -0.12701526 0.13239352
000170 ea 0c 9b 3c 23 1b 0c 3e 27 93 89 bd cc 63 2d 3e
       0.018927056 0.13682227 -0.0671752 0.169326
000180 39 2e 5d 3e 73 61 be 3d 60 3f 66 be 35 b8 f0 bc
       0.21599664 0.09295931 -0.22485113 -0.029384712
000190 48 9d 33 be 57 63 b1 bd 95 fb 85 3d 2e c5 14 3e
       -0.17540467 -0.08661526 0.06542126 0.14528343
0001a0 42 ec 6d bd 04 38 a6 3c 4f d4 ef bd 65 51 4f 3d
       -0.05808664 0.020290382 -0.117104165 0.050614733
0001b0 68 5f 03 be 59 8a c5 bc c5 40 c0 3d 96 c5 9c bd
       -0.12829363 -0.02411382 0.09387354 -0.07654874
0001c0 d6 77 12 3e bc 26 16 3e 58 68 7f bc 24 75 69 be
       0.14303526 0.14663213 -0.015588842 -0.22798592
0001d0 35 b3 85 be 1c 55 0e be 1f 8b d0 3c fd 7c d7 3c
       -0.26113287 -0.13899654 0.025456963 0.026304716
0001e0 ae 44 50 bc 84 89 02 be 77 1d 0d be d1 02 74 be
       -0.012711687 -0.1274777 -0.13780771 -0.238292
0001f0 7c 3c f0 bd b8 85 82 3c 2c db bd 3d 05 46 39 3d
       -0.117302865 0.015932903 0.09270319 0.04523279
000200 4a b1 a0 3d 69 97 be bd 5c d0 2c be 32 32 0a 3c
       0.07846315 -0.09306223 -0.16876358 0.008434819
000210 ef c2 18 be 0f a8 c8 3d c0 f2 3d bd 86 c4 0d be
       -0.14918111 0.0979768 -0.046374083 -0.13844499
000220 27 ca b9 bd dd cb 9a 3d 21 1c 46 be d4 dd 08 be
       -0.090717606 0.07558415 -0.19346668 -0.1336587
000230 0d f8 05 3e 4b f7 00 bd 9e 87 1c 3e f5 bc 30 bd
       0.13082905 -0.031485837 0.15286109 -0.043148953
000240 d9 d8 12 be 38 64 c2 3c 81 a7 04 3e 0a 08 ea 3b
       -0.14340533 0.023729429 0.12954523 0.0071420716
000250 c4 45 74 bd 0b 09 81 3d 03 a0 d0 3d 61 25 f1 bc
       -0.059636846 0.06300553 0.1018677 -0.029436769
000260 d5 bd 06 3e 67 56 e4 3c dd a1 af bd 0b 09 17 be
       0.13158353 0.027873231 -0.08575795 -0.14749543
000270 9a 19 1e be d0 2d dd bd a9 43 81 3d 56 4b f4 3d
       -0.15439454 -0.10799754 0.06311733 0.11928432
000280 09 ef be bd 15 df aa 3c 8e fc e2 3d 36 2d a0 bd
       -0.09322936 0.020858327 0.11083327 -0.07821123
000290 3d be 03 3e a1 18 c7 bd b3 94 c4 3d e5 cd 10 3e
       0.12865539 -0.097214945 0.095986746 0.14141043
0002a0 6a 0e d4 3d c3 63 22 bd 37 3f 75 bc 60 8f f3 3d
       0.10354312 -0.03964592 -0.014968685 0.11892581
0002b0 a7 ae 1e be d1 10 b1 3d 12 8c 97 bd af 9e 04 3e
       -0.15496312 0.086457856 -0.07399763 0.12951158
0002c0 13 bf f1 3d a5 9f 18 be 62 3a 39 3d d1 50 e4 3d
       0.11804023 -0.1490465 0.045221694 0.11148227
0002d0 dc 42 1b 3e 07 74 c2 3d 22 51 bb bd cb dc a3 bd
       0.15162224 0.09494787 -0.09146334 -0.08001097
0002e0 b4 c7 fb 3d c2 72 44 3e 04 f6 28 bc c3 92 e7 3d
       0.1229395 0.19184402 -0.010312561 0.113072895
0002f0 3f 1c 71 bd 78 4e ad bd 88 fb fd bd b9 71 08 3e
       -0.05886483 -0.08462232 -0.124014914 0.13324632
000300 b8 20 d8 bc ce 2e 05 3e 96 da 4d be 1f 96 67 bd
       -0.026382789 0.13006136 -0.20102915 -0.05653965
000310 b6 10 64 bd 36 85 ad 3d 93 17 b1 3d f0 4b 86 3c
       -0.05568 0.084726736 0.086470746 0.016393632
000320 d8 71 f5 bd 84 26 dc 3d 8c f3 30 3d 33 74 1f be
       -0.119846046 0.10749534 0.043201014 -0.1557167
000330 16 2a 83 3d b6 41 9a 3d a3 4f d5 3c e3 21 fd bd
       0.06404512 0.075320646 0.02603895 -0.12359979
000340 37 eb f9 bd 0c 82 7d 3d 5e d5 97 bd 99 5c f4 bc
       -0.12203067 0.0618916 -0.074137434 -0.02982931
000350 83 b3 e9 bd a9 ca e8 bd c5 cb 81 bd d7 fc d4 bd
       -0.11411192 -0.11366779 -0.06337694 -0.10399788
000360 06 bd 73 3d 51 2a 7c bd 89 cf d4 bd f8 38 cb bb
       0.05950644 -0.061563794 -0.10391147 -0.0062018596
000370 fe 34 f8 3d c7 a3 08 bd ce ae 14 3c 5c 0d b5 3d
       0.121194825 -0.033359315 0.00907488 0.08840439
000380 20 30 aa 3d 53 5b 16 3e ba 04 d4 3d bf 45 12 3c
       0.0830996 0.14683275 0.10352464 0.008927762
000390 ef 51 96 bd c0 19 17 3e 8e 8a 1a be ce cd d0 3a
       -0.07339846 0.14755917 -0.15091917 0.0015930475
0003a0 2f 8b 39 3b 58 9a ed 3d 6e 26 07 be 33 ca b5 3d
       0.002831172 0.11601704 -0.13198254 0.08876457
0003b0 2c 71 9a 3d e4 6d a5 bb 46 67 b5 bd 7d db 84 3c
       0.07541117 -0.0050485004 -0.088575885 0.016217941
0003c0 f6 c0 70 bd 20 0f 94 bd 13 f8 7b 3d 92 df 71 bd
       -0.058777772 -0.07229447 0.06151588 -0.059051104
0003d0 66 7c ec 3d 0a 45 fb 3d af 95 6a 3d 8f 3b 01 be
       0.115471646 0.122690275 0.057271656 -0.12620376
0003e0 ca 07 14 be 12 b1 cd 3d af ce 51 3d a5 98 01 3e
       -0.14456096 0.10043539 0.0512225 0.12655886
0003f0 b7 88 ee 3d a9 25 71 be 57 ea 14 3d ad be 95 3d
       0.1164717 -0.23549522 0.036356296 0.07311759

bias f4 [10]
000000 d8 c9 08 be 64 72 1b 3b c0 2b 5b bd 77 6d c1 3d
       -0.13358247 0.0023719305 -0.05350852 0.09444707
000010 ca b3 9a 3d df 01 cc bc 4e 9b aa 3d 1c 29 86 3d
       0.07553823 -0.024903236 0.08330403 0.0655081
000020 56 95 f1 3c 09 d5 82 3d
       0.029490154 0.063882895
